{"format": "graph-model", "generatedBy": "2.15.1", "convertedBy": "TensorFlow.js Converter v4.22.0", "signature": {"outputs": {"Identity": {"name": "Identity"}}}, "modelTopology": {"node": [{"name": "model_662/tf.strided_slice_127/StridedSlice/begin", "op": "Const", "attr": {"value": {"tensor": {"dtype": "DT_INT32", "tensorShape": {"dim": [{"size": "4"}]}}}, "dtype": {"type": "DT_INT32"}}}, {"name": "model_662/tf.strided_slice_127/StridedSlice/end", "op": "Const", "attr": {"value": {"tensor": {"dtype": "DT_INT32", "tensorShape": {"dim": [{"size": "4"}]}}}, "dtype": {"type": "DT_INT32"}}}, {"name": "model_662/tf.strided_slice_127/ones_like", "op": "Const", "attr": {"value": {"tensor": {"dtype": "DT_INT32", "tensorShape": {"dim": [{"size": "4"}]}}}, "dtype": {"type": "DT_INT32"}}}, {"name": "model_662/tf.math.add_688/Add/y", "op": "Const", "attr": {"value": {"tensor": {"dtype": "DT_FLOAT", "tensorShape": {"dim": [{"size": "128"}]}}}, "dtype": {"type": "DT_FLOAT"}}}, {"name": "model_662/tf.math.add_681/Add/y", "op": "Const", "attr": {"value": {"tensor": {"dtype": "DT_FLOAT", "tensorShape": {"dim": [{"size": "128"}]}}}, "dtype": {"type": "DT_FLOAT"}}}, {"name": "model_662/tf.strided_slice_129/StridedSlice/begin", "op": "Const", "attr": {"value": {"tensor": {"dtype": "DT_INT32", "tensorShape": {"dim": [{"size": "4"}]}}}, "dtype": {"type": "DT_INT32"}}}, {"name": "model_662/tf.strided_slice_129/StridedSlice/end", "op": "Const", "attr": {"value": {"tensor": {"dtype": "DT_INT32", "tensorShape": {"dim": [{"size": "4"}]}}}, "dtype": {"type": "DT_INT32"}}}, {"name": "model_662/tf.strided_slice_129/ones_like", "op": "Const", "attr": {"value": {"tensor": {"dtype": "DT_INT32", "tensorShape": {"dim": [{"size": "4"}]}}}, "dtype": {"type": "DT_INT32"}}}, {"name": "model_662/tf.strided_slice_130/StridedSlice/begin", "op": "Const", "attr": {"value": {"tensor": {"dtype": "DT_INT32", "tensorShape": {"dim": [{"size": "4"}]}}}, "dtype": {"type": "DT_INT32"}}}, {"name": "model_662/tf.strided_slice_130/StridedSlice/end", "op": "Const", "attr": {"value": {"tensor": {"dtype": "DT_INT32", "tensorShape": {"dim": [{"size": "4"}]}}}, "dtype": {"type": "DT_INT32"}}}, {"name": "model_662/tf.strided_slice_130/ones_like", "op": "Const", "attr": {"value": {"tensor": {"dtype": "DT_INT32", "tensorShape": {"dim": [{"size": "4"}]}}}, "dtype": {"type": "DT_INT32"}}}, {"name": "model_662/tf.math.multiply_1881/Mul/y", "op": "Const", "attr": {"value": {"tensor": {"dtype": "DT_FLOAT", "tensorShape": {}}}, "dtype": {"type": "DT_FLOAT"}}}, {"name": "model_662/tf.reshape_392/Reshape/shape", "op": "Const", "attr": {"value": {"tensor": {"dtype": "DT_INT32", "tensorShape": {"dim": [{"size": "4"}]}}}, "dtype": {"type": "DT_INT32"}}}, {"name": "model_662/tf.compat.v1.transpose_1352/transpose/perm", "op": "Const", "attr": {"value": {"tensor": {"dtype": "DT_INT32", "tensorShape": {"dim": [{"size": "4"}]}}}, "dtype": {"type": "DT_INT32"}}}, {"name": "model_662/tf.nn.convolution_1474/convolution/filter", "op": "Const", "attr": {"value": {"tensor": {"dtype": "DT_FLOAT", "tensorShape": {"dim": [{"size": "3"}, {"size": "3"}, {"size": "1"}, {"size": "1"}]}}}, "dtype": {"type": "DT_FLOAT"}}}, {"name": "model_662/tf.nn.convolution_1475/convolution/filter", "op": "Const", "attr": {"value": {"tensor": {"dtype": "DT_FLOAT", "tensorShape": {"dim": [{"size": "3"}, {"size": "3"}, {"size": "1"}, {"size": "1"}]}}}, "dtype": {"type": "DT_FLOAT"}}}, {"name": "model_662/tf.nn.convolution_1476/convolution/filter", "op": "Const", "attr": {"value": {"tensor": {"dtype": "DT_FLOAT", "tensorShape": {"dim": [{"size": "3"}, {"size": "3"}, {"size": "1"}, {"size": "1"}]}}}, "dtype": {"type": "DT_FLOAT"}}}, {"name": "model_662/tf.nn.convolution_1477/convolution/filter", "op": "Const", "attr": {"value": {"tensor": {"dtype": "DT_FLOAT", "tensorShape": {"dim": [{"size": "3"}, {"size": "3"}, {"size": "1"}, {"size": "1"}]}}}, "dtype": {"type": "DT_FLOAT"}}}, {"name": "model_662/tf.nn.convolution_1478/convolution/filter", "op": "Const", "attr": {"value": {"tensor": {"dtype": "DT_FLOAT", "tensorShape": {"dim": [{"size": "3"}, {"size": "3"}, {"size": "1"}, {"size": "1"}]}}}, "dtype": {"type": "DT_FLOAT"}}}, {"name": "model_662/tf.nn.convolution_1479/convolution/filter", "op": "Const", "attr": {"value": {"tensor": {"dtype": "DT_FLOAT", "tensorShape": {"dim": [{"size": "3"}, {"size": "3"}, {"size": "1"}, {"size": "1"}]}}}, "dtype": {"type": "DT_FLOAT"}}}, {"name": "model_662/tf.nn.convolution_1480/convolution/filter", "op": "Const", "attr": {"value": {"tensor": {"dtype": "DT_FLOAT", "tensorShape": {"dim": [{"size": "3"}, {"size": "3"}, {"size": "1"}, {"size": "1"}]}}}, "dtype": {"type": "DT_FLOAT"}}}, {"name": "model_662/tf.nn.convolution_1481/convolution/filter", "op": "Const", "attr": {"value": {"tensor": {"dtype": "DT_FLOAT", "tensorShape": {"dim": [{"size": "3"}, {"size": "3"}, {"size": "1"}, {"size": "1"}]}}}, "dtype": {"type": "DT_FLOAT"}}}, {"name": "model_662/tf.nn.convolution_1482/convolution/filter", "op": "Const", "attr": {"value": {"tensor": {"dtype": "DT_FLOAT", "tensorShape": {"dim": [{"size": "3"}, {"size": "3"}, {"size": "1"}, {"size": "1"}]}}}, "dtype": {"type": "DT_FLOAT"}}}, {"name": "model_662/tf.nn.convolution_1483/convolution/filter", "op": "Const", "attr": {"value": {"tensor": {"dtype": "DT_FLOAT", "tensorShape": {"dim": [{"size": "3"}, {"size": "3"}, {"size": "1"}, {"size": "1"}]}}}, "dtype": {"type": "DT_FLOAT"}}}, {"name": "model_662/tf.nn.convolution_1484/convolution/filter", "op": "Const", "attr": {"value": {"tensor": {"dtype": "DT_FLOAT", "tensorShape": {"dim": [{"size": "3"}, {"size": "3"}, {"size": "1"}, {"size": "1"}]}}}, "dtype": {"type": "DT_FLOAT"}}}, {"name": "model_662/tf.nn.convolution_1485/convolution/filter", "op": "Const", "attr": {"value": {"tensor": {"dtype": "DT_FLOAT", "tensorShape": {"dim": [{"size": "3"}, {"size": "3"}, {"size": "1"}, {"size": "1"}]}}}, "dtype": {"type": "DT_FLOAT"}}}, {"name": "model_662/tf.nn.convolution_1486/convolution/filter", "op": "Const", "attr": {"value": {"tensor": {"dtype": "DT_FLOAT", "tensorShape": {"dim": [{"size": "3"}, {"size": "3"}, {"size": "1"}, {"size": "1"}]}}}, "dtype": {"type": "DT_FLOAT"}}}, {"name": "model_662/tf.nn.convolution_1487/convolution/filter", "op": "Const", "attr": {"value": {"tensor": {"dtype": "DT_FLOAT", "tensorShape": {"dim": [{"size": "3"}, {"size": "3"}, {"size": "1"}, {"size": "1"}]}}}, "dtype": {"type": "DT_FLOAT"}}}, {"name": "model_662/tf.nn.convolution_1488/convolution/filter", "op": "Const", "attr": {"value": {"tensor": {"dtype": "DT_FLOAT", "tensorShape": {"dim": [{"size": "3"}, {"size": "3"}, {"size": "1"}, {"size": "1"}]}}}, "dtype": {"type": "DT_FLOAT"}}}, {"name": "model_662/tf.nn.convolution_1489/convolution/filter", "op": "Const", "attr": {"value": {"tensor": {"dtype": "DT_FLOAT", "tensorShape": {"dim": [{"size": "3"}, {"size": "3"}, {"size": "1"}, {"size": "1"}]}}}, "dtype": {"type": "DT_FLOAT"}}}, {"name": "model_662/tf.nn.convolution_1490/convolution/filter", "op": "Const", "attr": {"value": {"tensor": {"dtype": "DT_FLOAT", "tensorShape": {"dim": [{"size": "3"}, {"size": "3"}, {"size": "1"}, {"size": "1"}]}}}, "dtype": {"type": "DT_FLOAT"}}}, {"name": "model_662/tf.nn.convolution_1491/convolution/filter", "op": "Const", "attr": {"value": {"tensor": {"dtype": "DT_FLOAT", "tensorShape": {"dim": [{"size": "3"}, {"size": "3"}, {"size": "1"}, {"size": "1"}]}}}, "dtype": {"type": "DT_FLOAT"}}}, {"name": "model_662/tf.nn.convolution_1492/convolution/filter", "op": "Const", "attr": {"value": {"tensor": {"dtype": "DT_FLOAT", "tensorShape": {"dim": [{"size": "3"}, {"size": "3"}, {"size": "1"}, {"size": "1"}]}}}, "dtype": {"type": "DT_FLOAT"}}}, {"name": "model_662/tf.nn.convolution_1493/convolution/filter", "op": "Const", "attr": {"value": {"tensor": {"dtype": "DT_FLOAT", "tensorShape": {"dim": [{"size": "3"}, {"size": "3"}, {"size": "1"}, {"size": "1"}]}}}, "dtype": {"type": "DT_FLOAT"}}}, {"name": "model_662/tf.nn.convolution_1494/convolution/filter", "op": "Const", "attr": {"value": {"tensor": {"dtype": "DT_FLOAT", "tensorShape": {"dim": [{"size": "3"}, {"size": "3"}, {"size": "1"}, {"size": "1"}]}}}, "dtype": {"type": "DT_FLOAT"}}}, {"name": "model_662/tf.nn.convolution_1495/convolution/filter", "op": "Const", "attr": {"value": {"tensor": {"dtype": "DT_FLOAT", "tensorShape": {"dim": [{"size": "3"}, {"size": "3"}, {"size": "1"}, {"size": "1"}]}}}, "dtype": {"type": "DT_FLOAT"}}}, {"name": "model_662/tf.nn.convolution_1496/convolution/filter", "op": "Const", "attr": {"value": {"tensor": {"dtype": "DT_FLOAT", "tensorShape": {"dim": [{"size": "3"}, {"size": "3"}, {"size": "1"}, {"size": "1"}]}}}, "dtype": {"type": "DT_FLOAT"}}}, {"name": "model_662/tf.nn.convolution_1497/convolution/filter", "op": "Const", "attr": {"value": {"tensor": {"dtype": "DT_FLOAT", "tensorShape": {"dim": [{"size": "3"}, {"size": "3"}, {"size": "1"}, {"size": "1"}]}}}, "dtype": {"type": "DT_FLOAT"}}}, {"name": "model_662/tf.nn.convolution_1498/convolution/filter", "op": "Const", "attr": {"value": {"tensor": {"dtype": "DT_FLOAT", "tensorShape": {"dim": [{"size": "3"}, {"size": "3"}, {"size": "1"}, {"size": "1"}]}}}, "dtype": {"type": "DT_FLOAT"}}}, {"name": "model_662/tf.nn.convolution_1499/convolution/filter", "op": "Const", "attr": {"value": {"tensor": {"dtype": "DT_FLOAT", "tensorShape": {"dim": [{"size": "3"}, {"size": "3"}, {"size": "1"}, {"size": "1"}]}}}, "dtype": {"type": "DT_FLOAT"}}}, {"name": "model_662/tf.nn.convolution_1500/convolution/filter", "op": "Const", "attr": {"value": {"tensor": {"dtype": "DT_FLOAT", "tensorShape": {"dim": [{"size": "3"}, {"size": "3"}, {"size": "1"}, {"size": "1"}]}}}, "dtype": {"type": "DT_FLOAT"}}}, {"name": "model_662/tf.nn.convolution_1501/convolution/filter", "op": "Const", "attr": {"value": {"tensor": {"dtype": "DT_FLOAT", "tensorShape": {"dim": [{"size": "3"}, {"size": "3"}, {"size": "1"}, {"size": "1"}]}}}, "dtype": {"type": "DT_FLOAT"}}}, {"name": "model_662/tf.nn.convolution_1502/convolution/filter", "op": "Const", "attr": {"value": {"tensor": {"dtype": "DT_FLOAT", "tensorShape": {"dim": [{"size": "3"}, {"size": "3"}, {"size": "1"}, {"size": "1"}]}}}, "dtype": {"type": "DT_FLOAT"}}}, {"name": "model_662/tf.nn.convolution_1503/convolution/filter", "op": "Const", "attr": {"value": {"tensor": {"dtype": "DT_FLOAT", "tensorShape": {"dim": [{"size": "3"}, {"size": "3"}, {"size": "1"}, {"size": "1"}]}}}, "dtype": {"type": "DT_FLOAT"}}}, {"name": "model_662/tf.nn.convolution_1504/convolution/filter", "op": "Const", "attr": {"value": {"tensor": {"dtype": "DT_FLOAT", "tensorShape": {"dim": [{"size": "3"}, {"size": "3"}, {"size": "1"}, {"size": "1"}]}}}, "dtype": {"type": "DT_FLOAT"}}}, {"name": "model_662/tf.nn.convolution_1505/convolution/filter", "op": "Const", "attr": {"value": {"tensor": {"dtype": "DT_FLOAT", "tensorShape": {"dim": [{"size": "3"}, {"size": "3"}, {"size": "1"}, {"size": "1"}]}}}, "dtype": {"type": "DT_FLOAT"}}}, {"name": "model_662/tf.nn.convolution_1506/convolution/filter", "op": "Const", "attr": {"value": {"tensor": {"dtype": "DT_FLOAT", "tensorShape": {"dim": [{"size": "3"}, {"size": "3"}, {"size": "1"}, {"size": "1"}]}}}, "dtype": {"type": "DT_FLOAT"}}}, {"name": "model_662/tf.nn.convolution_1507/convolution/filter", "op": "Const", "attr": {"value": {"tensor": {"dtype": "DT_FLOAT", "tensorShape": {"dim": [{"size": "3"}, {"size": "3"}, {"size": "1"}, {"size": "1"}]}}}, "dtype": {"type": "DT_FLOAT"}}}, {"name": "model_662/tf.nn.convolution_1508/convolution/filter", "op": "Const", "attr": {"value": {"tensor": {"dtype": "DT_FLOAT", "tensorShape": {"dim": [{"size": "3"}, {"size": "3"}, {"size": "1"}, {"size": "1"}]}}}, "dtype": {"type": "DT_FLOAT"}}}, {"name": "model_662/tf.nn.convolution_1509/convolution/filter", "op": "Const", "attr": {"value": {"tensor": {"dtype": "DT_FLOAT", "tensorShape": {"dim": [{"size": "3"}, {"size": "3"}, {"size": "1"}, {"size": "1"}]}}}, "dtype": {"type": "DT_FLOAT"}}}, {"name": "model_662/tf.nn.convolution_1510/convolution/filter", "op": "Const", "attr": {"value": {"tensor": {"dtype": "DT_FLOAT", "tensorShape": {"dim": [{"size": "3"}, {"size": "3"}, {"size": "1"}, {"size": "1"}]}}}, "dtype": {"type": "DT_FLOAT"}}}, {"name": "model_662/tf.nn.convolution_1511/convolution/filter", "op": "Const", "attr": {"value": {"tensor": {"dtype": "DT_FLOAT", "tensorShape": {"dim": [{"size": "3"}, {"size": "3"}, {"size": "1"}, {"size": "1"}]}}}, "dtype": {"type": "DT_FLOAT"}}}, {"name": "model_662/tf.nn.convolution_1512/convolution/filter", "op": "Const", "attr": {"value": {"tensor": {"dtype": "DT_FLOAT", "tensorShape": {"dim": [{"size": "3"}, {"size": "3"}, {"size": "1"}, {"size": "1"}]}}}, "dtype": {"type": "DT_FLOAT"}}}, {"name": "model_662/tf.nn.convolution_1513/convolution/filter", "op": "Const", "attr": {"value": {"tensor": {"dtype": "DT_FLOAT", "tensorShape": {"dim": [{"size": "3"}, {"size": "3"}, {"size": "1"}, {"size": "1"}]}}}, "dtype": {"type": "DT_FLOAT"}}}, {"name": "model_662/tf.nn.convolution_1514/convolution/filter", "op": "Const", "attr": {"value": {"tensor": {"dtype": "DT_FLOAT", "tensorShape": {"dim": [{"size": "3"}, {"size": "3"}, {"size": "1"}, {"size": "1"}]}}}, "dtype": {"type": "DT_FLOAT"}}}, {"name": "model_662/tf.nn.convolution_1515/convolution/filter", "op": "Const", "attr": {"value": {"tensor": {"dtype": "DT_FLOAT", "tensorShape": {"dim": [{"size": "3"}, {"size": "3"}, {"size": "1"}, {"size": "1"}]}}}, "dtype": {"type": "DT_FLOAT"}}}, {"name": "model_662/tf.nn.convolution_1516/convolution/filter", "op": "Const", "attr": {"value": {"tensor": {"dtype": "DT_FLOAT", "tensorShape": {"dim": [{"size": "3"}, {"size": "3"}, {"size": "1"}, {"size": "1"}]}}}, "dtype": {"type": "DT_FLOAT"}}}, {"name": "model_662/tf.nn.convolution_1517/convolution/filter", "op": "Const", "attr": {"value": {"tensor": {"dtype": "DT_FLOAT", "tensorShape": {"dim": [{"size": "3"}, {"size": "3"}, {"size": "1"}, {"size": "1"}]}}}, "dtype": {"type": "DT_FLOAT"}}}, {"name": "model_662/tf.nn.convolution_1518/convolution/filter", "op": "Const", "attr": {"value": {"tensor": {"dtype": "DT_FLOAT", "tensorShape": {"dim": [{"size": "3"}, {"size": "3"}, {"size": "1"}, {"size": "1"}]}}}, "dtype": {"type": "DT_FLOAT"}}}, {"name": "model_662/tf.nn.convolution_1519/convolution/filter", "op": "Const", "attr": {"value": {"tensor": {"dtype": "DT_FLOAT", "tensorShape": {"dim": [{"size": "3"}, {"size": "3"}, {"size": "1"}, {"size": "1"}]}}}, "dtype": {"type": "DT_FLOAT"}}}, {"name": "model_662/tf.nn.convolution_1520/convolution/filter", "op": "Const", "attr": {"value": {"tensor": {"dtype": "DT_FLOAT", "tensorShape": {"dim": [{"size": "3"}, {"size": "3"}, {"size": "1"}, {"size": "1"}]}}}, "dtype": {"type": "DT_FLOAT"}}}, {"name": "model_662/tf.nn.convolution_1521/convolution/filter", "op": "Const", "attr": {"value": {"tensor": {"dtype": "DT_FLOAT", "tensorShape": {"dim": [{"size": "3"}, {"size": "3"}, {"size": "1"}, {"size": "1"}]}}}, "dtype": {"type": "DT_FLOAT"}}}, {"name": "model_662/tf.nn.convolution_1522/convolution/filter", "op": "Const", "attr": {"value": {"tensor": {"dtype": "DT_FLOAT", "tensorShape": {"dim": [{"size": "3"}, {"size": "3"}, {"size": "1"}, {"size": "1"}]}}}, "dtype": {"type": "DT_FLOAT"}}}, {"name": "model_662/tf.nn.convolution_1523/convolution/filter", "op": "Const", "attr": {"value": {"tensor": {"dtype": "DT_FLOAT", "tensorShape": {"dim": [{"size": "3"}, {"size": "3"}, {"size": "1"}, {"size": "1"}]}}}, "dtype": {"type": "DT_FLOAT"}}}, {"name": "model_662/tf.nn.convolution_1524/convolution/filter", "op": "Const", "attr": {"value": {"tensor": {"dtype": "DT_FLOAT", "tensorShape": {"dim": [{"size": "3"}, {"size": "3"}, {"size": "1"}, {"size": "1"}]}}}, "dtype": {"type": "DT_FLOAT"}}}, {"name": "model_662/tf.nn.convolution_1525/convolution/filter", "op": "Const", "attr": {"value": {"tensor": {"dtype": "DT_FLOAT", "tensorShape": {"dim": [{"size": "3"}, {"size": "3"}, {"size": "1"}, {"size": "1"}]}}}, "dtype": {"type": "DT_FLOAT"}}}, {"name": "model_662/tf.nn.convolution_1526/convolution/filter", "op": "Const", "attr": {"value": {"tensor": {"dtype": "DT_FLOAT", "tensorShape": {"dim": [{"size": "3"}, {"size": "3"}, {"size": "1"}, {"size": "1"}]}}}, "dtype": {"type": "DT_FLOAT"}}}, {"name": "model_662/tf.nn.convolution_1527/convolution/filter", "op": "Const", "attr": {"value": {"tensor": {"dtype": "DT_FLOAT", "tensorShape": {"dim": [{"size": "3"}, {"size": "3"}, {"size": "1"}, {"size": "1"}]}}}, "dtype": {"type": "DT_FLOAT"}}}, {"name": "model_662/tf.nn.convolution_1528/convolution/filter", "op": "Const", "attr": {"value": {"tensor": {"dtype": "DT_FLOAT", "tensorShape": {"dim": [{"size": "3"}, {"size": "3"}, {"size": "1"}, {"size": "1"}]}}}, "dtype": {"type": "DT_FLOAT"}}}, {"name": "model_662/tf.nn.convolution_1529/convolution/filter", "op": "Const", "attr": {"value": {"tensor": {"dtype": "DT_FLOAT", "tensorShape": {"dim": [{"size": "3"}, {"size": "3"}, {"size": "1"}, {"size": "1"}]}}}, "dtype": {"type": "DT_FLOAT"}}}, {"name": "model_662/tf.nn.convolution_1530/convolution/filter", "op": "Const", "attr": {"value": {"tensor": {"dtype": "DT_FLOAT", "tensorShape": {"dim": [{"size": "3"}, {"size": "3"}, {"size": "1"}, {"size": "1"}]}}}, "dtype": {"type": "DT_FLOAT"}}}, {"name": "model_662/tf.nn.convolution_1531/convolution/filter", "op": "Const", "attr": {"value": {"tensor": {"dtype": "DT_FLOAT", "tensorShape": {"dim": [{"size": "3"}, {"size": "3"}, {"size": "1"}, {"size": "1"}]}}}, "dtype": {"type": "DT_FLOAT"}}}, {"name": "model_662/tf.nn.convolution_1532/convolution/filter", "op": "Const", "attr": {"value": {"tensor": {"dtype": "DT_FLOAT", "tensorShape": {"dim": [{"size": "3"}, {"size": "3"}, {"size": "1"}, {"size": "1"}]}}}, "dtype": {"type": "DT_FLOAT"}}}, {"name": "model_662/tf.nn.convolution_1533/convolution/filter", "op": "Const", "attr": {"value": {"tensor": {"dtype": "DT_FLOAT", "tensorShape": {"dim": [{"size": "3"}, {"size": "3"}, {"size": "1"}, {"size": "1"}]}}}, "dtype": {"type": "DT_FLOAT"}}}, {"name": "model_662/tf.nn.convolution_1534/convolution/filter", "op": "Const", "attr": {"value": {"tensor": {"dtype": "DT_FLOAT", "tensorShape": {"dim": [{"size": "3"}, {"size": "3"}, {"size": "1"}, {"size": "1"}]}}}, "dtype": {"type": "DT_FLOAT"}}}, {"name": "model_662/tf.nn.convolution_1535/convolution/filter", "op": "Const", "attr": {"value": {"tensor": {"dtype": "DT_FLOAT", "tensorShape": {"dim": [{"size": "3"}, {"size": "3"}, {"size": "1"}, {"size": "1"}]}}}, "dtype": {"type": "DT_FLOAT"}}}, {"name": "model_662/tf.nn.convolution_1536/convolution/filter", "op": "Const", "attr": {"value": {"tensor": {"dtype": "DT_FLOAT", "tensorShape": {"dim": [{"size": "3"}, {"size": "3"}, {"size": "1"}, {"size": "1"}]}}}, "dtype": {"type": "DT_FLOAT"}}}, {"name": "model_662/tf.nn.convolution_1537/convolution/filter", "op": "Const", "attr": {"value": {"tensor": {"dtype": "DT_FLOAT", "tensorShape": {"dim": [{"size": "3"}, {"size": "3"}, {"size": "1"}, {"size": "1"}]}}}, "dtype": {"type": "DT_FLOAT"}}}, {"name": "model_662/tf.nn.convolution_1538/convolution/filter", "op": "Const", "attr": {"value": {"tensor": {"dtype": "DT_FLOAT", "tensorShape": {"dim": [{"size": "3"}, {"size": "3"}, {"size": "1"}, {"size": "1"}]}}}, "dtype": {"type": "DT_FLOAT"}}}, {"name": "model_662/tf.nn.convolution_1539/convolution/filter", "op": "Const", "attr": {"value": {"tensor": {"dtype": "DT_FLOAT", "tensorShape": {"dim": [{"size": "3"}, {"size": "3"}, {"size": "1"}, {"size": "1"}]}}}, "dtype": {"type": "DT_FLOAT"}}}, {"name": "model_662/tf.nn.convolution_1540/convolution/filter", "op": "Const", "attr": {"value": {"tensor": {"dtype": "DT_FLOAT", "tensorShape": {"dim": [{"size": "3"}, {"size": "3"}, {"size": "1"}, {"size": "1"}]}}}, "dtype": {"type": "DT_FLOAT"}}}, {"name": "model_662/tf.nn.convolution_1541/convolution/filter", "op": "Const", "attr": {"value": {"tensor": {"dtype": "DT_FLOAT", "tensorShape": {"dim": [{"size": "3"}, {"size": "3"}, {"size": "1"}, {"size": "1"}]}}}, "dtype": {"type": "DT_FLOAT"}}}, {"name": "model_662/tf.nn.convolution_1542/convolution/filter", "op": "Const", "attr": {"value": {"tensor": {"dtype": "DT_FLOAT", "tensorShape": {"dim": [{"size": "3"}, {"size": "3"}, {"size": "1"}, {"size": "1"}]}}}, "dtype": {"type": "DT_FLOAT"}}}, {"name": "model_662/tf.nn.convolution_1543/convolution/filter", "op": "Const", "attr": {"value": {"tensor": {"dtype": "DT_FLOAT", "tensorShape": {"dim": [{"size": "3"}, {"size": "3"}, {"size": "1"}, {"size": "1"}]}}}, "dtype": {"type": "DT_FLOAT"}}}, {"name": "model_662/tf.nn.convolution_1544/convolution/filter", "op": "Const", "attr": {"value": {"tensor": {"dtype": "DT_FLOAT", "tensorShape": {"dim": [{"size": "3"}, {"size": "3"}, {"size": "1"}, {"size": "1"}]}}}, "dtype": {"type": "DT_FLOAT"}}}, {"name": "model_662/tf.nn.convolution_1545/convolution/filter", "op": "Const", "attr": {"value": {"tensor": {"dtype": "DT_FLOAT", "tensorShape": {"dim": [{"size": "3"}, {"size": "3"}, {"size": "1"}, {"size": "1"}]}}}, "dtype": {"type": "DT_FLOAT"}}}, {"name": "model_662/tf.nn.convolution_1546/convolution/filter", "op": "Const", "attr": {"value": {"tensor": {"dtype": "DT_FLOAT", "tensorShape": {"dim": [{"size": "3"}, {"size": "3"}, {"size": "1"}, {"size": "1"}]}}}, "dtype": {"type": "DT_FLOAT"}}}, {"name": "model_662/tf.nn.convolution_1547/convolution/filter", "op": "Const", "attr": {"value": {"tensor": {"dtype": "DT_FLOAT", "tensorShape": {"dim": [{"size": "3"}, {"size": "3"}, {"size": "1"}, {"size": "1"}]}}}, "dtype": {"type": "DT_FLOAT"}}}, {"name": "model_662/tf.nn.convolution_1548/convolution/filter", "op": "Const", "attr": {"value": {"tensor": {"dtype": "DT_FLOAT", "tensorShape": {"dim": [{"size": "3"}, {"size": "3"}, {"size": "1"}, {"size": "1"}]}}}, "dtype": {"type": "DT_FLOAT"}}}, {"name": "model_662/tf.nn.convolution_1549/convolution/filter", "op": "Const", "attr": {"value": {"tensor": {"dtype": "DT_FLOAT", "tensorShape": {"dim": [{"size": "3"}, {"size": "3"}, {"size": "1"}, {"size": "1"}]}}}, "dtype": {"type": "DT_FLOAT"}}}, {"name": "model_662/tf.nn.convolution_1550/convolution/filter", "op": "Const", "attr": {"value": {"tensor": {"dtype": "DT_FLOAT", "tensorShape": {"dim": [{"size": "3"}, {"size": "3"}, {"size": "1"}, {"size": "1"}]}}}, "dtype": {"type": "DT_FLOAT"}}}, {"name": "model_662/tf.nn.convolution_1551/convolution/filter", "op": "Const", "attr": {"value": {"tensor": {"dtype": "DT_FLOAT", "tensorShape": {"dim": [{"size": "3"}, {"size": "3"}, {"size": "1"}, {"size": "1"}]}}}, "dtype": {"type": "DT_FLOAT"}}}, {"name": "model_662/tf.nn.convolution_1552/convolution/filter", "op": "Const", "attr": {"value": {"tensor": {"dtype": "DT_FLOAT", "tensorShape": {"dim": [{"size": "3"}, {"size": "3"}, {"size": "1"}, {"size": "1"}]}}}, "dtype": {"type": "DT_FLOAT"}}}, {"name": "model_662/tf.nn.convolution_1553/convolution/filter", "op": "Const", "attr": {"value": {"tensor": {"dtype": "DT_FLOAT", "tensorShape": {"dim": [{"size": "3"}, {"size": "3"}, {"size": "1"}, {"size": "1"}]}}}, "dtype": {"type": "DT_FLOAT"}}}, {"name": "model_662/tf.nn.convolution_1554/convolution/filter", "op": "Const", "attr": {"value": {"tensor": {"dtype": "DT_FLOAT", "tensorShape": {"dim": [{"size": "3"}, {"size": "3"}, {"size": "1"}, {"size": "1"}]}}}, "dtype": {"type": "DT_FLOAT"}}}, {"name": "model_662/tf.nn.convolution_1555/convolution/filter", "op": "Const", "attr": {"value": {"tensor": {"dtype": "DT_FLOAT", "tensorShape": {"dim": [{"size": "3"}, {"size": "3"}, {"size": "1"}, {"size": "1"}]}}}, "dtype": {"type": "DT_FLOAT"}}}, {"name": "model_662/tf.nn.convolution_1556/convolution/filter", "op": "Const", "attr": {"value": {"tensor": {"dtype": "DT_FLOAT", "tensorShape": {"dim": [{"size": "3"}, {"size": "3"}, {"size": "1"}, {"size": "1"}]}}}, "dtype": {"type": "DT_FLOAT"}}}, {"name": "model_662/tf.nn.convolution_1557/convolution/filter", "op": "Const", "attr": {"value": {"tensor": {"dtype": "DT_FLOAT", "tensorShape": {"dim": [{"size": "3"}, {"size": "3"}, {"size": "1"}, {"size": "1"}]}}}, "dtype": {"type": "DT_FLOAT"}}}, {"name": "model_662/tf.nn.convolution_1558/convolution/filter", "op": "Const", "attr": {"value": {"tensor": {"dtype": "DT_FLOAT", "tensorShape": {"dim": [{"size": "3"}, {"size": "3"}, {"size": "1"}, {"size": "1"}]}}}, "dtype": {"type": "DT_FLOAT"}}}, {"name": "model_662/tf.nn.convolution_1559/convolution/filter", "op": "Const", "attr": {"value": {"tensor": {"dtype": "DT_FLOAT", "tensorShape": {"dim": [{"size": "3"}, {"size": "3"}, {"size": "1"}, {"size": "1"}]}}}, "dtype": {"type": "DT_FLOAT"}}}, {"name": "model_662/tf.nn.convolution_1560/convolution/filter", "op": "Const", "attr": {"value": {"tensor": {"dtype": "DT_FLOAT", "tensorShape": {"dim": [{"size": "3"}, {"size": "3"}, {"size": "1"}, {"size": "1"}]}}}, "dtype": {"type": "DT_FLOAT"}}}, {"name": "model_662/tf.nn.convolution_1561/convolution/filter", "op": "Const", "attr": {"value": {"tensor": {"dtype": "DT_FLOAT", "tensorShape": {"dim": [{"size": "3"}, {"size": "3"}, {"size": "1"}, {"size": "1"}]}}}, "dtype": {"type": "DT_FLOAT"}}}, {"name": "model_662/tf.nn.convolution_1562/convolution/filter", "op": "Const", "attr": {"value": {"tensor": {"dtype": "DT_FLOAT", "tensorShape": {"dim": [{"size": "3"}, {"size": "3"}, {"size": "1"}, {"size": "1"}]}}}, "dtype": {"type": "DT_FLOAT"}}}, {"name": "model_662/tf.nn.convolution_1563/convolution/filter", "op": "Const", "attr": {"value": {"tensor": {"dtype": "DT_FLOAT", "tensorShape": {"dim": [{"size": "3"}, {"size": "3"}, {"size": "1"}, {"size": "1"}]}}}, "dtype": {"type": "DT_FLOAT"}}}, {"name": "model_662/tf.nn.convolution_1564/convolution/filter", "op": "Const", "attr": {"value": {"tensor": {"dtype": "DT_FLOAT", "tensorShape": {"dim": [{"size": "3"}, {"size": "3"}, {"size": "1"}, {"size": "1"}]}}}, "dtype": {"type": "DT_FLOAT"}}}, {"name": "model_662/tf.nn.convolution_1565/convolution/filter", "op": "Const", "attr": {"value": {"tensor": {"dtype": "DT_FLOAT", "tensorShape": {"dim": [{"size": "3"}, {"size": "3"}, {"size": "1"}, {"size": "1"}]}}}, "dtype": {"type": "DT_FLOAT"}}}, {"name": "model_662/tf.nn.convolution_1566/convolution/filter", "op": "Const", "attr": {"value": {"tensor": {"dtype": "DT_FLOAT", "tensorShape": {"dim": [{"size": "3"}, {"size": "3"}, {"size": "1"}, {"size": "1"}]}}}, "dtype": {"type": "DT_FLOAT"}}}, {"name": "model_662/tf.nn.convolution_1567/convolution/filter", "op": "Const", "attr": {"value": {"tensor": {"dtype": "DT_FLOAT", "tensorShape": {"dim": [{"size": "3"}, {"size": "3"}, {"size": "1"}, {"size": "1"}]}}}, "dtype": {"type": "DT_FLOAT"}}}, {"name": "model_662/tf.nn.convolution_1568/convolution/filter", "op": "Const", "attr": {"value": {"tensor": {"dtype": "DT_FLOAT", "tensorShape": {"dim": [{"size": "3"}, {"size": "3"}, {"size": "1"}, {"size": "1"}]}}}, "dtype": {"type": "DT_FLOAT"}}}, {"name": "model_662/tf.nn.convolution_1569/convolution/filter", "op": "Const", "attr": {"value": {"tensor": {"dtype": "DT_FLOAT", "tensorShape": {"dim": [{"size": "3"}, {"size": "3"}, {"size": "1"}, {"size": "1"}]}}}, "dtype": {"type": "DT_FLOAT"}}}, {"name": "model_662/tf.nn.convolution_1570/convolution/filter", "op": "Const", "attr": {"value": {"tensor": {"dtype": "DT_FLOAT", "tensorShape": {"dim": [{"size": "3"}, {"size": "3"}, {"size": "1"}, {"size": "1"}]}}}, "dtype": {"type": "DT_FLOAT"}}}, {"name": "model_662/tf.nn.convolution_1571/convolution/filter", "op": "Const", "attr": {"value": {"tensor": {"dtype": "DT_FLOAT", "tensorShape": {"dim": [{"size": "3"}, {"size": "3"}, {"size": "1"}, {"size": "1"}]}}}, "dtype": {"type": "DT_FLOAT"}}}, {"name": "model_662/tf.nn.convolution_1572/convolution/filter", "op": "Const", "attr": {"value": {"tensor": {"dtype": "DT_FLOAT", "tensorShape": {"dim": [{"size": "3"}, {"size": "3"}, {"size": "1"}, {"size": "1"}]}}}, "dtype": {"type": "DT_FLOAT"}}}, {"name": "model_662/tf.nn.convolution_1573/convolution/filter", "op": "Const", "attr": {"value": {"tensor": {"dtype": "DT_FLOAT", "tensorShape": {"dim": [{"size": "3"}, {"size": "3"}, {"size": "1"}, {"size": "1"}]}}}, "dtype": {"type": "DT_FLOAT"}}}, {"name": "model_662/tf.nn.convolution_1574/convolution/filter", "op": "Const", "attr": {"value": {"tensor": {"dtype": "DT_FLOAT", "tensorShape": {"dim": [{"size": "3"}, {"size": "3"}, {"size": "1"}, {"size": "1"}]}}}, "dtype": {"type": "DT_FLOAT"}}}, {"name": "model_662/tf.nn.convolution_1575/convolution/filter", "op": "Const", "attr": {"value": {"tensor": {"dtype": "DT_FLOAT", "tensorShape": {"dim": [{"size": "3"}, {"size": "3"}, {"size": "1"}, {"size": "1"}]}}}, "dtype": {"type": "DT_FLOAT"}}}, {"name": "model_662/tf.nn.convolution_1576/convolution/filter", "op": "Const", "attr": {"value": {"tensor": {"dtype": "DT_FLOAT", "tensorShape": {"dim": [{"size": "3"}, {"size": "3"}, {"size": "1"}, {"size": "1"}]}}}, "dtype": {"type": "DT_FLOAT"}}}, {"name": "model_662/tf.nn.convolution_1577/convolution/filter", "op": "Const", "attr": {"value": {"tensor": {"dtype": "DT_FLOAT", "tensorShape": {"dim": [{"size": "3"}, {"size": "3"}, {"size": "1"}, {"size": "1"}]}}}, "dtype": {"type": "DT_FLOAT"}}}, {"name": "model_662/tf.nn.convolution_1578/convolution/filter", "op": "Const", "attr": {"value": {"tensor": {"dtype": "DT_FLOAT", "tensorShape": {"dim": [{"size": "3"}, {"size": "3"}, {"size": "1"}, {"size": "1"}]}}}, "dtype": {"type": "DT_FLOAT"}}}, {"name": "model_662/tf.nn.convolution_1579/convolution/filter", "op": "Const", "attr": {"value": {"tensor": {"dtype": "DT_FLOAT", "tensorShape": {"dim": [{"size": "3"}, {"size": "3"}, {"size": "1"}, {"size": "1"}]}}}, "dtype": {"type": "DT_FLOAT"}}}, {"name": "model_662/tf.nn.convolution_1580/convolution/filter", "op": "Const", "attr": {"value": {"tensor": {"dtype": "DT_FLOAT", "tensorShape": {"dim": [{"size": "3"}, {"size": "3"}, {"size": "1"}, {"size": "1"}]}}}, "dtype": {"type": "DT_FLOAT"}}}, {"name": "model_662/tf.nn.convolution_1581/convolution/filter", "op": "Const", "attr": {"value": {"tensor": {"dtype": "DT_FLOAT", "tensorShape": {"dim": [{"size": "3"}, {"size": "3"}, {"size": "1"}, {"size": "1"}]}}}, "dtype": {"type": "DT_FLOAT"}}}, {"name": "model_662/tf.nn.convolution_1582/convolution/filter", "op": "Const", "attr": {"value": {"tensor": {"dtype": "DT_FLOAT", "tensorShape": {"dim": [{"size": "3"}, {"size": "3"}, {"size": "1"}, {"size": "1"}]}}}, "dtype": {"type": "DT_FLOAT"}}}, {"name": "model_662/tf.nn.convolution_1583/convolution/filter", "op": "Const", "attr": {"value": {"tensor": {"dtype": "DT_FLOAT", "tensorShape": {"dim": [{"size": "3"}, {"size": "3"}, {"size": "1"}, {"size": "1"}]}}}, "dtype": {"type": "DT_FLOAT"}}}, {"name": "model_662/tf.nn.convolution_1584/convolution/filter", "op": "Const", "attr": {"value": {"tensor": {"dtype": "DT_FLOAT", "tensorShape": {"dim": [{"size": "3"}, {"size": "3"}, {"size": "1"}, {"size": "1"}]}}}, "dtype": {"type": "DT_FLOAT"}}}, {"name": "model_662/tf.nn.convolution_1585/convolution/filter", "op": "Const", "attr": {"value": {"tensor": {"dtype": "DT_FLOAT", "tensorShape": {"dim": [{"size": "3"}, {"size": "3"}, {"size": "1"}, {"size": "1"}]}}}, "dtype": {"type": "DT_FLOAT"}}}, {"name": "model_662/tf.nn.convolution_1586/convolution/filter", "op": "Const", "attr": {"value": {"tensor": {"dtype": "DT_FLOAT", "tensorShape": {"dim": [{"size": "3"}, {"size": "3"}, {"size": "1"}, {"size": "1"}]}}}, "dtype": {"type": "DT_FLOAT"}}}, {"name": "model_662/tf.nn.convolution_1587/convolution/filter", "op": "Const", "attr": {"value": {"tensor": {"dtype": "DT_FLOAT", "tensorShape": {"dim": [{"size": "3"}, {"size": "3"}, {"size": "1"}, {"size": "1"}]}}}, "dtype": {"type": "DT_FLOAT"}}}, {"name": "model_662/tf.nn.convolution_1588/convolution/filter", "op": "Const", "attr": {"value": {"tensor": {"dtype": "DT_FLOAT", "tensorShape": {"dim": [{"size": "3"}, {"size": "3"}, {"size": "1"}, {"size": "1"}]}}}, "dtype": {"type": "DT_FLOAT"}}}, {"name": "model_662/tf.nn.convolution_1589/convolution/filter", "op": "Const", "attr": {"value": {"tensor": {"dtype": "DT_FLOAT", "tensorShape": {"dim": [{"size": "3"}, {"size": "3"}, {"size": "1"}, {"size": "1"}]}}}, "dtype": {"type": "DT_FLOAT"}}}, {"name": "model_662/tf.nn.convolution_1590/convolution/filter", "op": "Const", "attr": {"value": {"tensor": {"dtype": "DT_FLOAT", "tensorShape": {"dim": [{"size": "3"}, {"size": "3"}, {"size": "1"}, {"size": "1"}]}}}, "dtype": {"type": "DT_FLOAT"}}}, {"name": "model_662/tf.nn.convolution_1591/convolution/filter", "op": "Const", "attr": {"value": {"tensor": {"dtype": "DT_FLOAT", "tensorShape": {"dim": [{"size": "3"}, {"size": "3"}, {"size": "1"}, {"size": "1"}]}}}, "dtype": {"type": "DT_FLOAT"}}}, {"name": "model_662/tf.nn.convolution_1592/convolution/filter", "op": "Const", "attr": {"value": {"tensor": {"dtype": "DT_FLOAT", "tensorShape": {"dim": [{"size": "3"}, {"size": "3"}, {"size": "1"}, {"size": "1"}]}}}, "dtype": {"type": "DT_FLOAT"}}}, {"name": "model_662/tf.nn.convolution_1593/convolution/filter", "op": "Const", "attr": {"value": {"tensor": {"dtype": "DT_FLOAT", "tensorShape": {"dim": [{"size": "3"}, {"size": "3"}, {"size": "1"}, {"size": "1"}]}}}, "dtype": {"type": "DT_FLOAT"}}}, {"name": "model_662/tf.nn.convolution_1594/convolution/filter", "op": "Const", "attr": {"value": {"tensor": {"dtype": "DT_FLOAT", "tensorShape": {"dim": [{"size": "3"}, {"size": "3"}, {"size": "1"}, {"size": "1"}]}}}, "dtype": {"type": "DT_FLOAT"}}}, {"name": "model_662/tf.nn.convolution_1595/convolution/filter", "op": "Const", "attr": {"value": {"tensor": {"dtype": "DT_FLOAT", "tensorShape": {"dim": [{"size": "3"}, {"size": "3"}, {"size": "1"}, {"size": "1"}]}}}, "dtype": {"type": "DT_FLOAT"}}}, {"name": "model_662/tf.nn.convolution_1596/convolution/filter", "op": "Const", "attr": {"value": {"tensor": {"dtype": "DT_FLOAT", "tensorShape": {"dim": [{"size": "3"}, {"size": "3"}, {"size": "1"}, {"size": "1"}]}}}, "dtype": {"type": "DT_FLOAT"}}}, {"name": "model_662/tf.nn.convolution_1597/convolution/filter", "op": "Const", "attr": {"value": {"tensor": {"dtype": "DT_FLOAT", "tensorShape": {"dim": [{"size": "3"}, {"size": "3"}, {"size": "1"}, {"size": "1"}]}}}, "dtype": {"type": "DT_FLOAT"}}}, {"name": "model_662/tf.nn.convolution_1598/convolution/filter", "op": "Const", "attr": {"value": {"tensor": {"dtype": "DT_FLOAT", "tensorShape": {"dim": [{"size": "3"}, {"size": "3"}, {"size": "1"}, {"size": "1"}]}}}, "dtype": {"type": "DT_FLOAT"}}}, {"name": "model_662/tf.nn.convolution_1599/convolution/filter", "op": "Const", "attr": {"value": {"tensor": {"dtype": "DT_FLOAT", "tensorShape": {"dim": [{"size": "3"}, {"size": "3"}, {"size": "1"}, {"size": "1"}]}}}, "dtype": {"type": "DT_FLOAT"}}}, {"name": "model_662/tf.nn.convolution_1600/convolution/filter", "op": "Const", "attr": {"value": {"tensor": {"dtype": "DT_FLOAT", "tensorShape": {"dim": [{"size": "3"}, {"size": "3"}, {"size": "1"}, {"size": "1"}]}}}, "dtype": {"type": "DT_FLOAT"}}}, {"name": "model_662/tf.split_8/split/split_dim", "op": "Const", "attr": {"value": {"tensor": {"dtype": "DT_INT32", "tensorShape": {}}}, "dtype": {"type": "DT_INT32"}}}, {"name": "model_662/tf.strided_slice_125/ones_like/tensor", "op": "Const", "attr": {"value": {"tensor": {"dtype": "DT_INT64", "tensorShape": {"dim": [{"size": "4"}]}}}, "dtype": {"type": "DT_INT64"}}}, {"name": "model_662/tf.strided_slice_125/StridedSlice/end", "op": "Const", "attr": {"value": {"tensor": {"dtype": "DT_INT64", "tensorShape": {"dim": [{"size": "4"}]}}}, "dtype": {"type": "DT_INT64"}}}, {"name": "model_662/tf.strided_slice_125/ones_like", "op": "Const", "attr": {"value": {"tensor": {"dtype": "DT_INT64", "tensorShape": {"dim": [{"size": "4"}]}}}, "dtype": {"type": "DT_INT64"}}}, {"name": "model_662/tf.nn.convolution_1464/convolution/filter", "op": "Const", "attr": {"value": {"tensor": {"dtype": "DT_FLOAT", "tensorShape": {"dim": [{"size": "1"}, {"size": "1"}, {"size": "128"}, {"size": "64"}]}}}, "dtype": {"type": "DT_FLOAT"}}}, {"name": "model_662/tf.math.add_667/Add/y", "op": "Const", "attr": {"value": {"tensor": {"dtype": "DT_FLOAT", "tensorShape": {"dim": [{"size": "64"}]}}}, "dtype": {"type": "DT_FLOAT"}}}, {"name": "model_662/tf.nn.convolution_1466/convolution/filter", "op": "Const", "attr": {"value": {"tensor": {"dtype": "DT_FLOAT", "tensorShape": {"dim": [{"size": "3"}, {"size": "3"}, {"size": "64"}, {"size": "64"}]}}}, "dtype": {"type": "DT_FLOAT"}}}, {"name": "model_662/tf.math.add_669/Add/y", "op": "Const", "attr": {"value": {"tensor": {"dtype": "DT_FLOAT", "tensorShape": {"dim": [{"size": "64"}]}}}, "dtype": {"type": "DT_FLOAT"}}}, {"name": "model_662/tf.nn.convolution_1467/convolution/filter", "op": "Const", "attr": {"value": {"tensor": {"dtype": "DT_FLOAT", "tensorShape": {"dim": [{"size": "3"}, {"size": "3"}, {"size": "64"}, {"size": "64"}]}}}, "dtype": {"type": "DT_FLOAT"}}}, {"name": "model_662/tf.math.add_670/Add/y", "op": "Const", "attr": {"value": {"tensor": {"dtype": "DT_FLOAT", "tensorShape": {"dim": [{"size": "64"}]}}}, "dtype": {"type": "DT_FLOAT"}}}, {"name": "model_662/tf.nn.convolution_1468/convolution/filter", "op": "Const", "attr": {"value": {"tensor": {"dtype": "DT_FLOAT", "tensorShape": {"dim": [{"size": "3"}, {"size": "3"}, {"size": "64"}, {"size": "64"}]}}}, "dtype": {"type": "DT_FLOAT"}}}, {"name": "model_662/tf.math.add_673/Add/y", "op": "Const", "attr": {"value": {"tensor": {"dtype": "DT_FLOAT", "tensorShape": {"dim": [{"size": "64"}]}}}, "dtype": {"type": "DT_FLOAT"}}}, {"name": "model_662/tf.nn.convolution_1469/convolution/filter", "op": "Const", "attr": {"value": {"tensor": {"dtype": "DT_FLOAT", "tensorShape": {"dim": [{"size": "3"}, {"size": "3"}, {"size": "64"}, {"size": "64"}]}}}, "dtype": {"type": "DT_FLOAT"}}}, {"name": "model_662/tf.math.add_674/Add/y", "op": "Const", "attr": {"value": {"tensor": {"dtype": "DT_FLOAT", "tensorShape": {"dim": [{"size": "64"}]}}}, "dtype": {"type": "DT_FLOAT"}}}, {"name": "model_662/tf.strided_slice_123/ones_like/tensor", "op": "Const", "attr": {"value": {"tensor": {"dtype": "DT_INT64", "tensorShape": {"dim": [{"size": "4"}]}}}, "dtype": {"type": "DT_INT64"}}}, {"name": "model_662/tf.strided_slice_123/StridedSlice/end", "op": "Const", "attr": {"value": {"tensor": {"dtype": "DT_INT64", "tensorShape": {"dim": [{"size": "4"}]}}}, "dtype": {"type": "DT_INT64"}}}, {"name": "model_662/tf.strided_slice_123/ones_like", "op": "Const", "attr": {"value": {"tensor": {"dtype": "DT_INT64", "tensorShape": {"dim": [{"size": "4"}]}}}, "dtype": {"type": "DT_INT64"}}}, {"name": "model_662/tf.nn.convolution_1454/convolution/filter", "op": "Const", "attr": {"value": {"tensor": {"dtype": "DT_FLOAT", "tensorShape": {"dim": [{"size": "1"}, {"size": "1"}, {"size": "64"}, {"size": "32"}]}}}, "dtype": {"type": "DT_FLOAT"}}}, {"name": "model_662/tf.math.add_653/Add/y", "op": "Const", "attr": {"value": {"tensor": {"dtype": "DT_FLOAT", "tensorShape": {"dim": [{"size": "32"}]}}}, "dtype": {"type": "DT_FLOAT"}}}, {"name": "model_662/tf.nn.convolution_1456/convolution/filter", "op": "Const", "attr": {"value": {"tensor": {"dtype": "DT_FLOAT", "tensorShape": {"dim": [{"size": "3"}, {"size": "3"}, {"size": "32"}, {"size": "32"}]}}}, "dtype": {"type": "DT_FLOAT"}}}, {"name": "model_662/tf.math.add_655/Add/y", "op": "Const", "attr": {"value": {"tensor": {"dtype": "DT_FLOAT", "tensorShape": {"dim": [{"size": "32"}]}}}, "dtype": {"type": "DT_FLOAT"}}}, {"name": "model_662/tf.nn.convolution_1457/convolution/filter", "op": "Const", "attr": {"value": {"tensor": {"dtype": "DT_FLOAT", "tensorShape": {"dim": [{"size": "3"}, {"size": "3"}, {"size": "32"}, {"size": "32"}]}}}, "dtype": {"type": "DT_FLOAT"}}}, {"name": "model_662/tf.math.add_656/Add/y", "op": "Const", "attr": {"value": {"tensor": {"dtype": "DT_FLOAT", "tensorShape": {"dim": [{"size": "32"}]}}}, "dtype": {"type": "DT_FLOAT"}}}, {"name": "model_662/tf.nn.convolution_1458/convolution/filter", "op": "Const", "attr": {"value": {"tensor": {"dtype": "DT_FLOAT", "tensorShape": {"dim": [{"size": "3"}, {"size": "3"}, {"size": "32"}, {"size": "32"}]}}}, "dtype": {"type": "DT_FLOAT"}}}, {"name": "model_662/tf.math.add_659/Add/y", "op": "Const", "attr": {"value": {"tensor": {"dtype": "DT_FLOAT", "tensorShape": {"dim": [{"size": "32"}]}}}, "dtype": {"type": "DT_FLOAT"}}}, {"name": "model_662/tf.nn.convolution_1459/convolution/filter", "op": "Const", "attr": {"value": {"tensor": {"dtype": "DT_FLOAT", "tensorShape": {"dim": [{"size": "3"}, {"size": "3"}, {"size": "32"}, {"size": "32"}]}}}, "dtype": {"type": "DT_FLOAT"}}}, {"name": "model_662/tf.math.add_660/Add/y", "op": "Const", "attr": {"value": {"tensor": {"dtype": "DT_FLOAT", "tensorShape": {"dim": [{"size": "32"}]}}}, "dtype": {"type": "DT_FLOAT"}}}, {"name": "model_662/tf.strided_slice_121/ones_like/tensor", "op": "Const", "attr": {"value": {"tensor": {"dtype": "DT_INT64", "tensorShape": {"dim": [{"size": "4"}]}}}, "dtype": {"type": "DT_INT64"}}}, {"name": "model_662/tf.strided_slice_121/StridedSlice/end", "op": "Const", "attr": {"value": {"tensor": {"dtype": "DT_INT64", "tensorShape": {"dim": [{"size": "4"}]}}}, "dtype": {"type": "DT_INT64"}}}, {"name": "model_662/tf.strided_slice_121/ones_like", "op": "Const", "attr": {"value": {"tensor": {"dtype": "DT_INT64", "tensorShape": {"dim": [{"size": "4"}]}}}, "dtype": {"type": "DT_INT64"}}}, {"name": "model_662/tf.strided_slice_119/ones_like/tensor", "op": "Const", "attr": {"value": {"tensor": {"dtype": "DT_INT64", "tensorShape": {"dim": [{"size": "4"}]}}}, "dtype": {"type": "DT_INT64"}}}, {"name": "model_662/tf.strided_slice_119/StridedSlice/end", "op": "Const", "attr": {"value": {"tensor": {"dtype": "DT_INT64", "tensorShape": {"dim": [{"size": "4"}]}}}, "dtype": {"type": "DT_INT64"}}}, {"name": "model_662/tf.strided_slice_119/ones_like", "op": "Const", "attr": {"value": {"tensor": {"dtype": "DT_INT64", "tensorShape": {"dim": [{"size": "4"}]}}}, "dtype": {"type": "DT_INT64"}}}, {"name": "model_662/tf.compat.v1.pad_28/Pad/paddings", "op": "Const", "attr": {"value": {"tensor": {"dtype": "DT_INT32", "tensorShape": {"dim": [{"size": "4"}, {"size": "2"}]}}}, "dtype": {"type": "DT_INT32"}}}, {"name": "model_662/tf.nn.convolution_1441/convolution/filter", "op": "Const", "attr": {"value": {"tensor": {"dtype": "DT_FLOAT", "tensorShape": {"dim": [{"size": "3"}, {"size": "3"}, {"size": "3"}, {"size": "16"}]}}}, "dtype": {"type": "DT_FLOAT"}}}, {"name": "model_662/tf.math.add_636/Add/y", "op": "Const", "attr": {"value": {"tensor": {"dtype": "DT_FLOAT", "tensorShape": {"dim": [{"size": "16"}]}}}, "dtype": {"type": "DT_FLOAT"}}}, {"name": "model_662/tf.compat.v1.pad_29/Pad/paddings", "op": "Const", "attr": {"value": {"tensor": {"dtype": "DT_INT32", "tensorShape": {"dim": [{"size": "4"}, {"size": "2"}]}}}, "dtype": {"type": "DT_INT32"}}}, {"name": "model_662/tf.nn.convolution_1442/convolution/filter", "op": "Const", "attr": {"value": {"tensor": {"dtype": "DT_FLOAT", "tensorShape": {"dim": [{"size": "3"}, {"size": "3"}, {"size": "16"}, {"size": "32"}]}}}, "dtype": {"type": "DT_FLOAT"}}}, {"name": "model_662/tf.math.add_637/Add/y", "op": "Const", "attr": {"value": {"tensor": {"dtype": "DT_FLOAT", "tensorShape": {"dim": [{"size": "32"}]}}}, "dtype": {"type": "DT_FLOAT"}}}, {"name": "model_662/tf.nn.convolution_1443/convolution/filter", "op": "Const", "attr": {"value": {"tensor": {"dtype": "DT_FLOAT", "tensorShape": {"dim": [{"size": "1"}, {"size": "1"}, {"size": "32"}, {"size": "32"}]}}}, "dtype": {"type": "DT_FLOAT"}}}, {"name": "model_662/tf.math.add_638/Add/y", "op": "Const", "attr": {"value": {"tensor": {"dtype": "DT_FLOAT", "tensorShape": {"dim": [{"size": "32"}]}}}, "dtype": {"type": "DT_FLOAT"}}}, {"name": "model_662/tf.strided_slice_120/ones_like/tensor", "op": "Const", "attr": {"value": {"tensor": {"dtype": "DT_INT64", "tensorShape": {"dim": [{"size": "4"}]}}}, "dtype": {"type": "DT_INT64"}}}, {"name": "model_662/tf.strided_slice_120/StridedSlice/end", "op": "Const", "attr": {"value": {"tensor": {"dtype": "DT_INT64", "tensorShape": {"dim": [{"size": "4"}]}}}, "dtype": {"type": "DT_INT64"}}}, {"name": "model_662/tf.strided_slice_120/ones_like", "op": "Const", "attr": {"value": {"tensor": {"dtype": "DT_INT64", "tensorShape": {"dim": [{"size": "4"}]}}}, "dtype": {"type": "DT_INT64"}}}, {"name": "model_662/tf.nn.convolution_1444/convolution/filter", "op": "Const", "attr": {"value": {"tensor": {"dtype": "DT_FLOAT", "tensorShape": {"dim": [{"size": "3"}, {"size": "3"}, {"size": "16"}, {"size": "8"}]}}}, "dtype": {"type": "DT_FLOAT"}}}, {"name": "model_662/tf.math.add_639/Add/y", "op": "Const", "attr": {"value": {"tensor": {"dtype": "DT_FLOAT", "tensorShape": {"dim": [{"size": "8"}]}}}, "dtype": {"type": "DT_FLOAT"}}}, {"name": "model_662/tf.nn.convolution_1445/convolution/filter", "op": "Const", "attr": {"value": {"tensor": {"dtype": "DT_FLOAT", "tensorShape": {"dim": [{"size": "3"}, {"size": "3"}, {"size": "8"}, {"size": "16"}]}}}, "dtype": {"type": "DT_FLOAT"}}}, {"name": "model_662/tf.math.add_640/Add/y", "op": "Const", "attr": {"value": {"tensor": {"dtype": "DT_FLOAT", "tensorShape": {"dim": [{"size": "16"}]}}}, "dtype": {"type": "DT_FLOAT"}}}, {"name": "model_662/tf.concat_171/concat/axis", "op": "Const", "attr": {"value": {"tensor": {"dtype": "DT_INT32", "tensorShape": {}}}, "dtype": {"type": "DT_INT32"}}}, {"name": "model_662/tf.nn.convolution_1446/convolution/filter", "op": "Const", "attr": {"value": {"tensor": {"dtype": "DT_FLOAT", "tensorShape": {"dim": [{"size": "1"}, {"size": "1"}, {"size": "48"}, {"size": "64"}]}}}, "dtype": {"type": "DT_FLOAT"}}}, {"name": "model_662/tf.math.add_643/Add/y", "op": "Const", "attr": {"value": {"tensor": {"dtype": "DT_FLOAT", "tensorShape": {"dim": [{"size": "64"}]}}}, "dtype": {"type": "DT_FLOAT"}}}, {"name": "model_662/tf.compat.v1.pad_30/Pad/paddings", "op": "Const", "attr": {"value": {"tensor": {"dtype": "DT_INT32", "tensorShape": {"dim": [{"size": "4"}, {"size": "2"}]}}}, "dtype": {"type": "DT_INT32"}}}, {"name": "model_662/tf.nn.convolution_1447/convolution/filter", "op": "Const", "attr": {"value": {"tensor": {"dtype": "DT_FLOAT", "tensorShape": {"dim": [{"size": "3"}, {"size": "3"}, {"size": "64"}, {"size": "64"}]}}}, "dtype": {"type": "DT_FLOAT"}}}, {"name": "model_662/tf.math.add_644/Add/y", "op": "Const", "attr": {"value": {"tensor": {"dtype": "DT_FLOAT", "tensorShape": {"dim": [{"size": "64"}]}}}, "dtype": {"type": "DT_FLOAT"}}}, {"name": "model_662/tf.nn.convolution_1448/convolution/filter", "op": "Const", "attr": {"value": {"tensor": {"dtype": "DT_FLOAT", "tensorShape": {"dim": [{"size": "1"}, {"size": "1"}, {"size": "64"}, {"size": "64"}]}}}, "dtype": {"type": "DT_FLOAT"}}}, {"name": "model_662/tf.math.add_645/Add/y", "op": "Const", "attr": {"value": {"tensor": {"dtype": "DT_FLOAT", "tensorShape": {"dim": [{"size": "64"}]}}}, "dtype": {"type": "DT_FLOAT"}}}, {"name": "model_662/tf.strided_slice_122/ones_like/tensor", "op": "Const", "attr": {"value": {"tensor": {"dtype": "DT_INT64", "tensorShape": {"dim": [{"size": "4"}]}}}, "dtype": {"type": "DT_INT64"}}}, {"name": "model_662/tf.strided_slice_122/StridedSlice/end", "op": "Const", "attr": {"value": {"tensor": {"dtype": "DT_INT64", "tensorShape": {"dim": [{"size": "4"}]}}}, "dtype": {"type": "DT_INT64"}}}, {"name": "model_662/tf.strided_slice_122/ones_like", "op": "Const", "attr": {"value": {"tensor": {"dtype": "DT_INT64", "tensorShape": {"dim": [{"size": "4"}]}}}, "dtype": {"type": "DT_INT64"}}}, {"name": "model_662/tf.nn.convolution_1449/convolution/filter", "op": "Const", "attr": {"value": {"tensor": {"dtype": "DT_FLOAT", "tensorShape": {"dim": [{"size": "3"}, {"size": "3"}, {"size": "32"}, {"size": "16"}]}}}, "dtype": {"type": "DT_FLOAT"}}}, {"name": "model_662/tf.math.add_646/Add/y", "op": "Const", "attr": {"value": {"tensor": {"dtype": "DT_FLOAT", "tensorShape": {"dim": [{"size": "16"}]}}}, "dtype": {"type": "DT_FLOAT"}}}, {"name": "model_662/tf.nn.convolution_1450/convolution/filter", "op": "Const", "attr": {"value": {"tensor": {"dtype": "DT_FLOAT", "tensorShape": {"dim": [{"size": "3"}, {"size": "3"}, {"size": "16"}, {"size": "32"}]}}}, "dtype": {"type": "DT_FLOAT"}}}, {"name": "model_662/tf.math.add_647/Add/y", "op": "Const", "attr": {"value": {"tensor": {"dtype": "DT_FLOAT", "tensorShape": {"dim": [{"size": "32"}]}}}, "dtype": {"type": "DT_FLOAT"}}}, {"name": "model_662/tf.concat_172/concat/axis", "op": "Const", "attr": {"value": {"tensor": {"dtype": "DT_INT32", "tensorShape": {}}}, "dtype": {"type": "DT_INT32"}}}, {"name": "model_662/tf.nn.convolution_1451/convolution/filter", "op": "Const", "attr": {"value": {"tensor": {"dtype": "DT_FLOAT", "tensorShape": {"dim": [{"size": "1"}, {"size": "1"}, {"size": "96"}, {"size": "128"}]}}}, "dtype": {"type": "DT_FLOAT"}}}, {"name": "model_662/tf.math.add_650/Add/y", "op": "Const", "attr": {"value": {"tensor": {"dtype": "DT_FLOAT", "tensorShape": {"dim": [{"size": "128"}]}}}, "dtype": {"type": "DT_FLOAT"}}}, {"name": "model_662/tf.compat.v1.pad_31/Pad/paddings", "op": "Const", "attr": {"value": {"tensor": {"dtype": "DT_INT32", "tensorShape": {"dim": [{"size": "4"}, {"size": "2"}]}}}, "dtype": {"type": "DT_INT32"}}}, {"name": "model_662/tf.nn.convolution_1452/convolution/filter", "op": "Const", "attr": {"value": {"tensor": {"dtype": "DT_FLOAT", "tensorShape": {"dim": [{"size": "3"}, {"size": "3"}, {"size": "128"}, {"size": "128"}]}}}, "dtype": {"type": "DT_FLOAT"}}}, {"name": "model_662/tf.math.add_651/Add/y", "op": "Const", "attr": {"value": {"tensor": {"dtype": "DT_FLOAT", "tensorShape": {"dim": [{"size": "128"}]}}}, "dtype": {"type": "DT_FLOAT"}}}, {"name": "model_662/tf.nn.convolution_1453/convolution/filter", "op": "Const", "attr": {"value": {"tensor": {"dtype": "DT_FLOAT", "tensorShape": {"dim": [{"size": "1"}, {"size": "1"}, {"size": "128"}, {"size": "128"}]}}}, "dtype": {"type": "DT_FLOAT"}}}, {"name": "model_662/tf.math.add_652/Add/y", "op": "Const", "attr": {"value": {"tensor": {"dtype": "DT_FLOAT", "tensorShape": {"dim": [{"size": "128"}]}}}, "dtype": {"type": "DT_FLOAT"}}}, {"name": "model_662/tf.strided_slice_124/ones_like/tensor", "op": "Const", "attr": {"value": {"tensor": {"dtype": "DT_INT64", "tensorShape": {"dim": [{"size": "4"}]}}}, "dtype": {"type": "DT_INT64"}}}, {"name": "model_662/tf.strided_slice_124/StridedSlice/end", "op": "Const", "attr": {"value": {"tensor": {"dtype": "DT_INT64", "tensorShape": {"dim": [{"size": "4"}]}}}, "dtype": {"type": "DT_INT64"}}}, {"name": "model_662/tf.strided_slice_124/ones_like", "op": "Const", "attr": {"value": {"tensor": {"dtype": "DT_INT64", "tensorShape": {"dim": [{"size": "4"}]}}}, "dtype": {"type": "DT_INT64"}}}, {"name": "model_662/tf.nn.convolution_1455/convolution/filter", "op": "Const", "attr": {"value": {"tensor": {"dtype": "DT_FLOAT", "tensorShape": {"dim": [{"size": "1"}, {"size": "1"}, {"size": "64"}, {"size": "32"}]}}}, "dtype": {"type": "DT_FLOAT"}}}, {"name": "model_662/tf.math.add_654/Add/y", "op": "Const", "attr": {"value": {"tensor": {"dtype": "DT_FLOAT", "tensorShape": {"dim": [{"size": "32"}]}}}, "dtype": {"type": "DT_FLOAT"}}}, {"name": "model_662/tf.concat_173/concat/axis", "op": "Const", "attr": {"value": {"tensor": {"dtype": "DT_INT32", "tensorShape": {}}}, "dtype": {"type": "DT_INT32"}}}, {"name": "model_662/tf.nn.convolution_1460/convolution/filter", "op": "Const", "attr": {"value": {"tensor": {"dtype": "DT_FLOAT", "tensorShape": {"dim": [{"size": "1"}, {"size": "1"}, {"size": "64"}, {"size": "64"}]}}}, "dtype": {"type": "DT_FLOAT"}}}, {"name": "model_662/tf.math.add_663/Add/y", "op": "Const", "attr": {"value": {"tensor": {"dtype": "DT_FLOAT", "tensorShape": {"dim": [{"size": "64"}]}}}, "dtype": {"type": "DT_FLOAT"}}}, {"name": "model_662/tf.concat_174/concat/axis", "op": "Const", "attr": {"value": {"tensor": {"dtype": "DT_INT32", "tensorShape": {}}}, "dtype": {"type": "DT_INT32"}}}, {"name": "model_662/tf.nn.convolution_1461/convolution/filter", "op": "Const", "attr": {"value": {"tensor": {"dtype": "DT_FLOAT", "tensorShape": {"dim": [{"size": "1"}, {"size": "1"}, {"size": "192"}, {"size": "128"}]}}}, "dtype": {"type": "DT_FLOAT"}}}, {"name": "model_662/tf.math.add_664/Add/y", "op": "Const", "attr": {"value": {"tensor": {"dtype": "DT_FLOAT", "tensorShape": {"dim": [{"size": "128"}]}}}, "dtype": {"type": "DT_FLOAT"}}}, {"name": "model_662/tf.compat.v1.pad_32/Pad/paddings", "op": "Const", "attr": {"value": {"tensor": {"dtype": "DT_INT32", "tensorShape": {"dim": [{"size": "4"}, {"size": "2"}]}}}, "dtype": {"type": "DT_INT32"}}}, {"name": "model_662/tf.nn.convolution_1462/convolution/filter", "op": "Const", "attr": {"value": {"tensor": {"dtype": "DT_FLOAT", "tensorShape": {"dim": [{"size": "3"}, {"size": "3"}, {"size": "128"}, {"size": "256"}]}}}, "dtype": {"type": "DT_FLOAT"}}}, {"name": "model_662/tf.math.add_665/Add/y", "op": "Const", "attr": {"value": {"tensor": {"dtype": "DT_FLOAT", "tensorShape": {"dim": [{"size": "256"}]}}}, "dtype": {"type": "DT_FLOAT"}}}, {"name": "model_662/tf.nn.convolution_1463/convolution/filter", "op": "Const", "attr": {"value": {"tensor": {"dtype": "DT_FLOAT", "tensorShape": {"dim": [{"size": "1"}, {"size": "1"}, {"size": "256"}, {"size": "256"}]}}}, "dtype": {"type": "DT_FLOAT"}}}, {"name": "model_662/tf.math.add_666/Add/y", "op": "Const", "attr": {"value": {"tensor": {"dtype": "DT_FLOAT", "tensorShape": {"dim": [{"size": "256"}]}}}, "dtype": {"type": "DT_FLOAT"}}}, {"name": "model_662/tf.strided_slice_126/ones_like/tensor", "op": "Const", "attr": {"value": {"tensor": {"dtype": "DT_INT64", "tensorShape": {"dim": [{"size": "4"}]}}}, "dtype": {"type": "DT_INT64"}}}, {"name": "model_662/tf.strided_slice_126/StridedSlice/end", "op": "Const", "attr": {"value": {"tensor": {"dtype": "DT_INT64", "tensorShape": {"dim": [{"size": "4"}]}}}, "dtype": {"type": "DT_INT64"}}}, {"name": "model_662/tf.strided_slice_126/ones_like", "op": "Const", "attr": {"value": {"tensor": {"dtype": "DT_INT64", "tensorShape": {"dim": [{"size": "4"}]}}}, "dtype": {"type": "DT_INT64"}}}, {"name": "model_662/tf.nn.convolution_1465/convolution/filter", "op": "Const", "attr": {"value": {"tensor": {"dtype": "DT_FLOAT", "tensorShape": {"dim": [{"size": "1"}, {"size": "1"}, {"size": "128"}, {"size": "64"}]}}}, "dtype": {"type": "DT_FLOAT"}}}, {"name": "model_662/tf.math.add_668/Add/y", "op": "Const", "attr": {"value": {"tensor": {"dtype": "DT_FLOAT", "tensorShape": {"dim": [{"size": "64"}]}}}, "dtype": {"type": "DT_FLOAT"}}}, {"name": "model_662/tf.concat_175/concat/axis", "op": "Const", "attr": {"value": {"tensor": {"dtype": "DT_INT32", "tensorShape": {}}}, "dtype": {"type": "DT_INT32"}}}, {"name": "model_662/tf.nn.convolution_1470/convolution/filter", "op": "Const", "attr": {"value": {"tensor": {"dtype": "DT_FLOAT", "tensorShape": {"dim": [{"size": "1"}, {"size": "1"}, {"size": "128"}, {"size": "128"}]}}}, "dtype": {"type": "DT_FLOAT"}}}, {"name": "model_662/tf.math.add_677/Add/y", "op": "Const", "attr": {"value": {"tensor": {"dtype": "DT_FLOAT", "tensorShape": {"dim": [{"size": "128"}]}}}, "dtype": {"type": "DT_FLOAT"}}}, {"name": "model_662/tf.concat_176/concat/axis", "op": "Const", "attr": {"value": {"tensor": {"dtype": "DT_INT32", "tensorShape": {}}}, "dtype": {"type": "DT_INT32"}}}, {"name": "model_662/tf.nn.convolution_1471/convolution/filter", "op": "Const", "attr": {"value": {"tensor": {"dtype": "DT_FLOAT", "tensorShape": {"dim": [{"size": "1"}, {"size": "1"}, {"size": "384"}, {"size": "256"}]}}}, "dtype": {"type": "DT_FLOAT"}}}, {"name": "model_662/tf.math.add_678/Add/y", "op": "Const", "attr": {"value": {"tensor": {"dtype": "DT_FLOAT", "tensorShape": {"dim": [{"size": "256"}]}}}, "dtype": {"type": "DT_FLOAT"}}}, {"name": "model_662/tf.nn.convolution_1472/convolution/filter", "op": "Const", "attr": {"value": {"tensor": {"dtype": "DT_FLOAT", "tensorShape": {"dim": [{"size": "1"}, {"size": "1"}, {"size": "256"}, {"size": "256"}]}}}, "dtype": {"type": "DT_FLOAT"}}}, {"name": "model_662/tf.math.add_679/Add/y", "op": "Const", "attr": {"value": {"tensor": {"dtype": "DT_FLOAT", "tensorShape": {"dim": [{"size": "256"}]}}}, "dtype": {"type": "DT_FLOAT"}}}, {"name": "model_662/tf.strided_slice_128/StridedSlice/begin", "op": "Const", "attr": {"value": {"tensor": {"dtype": "DT_INT32", "tensorShape": {"dim": [{"size": "4"}]}}}, "dtype": {"type": "DT_INT32"}}}, {"name": "model_662/tf.strided_slice_128/StridedSlice/end", "op": "Const", "attr": {"value": {"tensor": {"dtype": "DT_INT32", "tensorShape": {"dim": [{"size": "4"}]}}}, "dtype": {"type": "DT_INT32"}}}, {"name": "model_662/tf.strided_slice_128/ones_like", "op": "Const", "attr": {"value": {"tensor": {"dtype": "DT_INT32", "tensorShape": {"dim": [{"size": "4"}]}}}, "dtype": {"type": "DT_INT32"}}}, {"name": "model_662/tf.nn.convolution_1473/convolution/filter", "op": "Const", "attr": {"value": {"tensor": {"dtype": "DT_FLOAT", "tensorShape": {"dim": [{"size": "1"}, {"size": "1"}, {"size": "128"}, {"size": "256"}]}}}, "dtype": {"type": "DT_FLOAT"}}}, {"name": "model_662/tf.math.add_680/Add/y", "op": "Const", "attr": {"value": {"tensor": {"dtype": "DT_FLOAT", "tensorShape": {"dim": [{"size": "256"}]}}}, "dtype": {"type": "DT_FLOAT"}}}, {"name": "model_662/tf.compat.v1.transpose_1337/transpose/perm", "op": "Const", "attr": {"value": {"tensor": {"dtype": "DT_INT32", "tensorShape": {"dim": [{"size": "4"}]}}}, "dtype": {"type": "DT_INT32"}}}, {"name": "model_662/tf.reshape_386/Reshape/shape", "op": "Const", "attr": {"value": {"tensor": {"dtype": "DT_INT32", "tensorShape": {"dim": [{"size": "4"}]}}}, "dtype": {"type": "DT_INT32"}}}, {"name": "model_662/tf.strided_slice_131/StridedSlice/begin", "op": "Const", "attr": {"value": {"tensor": {"dtype": "DT_INT32", "tensorShape": {"dim": [{"size": "4"}]}}}, "dtype": {"type": "DT_INT32"}}}, {"name": "model_662/tf.strided_slice_131/StridedSlice/end", "op": "Const", "attr": {"value": {"tensor": {"dtype": "DT_INT32", "tensorShape": {"dim": [{"size": "4"}]}}}, "dtype": {"type": "DT_INT32"}}}, {"name": "model_662/tf.strided_slice_131/ones_like", "op": "Const", "attr": {"value": {"tensor": {"dtype": "DT_INT32", "tensorShape": {"dim": [{"size": "4"}]}}}, "dtype": {"type": "DT_INT32"}}}, {"name": "model_662/tf.reshape_389/Reshape/shape", "op": "Const", "attr": {"value": {"tensor": {"dtype": "DT_INT32", "tensorShape": {"dim": [{"size": "4"}]}}}, "dtype": {"type": "DT_INT32"}}}, {"name": "model_662/tf.compat.v1.transpose_1345/transpose/perm", "op": "Const", "attr": {"value": {"tensor": {"dtype": "DT_INT32", "tensorShape": {"dim": [{"size": "4"}]}}}, "dtype": {"type": "DT_INT32"}}}, {"name": "model_662/tf.nn.convolution_1601/convolution/filter", "op": "Const", "attr": {"value": {"tensor": {"dtype": "DT_FLOAT", "tensorShape": {"dim": [{"size": "3"}, {"size": "3"}, {"size": "1"}, {"size": "1"}]}}}, "dtype": {"type": "DT_FLOAT"}}}, {"name": "model_662/tf.concat_177/concat/axis", "op": "Const", "attr": {"value": {"tensor": {"dtype": "DT_INT32", "tensorShape": {}}}, "dtype": {"type": "DT_INT32"}}}, {"name": "model_662/tf.nn.convolution_1602/convolution/filter", "op": "Const", "attr": {"value": {"tensor": {"dtype": "DT_FLOAT", "tensorShape": {"dim": [{"size": "1"}, {"size": "1"}, {"size": "128"}, {"size": "128"}]}}}, "dtype": {"type": "DT_FLOAT"}}}, {"name": "model_662/tf.math.add_684/Add/y", "op": "Const", "attr": {"value": {"tensor": {"dtype": "DT_FLOAT", "tensorShape": {"dim": [{"size": "128"}]}}}, "dtype": {"type": "DT_FLOAT"}}}, {"name": "model_662/tf.nn.convolution_1603/convolution/filter", "op": "Const", "attr": {"value": {"tensor": {"dtype": "DT_FLOAT", "tensorShape": {"dim": [{"size": "1"}, {"size": "1"}, {"size": "128"}, {"size": "256"}]}}}, "dtype": {"type": "DT_FLOAT"}}}, {"name": "model_662/tf.math.add_687/Add/y", "op": "Const", "attr": {"value": {"tensor": {"dtype": "DT_FLOAT", "tensorShape": {"dim": [{"size": "256"}]}}}, "dtype": {"type": "DT_FLOAT"}}}, {"name": "model_662/tf.nn.convolution_1604/convolution/filter", "op": "Const", "attr": {"value": {"tensor": {"dtype": "DT_FLOAT", "tensorShape": {"dim": [{"size": "1"}, {"size": "1"}, {"size": "256"}, {"size": "128"}]}}}, "dtype": {"type": "DT_FLOAT"}}}, {"name": "model_662/tf.concat_178/concat/axis", "op": "Const", "attr": {"value": {"tensor": {"dtype": "DT_INT32", "tensorShape": {}}}, "dtype": {"type": "DT_INT32"}}}, {"name": "model_662/tf.nn.convolution_1605/convolution/filter", "op": "Const", "attr": {"value": {"tensor": {"dtype": "DT_FLOAT", "tensorShape": {"dim": [{"size": "1"}, {"size": "1"}, {"size": "256"}, {"size": "256"}]}}}, "dtype": {"type": "DT_FLOAT"}}}, {"name": "model_662/tf.math.add_691/Add/y", "op": "Const", "attr": {"value": {"tensor": {"dtype": "DT_FLOAT", "tensorShape": {"dim": [{"size": "256"}]}}}, "dtype": {"type": "DT_FLOAT"}}}, {"name": "model_662/tf.nn.convolution_1606/convolution/filter", "op": "Const", "attr": {"value": {"tensor": {"dtype": "DT_FLOAT", "tensorShape": {"dim": [{"size": "1"}, {"size": "1"}, {"size": "256"}, {"size": "1280"}]}}}, "dtype": {"type": "DT_FLOAT"}}}, {"name": "model_662/tf.math.add_692/Add/y", "op": "Const", "attr": {"value": {"tensor": {"dtype": "DT_FLOAT", "tensorShape": {"dim": [{"size": "1280"}]}}}, "dtype": {"type": "DT_FLOAT"}}}, {"name": "model_662/tf.math.reduce_mean/Mean/reduction_indices", "op": "Const", "attr": {"value": {"tensor": {"dtype": "DT_INT32", "tensorShape": {"dim": [{"size": "2"}]}}}, "dtype": {"type": "DT_INT32"}}}, {"name": "model_662/tf.compat.v1.transpose_1359/transpose/perm", "op": "Const", "attr": {"value": {"tensor": {"dtype": "DT_INT32", "tensorShape": {"dim": [{"size": "4"}]}}}, "dtype": {"type": "DT_INT32"}}}, {"name": "model_662/tf.reshape_393/Reshape/shape", "op": "Const", "attr": {"value": {"tensor": {"dtype": "DT_INT32", "tensorShape": {"dim": [{"size": "2"}]}}}, "dtype": {"type": "DT_INT32"}}}, {"name": "model_662/tf.linalg.matmul_36/MatMul/b", "op": "Const", "attr": {"value": {"tensor": {"dtype": "DT_FLOAT", "tensorShape": {"dim": [{"size": "1280"}, {"size": "1000"}]}}}, "dtype": {"type": "DT_FLOAT"}}}, {"name": "model_662/tf.__operators__.add_4/AddV2/y", "op": "Const", "attr": {"value": {"tensor": {"dtype": "DT_FLOAT", "tensorShape": {"dim": [{"size": "1000"}]}}}, "dtype": {"type": "DT_FLOAT"}}}, {"name": "x", "op": "Placeholder", "attr": {"shape": {"shape": {"dim": [{"size": "1"}, {"size": "224"}, {"size": "224"}, {"size": "3"}]}}, "dtype": {"type": "DT_FLOAT"}}}, {"name": "model_662/tf.compat.v1.pad_28/Pad", "op": "Pad", "input": ["x", "model_662/tf.compat.v1.pad_28/Pad/paddings"], "attr": {"Tpaddings": {"type": "DT_INT32"}, "T": {"type": "DT_FLOAT"}}}, {"name": "model_662/tf.math.add_636/Add", "op": "_FusedConv2D", "input": ["model_662/tf.compat.v1.pad_28/Pad", "model_662/tf.nn.convolution_1441/convolution/filter", "model_662/tf.math.add_636/Add/y"], "device": "/device:CPU:0", "attr": {"num_host_args": {"i": "0"}, "data_format": {"s": "TkhXQw=="}, "filter_format": {"s": "SFdJTw=="}, "_input_shapes": {"list": {"shape": [{"dim": [{"size": "-30"}, {"size": "-34"}, {"size": "-35"}, {"size": "-33"}]}, {"dim": [{"size": "3"}, {"size": "3"}, {"size": "3"}, {"size": "16"}]}]}}, "fused_ops": {"list": {"s": ["Qmlhc0FkZA=="]}}, "num_args": {"i": "1"}, "strides": {"list": {"i": ["1", "2", "2", "1"]}}, "TArgs": {"list": {"type": ["DT_FLOAT"]}}, "padding": {"s": "VkFMSUQ="}, "use_cudnn_on_gpu": {"b": true}, "leakyrelu_alpha": {"f": 0.2}, "epsilon": {"f": 0.0}, "T": {"type": "DT_FLOAT"}, "explicit_paddings": {"list": {}}, "dilations": {"list": {"i": ["1", "1", "1", "1"]}}}}, {"name": "model_662/tf.math.sigmoid_377/Sigmoid", "op": "Sigmoid", "input": ["model_662/tf.math.add_636/Add"], "attr": {"_input_shapes": {"list": {"shape": [{"dim": [{"size": "-30"}, {"size": "-36"}, {"size": "-37"}, {"size": "16"}]}]}}, "T": {"type": "DT_FLOAT"}}}, {"name": "model_662/tf.math.multiply_1742/Mul", "op": "Mul", "input": ["model_662/tf.math.add_636/Add", "model_662/tf.math.sigmoid_377/Sigmoid"], "attr": {"T": {"type": "DT_FLOAT"}}}, {"name": "model_662/tf.compat.v1.pad_29/Pad", "op": "Pad", "input": ["model_662/tf.math.multiply_1742/Mul", "model_662/tf.compat.v1.pad_29/Pad/paddings"], "attr": {"Tpaddings": {"type": "DT_INT32"}, "T": {"type": "DT_FLOAT"}}}, {"name": "model_662/tf.math.add_637/Add", "op": "_FusedConv2D", "input": ["model_662/tf.compat.v1.pad_29/Pad", "model_662/tf.nn.convolution_1442/convolution/filter", "model_662/tf.math.add_637/Add/y"], "device": "/device:CPU:0", "attr": {"num_host_args": {"i": "0"}, "data_format": {"s": "TkhXQw=="}, "filter_format": {"s": "SFdJTw=="}, "_input_shapes": {"list": {"shape": [{"dim": [{"size": "-30"}, {"size": "-38"}, {"size": "-39"}, {"size": "16"}]}, {"dim": [{"size": "3"}, {"size": "3"}, {"size": "16"}, {"size": "32"}]}]}}, "fused_ops": {"list": {"s": ["Qmlhc0FkZA=="]}}, "num_args": {"i": "1"}, "strides": {"list": {"i": ["1", "2", "2", "1"]}}, "TArgs": {"list": {"type": ["DT_FLOAT"]}}, "padding": {"s": "VkFMSUQ="}, "use_cudnn_on_gpu": {"b": true}, "leakyrelu_alpha": {"f": 0.2}, "epsilon": {"f": 0.0}, "T": {"type": "DT_FLOAT"}, "explicit_paddings": {"list": {}}, "dilations": {"list": {"i": ["1", "1", "1", "1"]}}}}, {"name": "model_662/tf.math.sigmoid_378/Sigmoid", "op": "Sigmoid", "input": ["model_662/tf.math.add_637/Add"], "attr": {"_input_shapes": {"list": {"shape": [{"dim": [{"size": "-30"}, {"size": "-40"}, {"size": "-41"}, {"size": "32"}]}]}}, "T": {"type": "DT_FLOAT"}}}, {"name": "model_662/tf.math.multiply_1746/Mul", "op": "Mul", "input": ["model_662/tf.math.add_637/Add", "model_662/tf.math.sigmoid_378/Sigmoid"], "attr": {"T": {"type": "DT_FLOAT"}}}, {"name": "model_662/tf.math.add_638/Add", "op": "_FusedConv2D", "input": ["model_662/tf.math.multiply_1746/Mul", "model_662/tf.nn.convolution_1443/convolution/filter", "model_662/tf.math.add_638/Add/y"], "device": "/device:CPU:0", "attr": {"num_host_args": {"i": "0"}, "data_format": {"s": "TkhXQw=="}, "filter_format": {"s": "SFdJTw=="}, "_input_shapes": {"list": {"shape": [{"dim": [{"size": "-30"}, {"size": "-40"}, {"size": "-41"}, {"size": "32"}]}, {"dim": [{"size": "1"}, {"size": "1"}, {"size": "32"}, {"size": "32"}]}]}}, "strides": {"list": {"i": ["1", "1", "1", "1"]}}, "num_args": {"i": "1"}, "fused_ops": {"list": {"s": ["Qmlhc0FkZA=="]}}, "TArgs": {"list": {"type": ["DT_FLOAT"]}}, "padding": {"s": "U0FNRQ=="}, "use_cudnn_on_gpu": {"b": true}, "leakyrelu_alpha": {"f": 0.2}, "epsilon": {"f": 0.0}, "T": {"type": "DT_FLOAT"}, "explicit_paddings": {"list": {}}, "dilations": {"list": {"i": ["1", "1", "1", "1"]}}}}, {"name": "model_662/tf.math.sigmoid_379/Sigmoid", "op": "Sigmoid", "input": ["model_662/tf.math.add_638/Add"], "attr": {"_input_shapes": {"list": {"shape": [{"dim": [{"size": "-30"}, {"size": "-40"}, {"size": "-41"}, {"size": "32"}]}]}}, "T": {"type": "DT_FLOAT"}}}, {"name": "model_662/tf.math.multiply_1750/Mul", "op": "Mul", "input": ["model_662/tf.math.add_638/Add", "model_662/tf.math.sigmoid_379/Sigmoid"], "attr": {"T": {"type": "DT_FLOAT"}}}, {"name": "model_662/tf.strided_slice_119/StridedSlice", "op": "StridedSlice", "input": ["model_662/tf.math.multiply_1750/Mul", "model_662/tf.strided_slice_119/ones_like/tensor", "model_662/tf.strided_slice_119/StridedSlice/end", "model_662/tf.strided_slice_119/ones_like"], "attr": {"shrink_axis_mask": {"i": "0"}, "new_axis_mask": {"i": "0"}, "Index": {"type": "DT_INT64"}, "begin_mask": {"i": "15"}, "T": {"type": "DT_FLOAT"}, "end_mask": {"i": "7"}, "ellipsis_mask": {"i": "0"}}}, {"name": "model_662/tf.strided_slice_120/StridedSlice", "op": "StridedSlice", "input": ["model_662/tf.math.multiply_1750/Mul", "model_662/tf.strided_slice_120/ones_like/tensor", "model_662/tf.strided_slice_120/StridedSlice/end", "model_662/tf.strided_slice_120/ones_like"], "attr": {"shrink_axis_mask": {"i": "0"}, "new_axis_mask": {"i": "0"}, "Index": {"type": "DT_INT64"}, "begin_mask": {"i": "7"}, "T": {"type": "DT_FLOAT"}, "end_mask": {"i": "7"}, "ellipsis_mask": {"i": "0"}}}, {"name": "model_662/tf.math.add_639/Add", "op": "_FusedConv2D", "input": ["model_662/tf.strided_slice_120/StridedSlice", "model_662/tf.nn.convolution_1444/convolution/filter", "model_662/tf.math.add_639/Add/y"], "device": "/device:CPU:0", "attr": {"num_host_args": {"i": "0"}, "data_format": {"s": "TkhXQw=="}, "filter_format": {"s": "SFdJTw=="}, "_input_shapes": {"list": {"shape": [{"dim": [{"size": "-5"}, {"size": "-6"}, {"size": "-7"}, {"size": "16"}]}, {"dim": [{"size": "3"}, {"size": "3"}, {"size": "16"}, {"size": "8"}]}]}}, "fused_ops": {"list": {"s": ["Qmlhc0FkZA=="]}}, "num_args": {"i": "1"}, "strides": {"list": {"i": ["1", "1", "1", "1"]}}, "TArgs": {"list": {"type": ["DT_FLOAT"]}}, "padding": {"s": "U0FNRQ=="}, "use_cudnn_on_gpu": {"b": true}, "leakyrelu_alpha": {"f": 0.2}, "epsilon": {"f": 0.0}, "T": {"type": "DT_FLOAT"}, "explicit_paddings": {"list": {}}, "dilations": {"list": {"i": ["1", "1", "1", "1"]}}}}, {"name": "model_662/tf.math.sigmoid_380/Sigmoid", "op": "Sigmoid", "input": ["model_662/tf.math.add_639/Add"], "attr": {"_input_shapes": {"list": {"shape": [{"dim": [{"size": "-5"}, {"size": "-6"}, {"size": "-7"}, {"size": "8"}]}]}}, "T": {"type": "DT_FLOAT"}}}, {"name": "model_662/tf.math.multiply_1754/Mul", "op": "Mul", "input": ["model_662/tf.math.add_639/Add", "model_662/tf.math.sigmoid_380/Sigmoid"], "attr": {"T": {"type": "DT_FLOAT"}}}, {"name": "model_662/tf.math.add_640/Add", "op": "_FusedConv2D", "input": ["model_662/tf.math.multiply_1754/Mul", "model_662/tf.nn.convolution_1445/convolution/filter", "model_662/tf.math.add_640/Add/y"], "device": "/device:CPU:0", "attr": {"num_host_args": {"i": "0"}, "_input_shapes": {"list": {"shape": [{"dim": [{"size": "-5"}, {"size": "-6"}, {"size": "-7"}, {"size": "8"}]}, {"dim": [{"size": "3"}, {"size": "3"}, {"size": "8"}, {"size": "16"}]}]}}, "filter_format": {"s": "SFdJTw=="}, "data_format": {"s": "TkhXQw=="}, "fused_ops": {"list": {"s": ["Qmlhc0FkZA=="]}}, "num_args": {"i": "1"}, "strides": {"list": {"i": ["1", "1", "1", "1"]}}, "TArgs": {"list": {"type": ["DT_FLOAT"]}}, "padding": {"s": "U0FNRQ=="}, "use_cudnn_on_gpu": {"b": true}, "leakyrelu_alpha": {"f": 0.2}, "epsilon": {"f": 0.0}, "T": {"type": "DT_FLOAT"}, "explicit_paddings": {"list": {}}, "dilations": {"list": {"i": ["1", "1", "1", "1"]}}}}, {"name": "model_662/tf.math.sigmoid_381/Sigmoid", "op": "Sigmoid", "input": ["model_662/tf.math.add_640/Add"], "attr": {"_input_shapes": {"list": {"shape": [{"dim": [{"size": "-5"}, {"size": "-6"}, {"size": "-7"}, {"size": "16"}]}]}}, "T": {"type": "DT_FLOAT"}}}, {"name": "model_662/tf.math.multiply_1758/Mul", "op": "Mul", "input": ["model_662/tf.math.add_640/Add", "model_662/tf.math.sigmoid_381/Sigmoid"], "attr": {"T": {"type": "DT_FLOAT"}}}, {"name": "model_662/tf.math.add_642/Add", "op": "AddV2", "input": ["model_662/tf.strided_slice_120/StridedSlice", "model_662/tf.math.multiply_1758/Mul"], "attr": {"T": {"type": "DT_FLOAT"}}}, {"name": "model_662/tf.concat_171/concat", "op": "ConcatV2", "input": ["model_662/tf.strided_slice_119/StridedSlice", "model_662/tf.strided_slice_120/StridedSlice", "model_662/tf.math.add_642/Add", "model_662/tf.concat_171/concat/axis"], "attr": {"N": {"i": "3"}, "Tidx": {"type": "DT_INT32"}, "T": {"type": "DT_FLOAT"}}}, {"name": "model_662/tf.math.add_643/Add", "op": "_FusedConv2D", "input": ["model_662/tf.concat_171/concat", "model_662/tf.nn.convolution_1446/convolution/filter", "model_662/tf.math.add_643/Add/y"], "device": "/device:CPU:0", "attr": {"num_host_args": {"i": "0"}, "data_format": {"s": "TkhXQw=="}, "filter_format": {"s": "SFdJTw=="}, "_input_shapes": {"list": {"shape": [{"dim": [{"size": "-5"}, {"size": "-6"}, {"size": "-7"}, {"size": "48"}]}, {"dim": [{"size": "1"}, {"size": "1"}, {"size": "48"}, {"size": "64"}]}]}}, "fused_ops": {"list": {"s": ["Qmlhc0FkZA=="]}}, "num_args": {"i": "1"}, "strides": {"list": {"i": ["1", "1", "1", "1"]}}, "TArgs": {"list": {"type": ["DT_FLOAT"]}}, "padding": {"s": "U0FNRQ=="}, "use_cudnn_on_gpu": {"b": true}, "leakyrelu_alpha": {"f": 0.2}, "epsilon": {"f": 0.0}, "T": {"type": "DT_FLOAT"}, "explicit_paddings": {"list": {}}, "dilations": {"list": {"i": ["1", "1", "1", "1"]}}}}, {"name": "model_662/tf.math.sigmoid_382/Sigmoid", "op": "Sigmoid", "input": ["model_662/tf.math.add_643/Add"], "attr": {"_input_shapes": {"list": {"shape": [{"dim": [{"size": "-5"}, {"size": "-6"}, {"size": "-7"}, {"size": "64"}]}]}}, "T": {"type": "DT_FLOAT"}}}, {"name": "model_662/tf.math.multiply_1764/Mul", "op": "Mul", "input": ["model_662/tf.math.add_643/Add", "model_662/tf.math.sigmoid_382/Sigmoid"], "attr": {"T": {"type": "DT_FLOAT"}}}, {"name": "model_662/tf.compat.v1.pad_30/Pad", "op": "Pad", "input": ["model_662/tf.math.multiply_1764/Mul", "model_662/tf.compat.v1.pad_30/Pad/paddings"], "attr": {"Tpaddings": {"type": "DT_INT32"}, "T": {"type": "DT_FLOAT"}}}, {"name": "model_662/tf.math.add_644/Add", "op": "_FusedConv2D", "input": ["model_662/tf.compat.v1.pad_30/Pad", "model_662/tf.nn.convolution_1447/convolution/filter", "model_662/tf.math.add_644/Add/y"], "device": "/device:CPU:0", "attr": {"num_host_args": {"i": "0"}, "_input_shapes": {"list": {"shape": [{"dim": [{"size": "-5"}, {"size": "-42"}, {"size": "-43"}, {"size": "64"}]}, {"dim": [{"size": "3"}, {"size": "3"}, {"size": "64"}, {"size": "64"}]}]}}, "filter_format": {"s": "SFdJTw=="}, "data_format": {"s": "TkhXQw=="}, "fused_ops": {"list": {"s": ["Qmlhc0FkZA=="]}}, "num_args": {"i": "1"}, "strides": {"list": {"i": ["1", "2", "2", "1"]}}, "TArgs": {"list": {"type": ["DT_FLOAT"]}}, "padding": {"s": "VkFMSUQ="}, "use_cudnn_on_gpu": {"b": true}, "leakyrelu_alpha": {"f": 0.2}, "epsilon": {"f": 0.0}, "T": {"type": "DT_FLOAT"}, "explicit_paddings": {"list": {}}, "dilations": {"list": {"i": ["1", "1", "1", "1"]}}}}, {"name": "model_662/tf.math.sigmoid_383/Sigmoid", "op": "Sigmoid", "input": ["model_662/tf.math.add_644/Add"], "attr": {"_input_shapes": {"list": {"shape": [{"dim": [{"size": "-5"}, {"size": "-44"}, {"size": "-45"}, {"size": "64"}]}]}}, "T": {"type": "DT_FLOAT"}}}, {"name": "model_662/tf.math.multiply_1768/Mul", "op": "Mul", "input": ["model_662/tf.math.add_644/Add", "model_662/tf.math.sigmoid_383/Sigmoid"], "attr": {"T": {"type": "DT_FLOAT"}}}, {"name": "model_662/tf.math.add_645/Add", "op": "_FusedConv2D", "input": ["model_662/tf.math.multiply_1768/Mul", "model_662/tf.nn.convolution_1448/convolution/filter", "model_662/tf.math.add_645/Add/y"], "device": "/device:CPU:0", "attr": {"num_host_args": {"i": "0"}, "data_format": {"s": "TkhXQw=="}, "filter_format": {"s": "SFdJTw=="}, "_input_shapes": {"list": {"shape": [{"dim": [{"size": "-5"}, {"size": "-44"}, {"size": "-45"}, {"size": "64"}]}, {"dim": [{"size": "1"}, {"size": "1"}, {"size": "64"}, {"size": "64"}]}]}}, "strides": {"list": {"i": ["1", "1", "1", "1"]}}, "num_args": {"i": "1"}, "fused_ops": {"list": {"s": ["Qmlhc0FkZA=="]}}, "TArgs": {"list": {"type": ["DT_FLOAT"]}}, "padding": {"s": "U0FNRQ=="}, "use_cudnn_on_gpu": {"b": true}, "leakyrelu_alpha": {"f": 0.2}, "epsilon": {"f": 0.0}, "T": {"type": "DT_FLOAT"}, "explicit_paddings": {"list": {}}, "dilations": {"list": {"i": ["1", "1", "1", "1"]}}}}, {"name": "model_662/tf.math.sigmoid_384/Sigmoid", "op": "Sigmoid", "input": ["model_662/tf.math.add_645/Add"], "attr": {"_input_shapes": {"list": {"shape": [{"dim": [{"size": "-5"}, {"size": "-44"}, {"size": "-45"}, {"size": "64"}]}]}}, "T": {"type": "DT_FLOAT"}}}, {"name": "model_662/tf.math.multiply_1772/Mul", "op": "Mul", "input": ["model_662/tf.math.add_645/Add", "model_662/tf.math.sigmoid_384/Sigmoid"], "attr": {"T": {"type": "DT_FLOAT"}}}, {"name": "model_662/tf.strided_slice_121/StridedSlice", "op": "StridedSlice", "input": ["model_662/tf.math.multiply_1772/Mul", "model_662/tf.strided_slice_121/ones_like/tensor", "model_662/tf.strided_slice_121/StridedSlice/end", "model_662/tf.strided_slice_121/ones_like"], "attr": {"shrink_axis_mask": {"i": "0"}, "new_axis_mask": {"i": "0"}, "Index": {"type": "DT_INT64"}, "begin_mask": {"i": "15"}, "end_mask": {"i": "7"}, "T": {"type": "DT_FLOAT"}, "ellipsis_mask": {"i": "0"}}}, {"name": "model_662/tf.strided_slice_122/StridedSlice", "op": "StridedSlice", "input": ["model_662/tf.math.multiply_1772/Mul", "model_662/tf.strided_slice_122/ones_like/tensor", "model_662/tf.strided_slice_122/StridedSlice/end", "model_662/tf.strided_slice_122/ones_like"], "attr": {"shrink_axis_mask": {"i": "0"}, "Index": {"type": "DT_INT64"}, "new_axis_mask": {"i": "0"}, "begin_mask": {"i": "7"}, "end_mask": {"i": "7"}, "T": {"type": "DT_FLOAT"}, "ellipsis_mask": {"i": "0"}}}, {"name": "model_662/tf.math.add_646/Add", "op": "_FusedConv2D", "input": ["model_662/tf.strided_slice_122/StridedSlice", "model_662/tf.nn.convolution_1449/convolution/filter", "model_662/tf.math.add_646/Add/y"], "device": "/device:CPU:0", "attr": {"num_host_args": {"i": "0"}, "_input_shapes": {"list": {"shape": [{"dim": [{"size": "-11"}, {"size": "-12"}, {"size": "-13"}, {"size": "32"}]}, {"dim": [{"size": "3"}, {"size": "3"}, {"size": "32"}, {"size": "16"}]}]}}, "filter_format": {"s": "SFdJTw=="}, "data_format": {"s": "TkhXQw=="}, "fused_ops": {"list": {"s": ["Qmlhc0FkZA=="]}}, "num_args": {"i": "1"}, "strides": {"list": {"i": ["1", "1", "1", "1"]}}, "TArgs": {"list": {"type": ["DT_FLOAT"]}}, "padding": {"s": "U0FNRQ=="}, "use_cudnn_on_gpu": {"b": true}, "leakyrelu_alpha": {"f": 0.2}, "epsilon": {"f": 0.0}, "T": {"type": "DT_FLOAT"}, "explicit_paddings": {"list": {}}, "dilations": {"list": {"i": ["1", "1", "1", "1"]}}}}, {"name": "model_662/tf.math.sigmoid_385/Sigmoid", "op": "Sigmoid", "input": ["model_662/tf.math.add_646/Add"], "attr": {"_input_shapes": {"list": {"shape": [{"dim": [{"size": "-11"}, {"size": "-12"}, {"size": "-13"}, {"size": "16"}]}]}}, "T": {"type": "DT_FLOAT"}}}, {"name": "model_662/tf.math.multiply_1776/Mul", "op": "Mul", "input": ["model_662/tf.math.add_646/Add", "model_662/tf.math.sigmoid_385/Sigmoid"], "attr": {"T": {"type": "DT_FLOAT"}}}, {"name": "model_662/tf.math.add_647/Add", "op": "_FusedConv2D", "input": ["model_662/tf.math.multiply_1776/Mul", "model_662/tf.nn.convolution_1450/convolution/filter", "model_662/tf.math.add_647/Add/y"], "device": "/device:CPU:0", "attr": {"num_host_args": {"i": "0"}, "_input_shapes": {"list": {"shape": [{"dim": [{"size": "-11"}, {"size": "-12"}, {"size": "-13"}, {"size": "16"}]}, {"dim": [{"size": "3"}, {"size": "3"}, {"size": "16"}, {"size": "32"}]}]}}, "filter_format": {"s": "SFdJTw=="}, "data_format": {"s": "TkhXQw=="}, "strides": {"list": {"i": ["1", "1", "1", "1"]}}, "num_args": {"i": "1"}, "fused_ops": {"list": {"s": ["Qmlhc0FkZA=="]}}, "TArgs": {"list": {"type": ["DT_FLOAT"]}}, "padding": {"s": "U0FNRQ=="}, "use_cudnn_on_gpu": {"b": true}, "leakyrelu_alpha": {"f": 0.2}, "epsilon": {"f": 0.0}, "T": {"type": "DT_FLOAT"}, "explicit_paddings": {"list": {}}, "dilations": {"list": {"i": ["1", "1", "1", "1"]}}}}, {"name": "model_662/tf.math.sigmoid_386/Sigmoid", "op": "Sigmoid", "input": ["model_662/tf.math.add_647/Add"], "attr": {"_input_shapes": {"list": {"shape": [{"dim": [{"size": "-11"}, {"size": "-12"}, {"size": "-13"}, {"size": "32"}]}]}}, "T": {"type": "DT_FLOAT"}}}, {"name": "model_662/tf.math.multiply_1780/Mul", "op": "Mul", "input": ["model_662/tf.math.add_647/Add", "model_662/tf.math.sigmoid_386/Sigmoid"], "attr": {"T": {"type": "DT_FLOAT"}}}, {"name": "model_662/tf.math.add_649/Add", "op": "AddV2", "input": ["model_662/tf.strided_slice_122/StridedSlice", "model_662/tf.math.multiply_1780/Mul"], "attr": {"T": {"type": "DT_FLOAT"}}}, {"name": "model_662/tf.concat_172/concat", "op": "ConcatV2", "input": ["model_662/tf.strided_slice_121/StridedSlice", "model_662/tf.strided_slice_122/StridedSlice", "model_662/tf.math.add_649/Add", "model_662/tf.concat_172/concat/axis"], "attr": {"N": {"i": "3"}, "T": {"type": "DT_FLOAT"}, "Tidx": {"type": "DT_INT32"}}}, {"name": "model_662/tf.math.add_650/Add", "op": "_FusedConv2D", "input": ["model_662/tf.concat_172/concat", "model_662/tf.nn.convolution_1451/convolution/filter", "model_662/tf.math.add_650/Add/y"], "device": "/device:CPU:0", "attr": {"num_host_args": {"i": "0"}, "data_format": {"s": "TkhXQw=="}, "filter_format": {"s": "SFdJTw=="}, "_input_shapes": {"list": {"shape": [{"dim": [{"size": "-11"}, {"size": "-12"}, {"size": "-13"}, {"size": "96"}]}, {"dim": [{"size": "1"}, {"size": "1"}, {"size": "96"}, {"size": "128"}]}]}}, "strides": {"list": {"i": ["1", "1", "1", "1"]}}, "num_args": {"i": "1"}, "fused_ops": {"list": {"s": ["Qmlhc0FkZA=="]}}, "TArgs": {"list": {"type": ["DT_FLOAT"]}}, "padding": {"s": "U0FNRQ=="}, "use_cudnn_on_gpu": {"b": true}, "leakyrelu_alpha": {"f": 0.2}, "epsilon": {"f": 0.0}, "T": {"type": "DT_FLOAT"}, "explicit_paddings": {"list": {}}, "dilations": {"list": {"i": ["1", "1", "1", "1"]}}}}, {"name": "model_662/tf.math.sigmoid_387/Sigmoid", "op": "Sigmoid", "input": ["model_662/tf.math.add_650/Add"], "attr": {"_input_shapes": {"list": {"shape": [{"dim": [{"size": "-11"}, {"size": "-12"}, {"size": "-13"}, {"size": "128"}]}]}}, "T": {"type": "DT_FLOAT"}}}, {"name": "model_662/tf.math.multiply_1786/Mul", "op": "Mul", "input": ["model_662/tf.math.add_650/Add", "model_662/tf.math.sigmoid_387/Sigmoid"], "attr": {"T": {"type": "DT_FLOAT"}}}, {"name": "model_662/tf.compat.v1.pad_31/Pad", "op": "Pad", "input": ["model_662/tf.math.multiply_1786/Mul", "model_662/tf.compat.v1.pad_31/Pad/paddings"], "attr": {"Tpaddings": {"type": "DT_INT32"}, "T": {"type": "DT_FLOAT"}}}, {"name": "model_662/tf.math.add_651/Add", "op": "_FusedConv2D", "input": ["model_662/tf.compat.v1.pad_31/Pad", "model_662/tf.nn.convolution_1452/convolution/filter", "model_662/tf.math.add_651/Add/y"], "device": "/device:CPU:0", "attr": {"num_host_args": {"i": "0"}, "data_format": {"s": "TkhXQw=="}, "filter_format": {"s": "SFdJTw=="}, "_input_shapes": {"list": {"shape": [{"dim": [{"size": "-11"}, {"size": "-46"}, {"size": "-47"}, {"size": "128"}]}, {"dim": [{"size": "3"}, {"size": "3"}, {"size": "128"}, {"size": "128"}]}]}}, "fused_ops": {"list": {"s": ["Qmlhc0FkZA=="]}}, "num_args": {"i": "1"}, "strides": {"list": {"i": ["1", "2", "2", "1"]}}, "TArgs": {"list": {"type": ["DT_FLOAT"]}}, "padding": {"s": "VkFMSUQ="}, "use_cudnn_on_gpu": {"b": true}, "leakyrelu_alpha": {"f": 0.2}, "epsilon": {"f": 0.0}, "T": {"type": "DT_FLOAT"}, "explicit_paddings": {"list": {}}, "dilations": {"list": {"i": ["1", "1", "1", "1"]}}}}, {"name": "model_662/tf.math.sigmoid_388/Sigmoid", "op": "Sigmoid", "input": ["model_662/tf.math.add_651/Add"], "attr": {"_input_shapes": {"list": {"shape": [{"dim": [{"size": "-11"}, {"size": "-48"}, {"size": "-49"}, {"size": "128"}]}]}}, "T": {"type": "DT_FLOAT"}}}, {"name": "model_662/tf.math.multiply_1790/Mul", "op": "Mul", "input": ["model_662/tf.math.add_651/Add", "model_662/tf.math.sigmoid_388/Sigmoid"], "attr": {"T": {"type": "DT_FLOAT"}}}, {"name": "model_662/tf.math.add_652/Add", "op": "_FusedConv2D", "input": ["model_662/tf.math.multiply_1790/Mul", "model_662/tf.nn.convolution_1453/convolution/filter", "model_662/tf.math.add_652/Add/y"], "device": "/device:CPU:0", "attr": {"num_host_args": {"i": "0"}, "_input_shapes": {"list": {"shape": [{"dim": [{"size": "-11"}, {"size": "-48"}, {"size": "-49"}, {"size": "128"}]}, {"dim": [{"size": "1"}, {"size": "1"}, {"size": "128"}, {"size": "128"}]}]}}, "filter_format": {"s": "SFdJTw=="}, "data_format": {"s": "TkhXQw=="}, "fused_ops": {"list": {"s": ["Qmlhc0FkZA=="]}}, "num_args": {"i": "1"}, "strides": {"list": {"i": ["1", "1", "1", "1"]}}, "TArgs": {"list": {"type": ["DT_FLOAT"]}}, "padding": {"s": "U0FNRQ=="}, "use_cudnn_on_gpu": {"b": true}, "leakyrelu_alpha": {"f": 0.2}, "epsilon": {"f": 0.0}, "T": {"type": "DT_FLOAT"}, "explicit_paddings": {"list": {}}, "dilations": {"list": {"i": ["1", "1", "1", "1"]}}}}, {"name": "model_662/tf.math.sigmoid_389/Sigmoid", "op": "Sigmoid", "input": ["model_662/tf.math.add_652/Add"], "attr": {"_input_shapes": {"list": {"shape": [{"dim": [{"size": "-11"}, {"size": "-48"}, {"size": "-49"}, {"size": "128"}]}]}}, "T": {"type": "DT_FLOAT"}}}, {"name": "model_662/tf.math.multiply_1794/Mul", "op": "Mul", "input": ["model_662/tf.math.add_652/Add", "model_662/tf.math.sigmoid_389/Sigmoid"], "attr": {"T": {"type": "DT_FLOAT"}}}, {"name": "model_662/tf.strided_slice_123/StridedSlice", "op": "StridedSlice", "input": ["model_662/tf.math.multiply_1794/Mul", "model_662/tf.strided_slice_123/ones_like/tensor", "model_662/tf.strided_slice_123/StridedSlice/end", "model_662/tf.strided_slice_123/ones_like"], "attr": {"shrink_axis_mask": {"i": "0"}, "new_axis_mask": {"i": "0"}, "Index": {"type": "DT_INT64"}, "begin_mask": {"i": "15"}, "T": {"type": "DT_FLOAT"}, "end_mask": {"i": "7"}, "ellipsis_mask": {"i": "0"}}}, {"name": "model_662/tf.strided_slice_124/StridedSlice", "op": "StridedSlice", "input": ["model_662/tf.math.multiply_1794/Mul", "model_662/tf.strided_slice_124/ones_like/tensor", "model_662/tf.strided_slice_124/StridedSlice/end", "model_662/tf.strided_slice_124/ones_like"], "attr": {"shrink_axis_mask": {"i": "0"}, "new_axis_mask": {"i": "0"}, "Index": {"type": "DT_INT64"}, "begin_mask": {"i": "7"}, "end_mask": {"i": "7"}, "T": {"type": "DT_FLOAT"}, "ellipsis_mask": {"i": "0"}}}, {"name": "model_662/tf.math.add_653/Add", "op": "_FusedConv2D", "input": ["model_662/tf.strided_slice_124/StridedSlice", "model_662/tf.nn.convolution_1454/convolution/filter", "model_662/tf.math.add_653/Add/y"], "device": "/device:CPU:0", "attr": {"num_host_args": {"i": "0"}, "_input_shapes": {"list": {"shape": [{"dim": [{"size": "-17"}, {"size": "-18"}, {"size": "-19"}, {"size": "64"}]}, {"dim": [{"size": "1"}, {"size": "1"}, {"size": "64"}, {"size": "32"}]}]}}, "filter_format": {"s": "SFdJTw=="}, "data_format": {"s": "TkhXQw=="}, "strides": {"list": {"i": ["1", "1", "1", "1"]}}, "num_args": {"i": "1"}, "fused_ops": {"list": {"s": ["Qmlhc0FkZA=="]}}, "TArgs": {"list": {"type": ["DT_FLOAT"]}}, "padding": {"s": "U0FNRQ=="}, "use_cudnn_on_gpu": {"b": true}, "leakyrelu_alpha": {"f": 0.2}, "epsilon": {"f": 0.0}, "T": {"type": "DT_FLOAT"}, "explicit_paddings": {"list": {}}, "dilations": {"list": {"i": ["1", "1", "1", "1"]}}}}, {"name": "model_662/tf.math.add_654/Add", "op": "_FusedConv2D", "input": ["model_662/tf.strided_slice_124/StridedSlice", "model_662/tf.nn.convolution_1455/convolution/filter", "model_662/tf.math.add_654/Add/y"], "device": "/device:CPU:0", "attr": {"num_host_args": {"i": "0"}, "_input_shapes": {"list": {"shape": [{"dim": [{"size": "-17"}, {"size": "-18"}, {"size": "-19"}, {"size": "64"}]}, {"dim": [{"size": "1"}, {"size": "1"}, {"size": "64"}, {"size": "32"}]}]}}, "filter_format": {"s": "SFdJTw=="}, "data_format": {"s": "TkhXQw=="}, "fused_ops": {"list": {"s": ["Qmlhc0FkZA=="]}}, "num_args": {"i": "1"}, "strides": {"list": {"i": ["1", "1", "1", "1"]}}, "TArgs": {"list": {"type": ["DT_FLOAT"]}}, "padding": {"s": "U0FNRQ=="}, "use_cudnn_on_gpu": {"b": true}, "leakyrelu_alpha": {"f": 0.2}, "epsilon": {"f": 0.0}, "T": {"type": "DT_FLOAT"}, "explicit_paddings": {"list": {}}, "dilations": {"list": {"i": ["1", "1", "1", "1"]}}}}, {"name": "model_662/tf.math.sigmoid_390/Sigmoid", "op": "Sigmoid", "input": ["model_662/tf.math.add_653/Add"], "attr": {"_input_shapes": {"list": {"shape": [{"dim": [{"size": "-17"}, {"size": "-18"}, {"size": "-19"}, {"size": "32"}]}]}}, "T": {"type": "DT_FLOAT"}}}, {"name": "model_662/tf.math.sigmoid_391/Sigmoid", "op": "Sigmoid", "input": ["model_662/tf.math.add_654/Add"], "attr": {"_input_shapes": {"list": {"shape": [{"dim": [{"size": "-17"}, {"size": "-18"}, {"size": "-19"}, {"size": "32"}]}]}}, "T": {"type": "DT_FLOAT"}}}, {"name": "model_662/tf.math.multiply_1798/Mul", "op": "Mul", "input": ["model_662/tf.math.add_653/Add", "model_662/tf.math.sigmoid_390/Sigmoid"], "attr": {"T": {"type": "DT_FLOAT"}}}, {"name": "model_662/tf.math.multiply_1802/Mul", "op": "Mul", "input": ["model_662/tf.math.add_654/Add", "model_662/tf.math.sigmoid_391/Sigmoid"], "attr": {"T": {"type": "DT_FLOAT"}}}, {"name": "model_662/tf.math.add_655/Add", "op": "_FusedConv2D", "input": ["model_662/tf.math.multiply_1798/Mul", "model_662/tf.nn.convolution_1456/convolution/filter", "model_662/tf.math.add_655/Add/y"], "device": "/device:CPU:0", "attr": {"num_host_args": {"i": "0"}, "data_format": {"s": "TkhXQw=="}, "filter_format": {"s": "SFdJTw=="}, "_input_shapes": {"list": {"shape": [{"dim": [{"size": "-17"}, {"size": "-18"}, {"size": "-19"}, {"size": "32"}]}, {"dim": [{"size": "3"}, {"size": "3"}, {"size": "32"}, {"size": "32"}]}]}}, "fused_ops": {"list": {"s": ["Qmlhc0FkZA=="]}}, "num_args": {"i": "1"}, "strides": {"list": {"i": ["1", "1", "1", "1"]}}, "TArgs": {"list": {"type": ["DT_FLOAT"]}}, "padding": {"s": "U0FNRQ=="}, "use_cudnn_on_gpu": {"b": true}, "leakyrelu_alpha": {"f": 0.2}, "epsilon": {"f": 0.0}, "T": {"type": "DT_FLOAT"}, "explicit_paddings": {"list": {}}, "dilations": {"list": {"i": ["1", "1", "1", "1"]}}}}, {"name": "model_662/tf.math.sigmoid_392/Sigmoid", "op": "Sigmoid", "input": ["model_662/tf.math.add_655/Add"], "attr": {"_input_shapes": {"list": {"shape": [{"dim": [{"size": "-17"}, {"size": "-18"}, {"size": "-19"}, {"size": "32"}]}]}}, "T": {"type": "DT_FLOAT"}}}, {"name": "model_662/tf.math.multiply_1806/Mul", "op": "Mul", "input": ["model_662/tf.math.add_655/Add", "model_662/tf.math.sigmoid_392/Sigmoid"], "attr": {"T": {"type": "DT_FLOAT"}}}, {"name": "model_662/tf.math.add_656/Add", "op": "_FusedConv2D", "input": ["model_662/tf.math.multiply_1806/Mul", "model_662/tf.nn.convolution_1457/convolution/filter", "model_662/tf.math.add_656/Add/y"], "device": "/device:CPU:0", "attr": {"num_host_args": {"i": "0"}, "data_format": {"s": "TkhXQw=="}, "filter_format": {"s": "SFdJTw=="}, "_input_shapes": {"list": {"shape": [{"dim": [{"size": "-17"}, {"size": "-18"}, {"size": "-19"}, {"size": "32"}]}, {"dim": [{"size": "3"}, {"size": "3"}, {"size": "32"}, {"size": "32"}]}]}}, "strides": {"list": {"i": ["1", "1", "1", "1"]}}, "num_args": {"i": "1"}, "fused_ops": {"list": {"s": ["Qmlhc0FkZA=="]}}, "TArgs": {"list": {"type": ["DT_FLOAT"]}}, "padding": {"s": "U0FNRQ=="}, "use_cudnn_on_gpu": {"b": true}, "leakyrelu_alpha": {"f": 0.2}, "epsilon": {"f": 0.0}, "T": {"type": "DT_FLOAT"}, "explicit_paddings": {"list": {}}, "dilations": {"list": {"i": ["1", "1", "1", "1"]}}}}, {"name": "model_662/tf.math.sigmoid_393/Sigmoid", "op": "Sigmoid", "input": ["model_662/tf.math.add_656/Add"], "attr": {"_input_shapes": {"list": {"shape": [{"dim": [{"size": "-17"}, {"size": "-18"}, {"size": "-19"}, {"size": "32"}]}]}}, "T": {"type": "DT_FLOAT"}}}, {"name": "model_662/tf.math.multiply_1810/Mul", "op": "Mul", "input": ["model_662/tf.math.add_656/Add", "model_662/tf.math.sigmoid_393/Sigmoid"], "attr": {"T": {"type": "DT_FLOAT"}}}, {"name": "model_662/tf.math.add_658/Add", "op": "AddV2", "input": ["model_662/tf.math.multiply_1798/Mul", "model_662/tf.math.multiply_1810/Mul"], "attr": {"T": {"type": "DT_FLOAT"}}}, {"name": "model_662/tf.math.add_659/Add", "op": "_FusedConv2D", "input": ["model_662/tf.math.add_658/Add", "model_662/tf.nn.convolution_1458/convolution/filter", "model_662/tf.math.add_659/Add/y"], "device": "/device:CPU:0", "attr": {"num_host_args": {"i": "0"}, "data_format": {"s": "TkhXQw=="}, "filter_format": {"s": "SFdJTw=="}, "_input_shapes": {"list": {"shape": [{"dim": [{"size": "-17"}, {"size": "-18"}, {"size": "-19"}, {"size": "32"}]}, {"dim": [{"size": "3"}, {"size": "3"}, {"size": "32"}, {"size": "32"}]}]}}, "fused_ops": {"list": {"s": ["Qmlhc0FkZA=="]}}, "num_args": {"i": "1"}, "strides": {"list": {"i": ["1", "1", "1", "1"]}}, "TArgs": {"list": {"type": ["DT_FLOAT"]}}, "padding": {"s": "U0FNRQ=="}, "use_cudnn_on_gpu": {"b": true}, "leakyrelu_alpha": {"f": 0.2}, "epsilon": {"f": 0.0}, "T": {"type": "DT_FLOAT"}, "explicit_paddings": {"list": {}}, "dilations": {"list": {"i": ["1", "1", "1", "1"]}}}}, {"name": "model_662/tf.math.sigmoid_394/Sigmoid", "op": "Sigmoid", "input": ["model_662/tf.math.add_659/Add"], "attr": {"_input_shapes": {"list": {"shape": [{"dim": [{"size": "-17"}, {"size": "-18"}, {"size": "-19"}, {"size": "32"}]}]}}, "T": {"type": "DT_FLOAT"}}}, {"name": "model_662/tf.math.multiply_1816/Mul", "op": "Mul", "input": ["model_662/tf.math.add_659/Add", "model_662/tf.math.sigmoid_394/Sigmoid"], "attr": {"T": {"type": "DT_FLOAT"}}}, {"name": "model_662/tf.math.add_660/Add", "op": "_FusedConv2D", "input": ["model_662/tf.math.multiply_1816/Mul", "model_662/tf.nn.convolution_1459/convolution/filter", "model_662/tf.math.add_660/Add/y"], "device": "/device:CPU:0", "attr": {"num_host_args": {"i": "0"}, "_input_shapes": {"list": {"shape": [{"dim": [{"size": "-17"}, {"size": "-18"}, {"size": "-19"}, {"size": "32"}]}, {"dim": [{"size": "3"}, {"size": "3"}, {"size": "32"}, {"size": "32"}]}]}}, "filter_format": {"s": "SFdJTw=="}, "data_format": {"s": "TkhXQw=="}, "fused_ops": {"list": {"s": ["Qmlhc0FkZA=="]}}, "num_args": {"i": "1"}, "strides": {"list": {"i": ["1", "1", "1", "1"]}}, "TArgs": {"list": {"type": ["DT_FLOAT"]}}, "padding": {"s": "U0FNRQ=="}, "use_cudnn_on_gpu": {"b": true}, "leakyrelu_alpha": {"f": 0.2}, "epsilon": {"f": 0.0}, "T": {"type": "DT_FLOAT"}, "explicit_paddings": {"list": {}}, "dilations": {"list": {"i": ["1", "1", "1", "1"]}}}}, {"name": "model_662/tf.math.sigmoid_395/Sigmoid", "op": "Sigmoid", "input": ["model_662/tf.math.add_660/Add"], "attr": {"_input_shapes": {"list": {"shape": [{"dim": [{"size": "-17"}, {"size": "-18"}, {"size": "-19"}, {"size": "32"}]}]}}, "T": {"type": "DT_FLOAT"}}}, {"name": "model_662/tf.math.multiply_1820/Mul", "op": "Mul", "input": ["model_662/tf.math.add_660/Add", "model_662/tf.math.sigmoid_395/Sigmoid"], "attr": {"T": {"type": "DT_FLOAT"}}}, {"name": "model_662/tf.math.add_662/Add", "op": "AddV2", "input": ["model_662/tf.math.add_658/Add", "model_662/tf.math.multiply_1820/Mul"], "attr": {"T": {"type": "DT_FLOAT"}}}, {"name": "model_662/tf.concat_173/concat", "op": "ConcatV2", "input": ["model_662/tf.math.add_662/Add", "model_662/tf.math.multiply_1802/Mul", "model_662/tf.concat_173/concat/axis"], "attr": {"N": {"i": "2"}, "T": {"type": "DT_FLOAT"}, "Tidx": {"type": "DT_INT32"}}}, {"name": "model_662/tf.math.add_663/Add", "op": "_FusedConv2D", "input": ["model_662/tf.concat_173/concat", "model_662/tf.nn.convolution_1460/convolution/filter", "model_662/tf.math.add_663/Add/y"], "device": "/device:CPU:0", "attr": {"num_host_args": {"i": "0"}, "_input_shapes": {"list": {"shape": [{"dim": [{"size": "-17"}, {"size": "-18"}, {"size": "-19"}, {"size": "64"}]}, {"dim": [{"size": "1"}, {"size": "1"}, {"size": "64"}, {"size": "64"}]}]}}, "filter_format": {"s": "SFdJTw=="}, "data_format": {"s": "TkhXQw=="}, "strides": {"list": {"i": ["1", "1", "1", "1"]}}, "num_args": {"i": "1"}, "fused_ops": {"list": {"s": ["Qmlhc0FkZA=="]}}, "TArgs": {"list": {"type": ["DT_FLOAT"]}}, "padding": {"s": "U0FNRQ=="}, "use_cudnn_on_gpu": {"b": true}, "leakyrelu_alpha": {"f": 0.2}, "epsilon": {"f": 0.0}, "T": {"type": "DT_FLOAT"}, "explicit_paddings": {"list": {}}, "dilations": {"list": {"i": ["1", "1", "1", "1"]}}}}, {"name": "model_662/tf.math.sigmoid_396/Sigmoid", "op": "Sigmoid", "input": ["model_662/tf.math.add_663/Add"], "attr": {"_input_shapes": {"list": {"shape": [{"dim": [{"size": "-17"}, {"size": "-18"}, {"size": "-19"}, {"size": "64"}]}]}}, "T": {"type": "DT_FLOAT"}}}, {"name": "model_662/tf.math.multiply_1826/Mul", "op": "Mul", "input": ["model_662/tf.math.add_663/Add", "model_662/tf.math.sigmoid_396/Sigmoid"], "attr": {"T": {"type": "DT_FLOAT"}}}, {"name": "model_662/tf.concat_174/concat", "op": "ConcatV2", "input": ["model_662/tf.strided_slice_123/StridedSlice", "model_662/tf.strided_slice_124/StridedSlice", "model_662/tf.math.multiply_1826/Mul", "model_662/tf.concat_174/concat/axis"], "attr": {"N": {"i": "3"}, "Tidx": {"type": "DT_INT32"}, "T": {"type": "DT_FLOAT"}}}, {"name": "model_662/tf.math.add_664/Add", "op": "_FusedConv2D", "input": ["model_662/tf.concat_174/concat", "model_662/tf.nn.convolution_1461/convolution/filter", "model_662/tf.math.add_664/Add/y"], "device": "/device:CPU:0", "attr": {"num_host_args": {"i": "0"}, "_input_shapes": {"list": {"shape": [{"dim": [{"size": "-17"}, {"size": "-18"}, {"size": "-19"}, {"size": "192"}]}, {"dim": [{"size": "1"}, {"size": "1"}, {"size": "192"}, {"size": "128"}]}]}}, "filter_format": {"s": "SFdJTw=="}, "data_format": {"s": "TkhXQw=="}, "fused_ops": {"list": {"s": ["Qmlhc0FkZA=="]}}, "num_args": {"i": "1"}, "strides": {"list": {"i": ["1", "1", "1", "1"]}}, "TArgs": {"list": {"type": ["DT_FLOAT"]}}, "padding": {"s": "U0FNRQ=="}, "use_cudnn_on_gpu": {"b": true}, "leakyrelu_alpha": {"f": 0.2}, "epsilon": {"f": 0.0}, "T": {"type": "DT_FLOAT"}, "explicit_paddings": {"list": {}}, "dilations": {"list": {"i": ["1", "1", "1", "1"]}}}}, {"name": "model_662/tf.math.sigmoid_397/Sigmoid", "op": "Sigmoid", "input": ["model_662/tf.math.add_664/Add"], "attr": {"_input_shapes": {"list": {"shape": [{"dim": [{"size": "-17"}, {"size": "-18"}, {"size": "-19"}, {"size": "128"}]}]}}, "T": {"type": "DT_FLOAT"}}}, {"name": "model_662/tf.math.multiply_1830/Mul", "op": "Mul", "input": ["model_662/tf.math.add_664/Add", "model_662/tf.math.sigmoid_397/Sigmoid"], "attr": {"T": {"type": "DT_FLOAT"}}}, {"name": "model_662/tf.compat.v1.pad_32/Pad", "op": "Pad", "input": ["model_662/tf.math.multiply_1830/Mul", "model_662/tf.compat.v1.pad_32/Pad/paddings"], "attr": {"Tpaddings": {"type": "DT_INT32"}, "T": {"type": "DT_FLOAT"}}}, {"name": "model_662/tf.math.add_665/Add", "op": "_FusedConv2D", "input": ["model_662/tf.compat.v1.pad_32/Pad", "model_662/tf.nn.convolution_1462/convolution/filter", "model_662/tf.math.add_665/Add/y"], "device": "/device:CPU:0", "attr": {"num_host_args": {"i": "0"}, "_input_shapes": {"list": {"shape": [{"dim": [{"size": "-17"}, {"size": "-50"}, {"size": "-51"}, {"size": "128"}]}, {"dim": [{"size": "3"}, {"size": "3"}, {"size": "128"}, {"size": "256"}]}]}}, "filter_format": {"s": "SFdJTw=="}, "data_format": {"s": "TkhXQw=="}, "fused_ops": {"list": {"s": ["Qmlhc0FkZA=="]}}, "num_args": {"i": "1"}, "strides": {"list": {"i": ["1", "2", "2", "1"]}}, "TArgs": {"list": {"type": ["DT_FLOAT"]}}, "padding": {"s": "VkFMSUQ="}, "use_cudnn_on_gpu": {"b": true}, "leakyrelu_alpha": {"f": 0.2}, "epsilon": {"f": 0.0}, "T": {"type": "DT_FLOAT"}, "explicit_paddings": {"list": {}}, "dilations": {"list": {"i": ["1", "1", "1", "1"]}}}}, {"name": "model_662/tf.math.sigmoid_398/Sigmoid", "op": "Sigmoid", "input": ["model_662/tf.math.add_665/Add"], "attr": {"_input_shapes": {"list": {"shape": [{"dim": [{"size": "-17"}, {"size": "-52"}, {"size": "-53"}, {"size": "256"}]}]}}, "T": {"type": "DT_FLOAT"}}}, {"name": "model_662/tf.math.multiply_1834/Mul", "op": "Mul", "input": ["model_662/tf.math.add_665/Add", "model_662/tf.math.sigmoid_398/Sigmoid"], "attr": {"T": {"type": "DT_FLOAT"}}}, {"name": "model_662/tf.math.add_666/Add", "op": "_FusedConv2D", "input": ["model_662/tf.math.multiply_1834/Mul", "model_662/tf.nn.convolution_1463/convolution/filter", "model_662/tf.math.add_666/Add/y"], "device": "/device:CPU:0", "attr": {"num_host_args": {"i": "0"}, "data_format": {"s": "TkhXQw=="}, "filter_format": {"s": "SFdJTw=="}, "_input_shapes": {"list": {"shape": [{"dim": [{"size": "-17"}, {"size": "-52"}, {"size": "-53"}, {"size": "256"}]}, {"dim": [{"size": "1"}, {"size": "1"}, {"size": "256"}, {"size": "256"}]}]}}, "strides": {"list": {"i": ["1", "1", "1", "1"]}}, "num_args": {"i": "1"}, "fused_ops": {"list": {"s": ["Qmlhc0FkZA=="]}}, "TArgs": {"list": {"type": ["DT_FLOAT"]}}, "padding": {"s": "U0FNRQ=="}, "use_cudnn_on_gpu": {"b": true}, "leakyrelu_alpha": {"f": 0.2}, "epsilon": {"f": 0.0}, "T": {"type": "DT_FLOAT"}, "explicit_paddings": {"list": {}}, "dilations": {"list": {"i": ["1", "1", "1", "1"]}}}}, {"name": "model_662/tf.math.sigmoid_399/Sigmoid", "op": "Sigmoid", "input": ["model_662/tf.math.add_666/Add"], "attr": {"_input_shapes": {"list": {"shape": [{"dim": [{"size": "-17"}, {"size": "-52"}, {"size": "-53"}, {"size": "256"}]}]}}, "T": {"type": "DT_FLOAT"}}}, {"name": "model_662/tf.math.multiply_1838/Mul", "op": "Mul", "input": ["model_662/tf.math.add_666/Add", "model_662/tf.math.sigmoid_399/Sigmoid"], "attr": {"T": {"type": "DT_FLOAT"}}}, {"name": "model_662/tf.strided_slice_125/StridedSlice", "op": "StridedSlice", "input": ["model_662/tf.math.multiply_1838/Mul", "model_662/tf.strided_slice_125/ones_like/tensor", "model_662/tf.strided_slice_125/StridedSlice/end", "model_662/tf.strided_slice_125/ones_like"], "attr": {"shrink_axis_mask": {"i": "0"}, "Index": {"type": "DT_INT64"}, "new_axis_mask": {"i": "0"}, "begin_mask": {"i": "15"}, "end_mask": {"i": "7"}, "T": {"type": "DT_FLOAT"}, "ellipsis_mask": {"i": "0"}}}, {"name": "model_662/tf.strided_slice_126/StridedSlice", "op": "StridedSlice", "input": ["model_662/tf.math.multiply_1838/Mul", "model_662/tf.strided_slice_126/ones_like/tensor", "model_662/tf.strided_slice_126/StridedSlice/end", "model_662/tf.strided_slice_126/ones_like"], "attr": {"shrink_axis_mask": {"i": "0"}, "new_axis_mask": {"i": "0"}, "Index": {"type": "DT_INT64"}, "begin_mask": {"i": "7"}, "end_mask": {"i": "7"}, "T": {"type": "DT_FLOAT"}, "ellipsis_mask": {"i": "0"}}}, {"name": "model_662/tf.math.add_667/Add", "op": "_FusedConv2D", "input": ["model_662/tf.strided_slice_126/StridedSlice", "model_662/tf.nn.convolution_1464/convolution/filter", "model_662/tf.math.add_667/Add/y"], "device": "/device:CPU:0", "attr": {"num_host_args": {"i": "0"}, "_input_shapes": {"list": {"shape": [{"dim": [{"size": "-23"}, {"size": "-24"}, {"size": "-25"}, {"size": "128"}]}, {"dim": [{"size": "1"}, {"size": "1"}, {"size": "128"}, {"size": "64"}]}]}}, "filter_format": {"s": "SFdJTw=="}, "data_format": {"s": "TkhXQw=="}, "fused_ops": {"list": {"s": ["Qmlhc0FkZA=="]}}, "num_args": {"i": "1"}, "strides": {"list": {"i": ["1", "1", "1", "1"]}}, "TArgs": {"list": {"type": ["DT_FLOAT"]}}, "padding": {"s": "U0FNRQ=="}, "use_cudnn_on_gpu": {"b": true}, "leakyrelu_alpha": {"f": 0.2}, "epsilon": {"f": 0.0}, "T": {"type": "DT_FLOAT"}, "explicit_paddings": {"list": {}}, "dilations": {"list": {"i": ["1", "1", "1", "1"]}}}}, {"name": "model_662/tf.math.add_668/Add", "op": "_FusedConv2D", "input": ["model_662/tf.strided_slice_126/StridedSlice", "model_662/tf.nn.convolution_1465/convolution/filter", "model_662/tf.math.add_668/Add/y"], "device": "/device:CPU:0", "attr": {"num_host_args": {"i": "0"}, "_input_shapes": {"list": {"shape": [{"dim": [{"size": "-23"}, {"size": "-24"}, {"size": "-25"}, {"size": "128"}]}, {"dim": [{"size": "1"}, {"size": "1"}, {"size": "128"}, {"size": "64"}]}]}}, "filter_format": {"s": "SFdJTw=="}, "data_format": {"s": "TkhXQw=="}, "strides": {"list": {"i": ["1", "1", "1", "1"]}}, "num_args": {"i": "1"}, "fused_ops": {"list": {"s": ["Qmlhc0FkZA=="]}}, "TArgs": {"list": {"type": ["DT_FLOAT"]}}, "padding": {"s": "U0FNRQ=="}, "use_cudnn_on_gpu": {"b": true}, "leakyrelu_alpha": {"f": 0.2}, "epsilon": {"f": 0.0}, "T": {"type": "DT_FLOAT"}, "explicit_paddings": {"list": {}}, "dilations": {"list": {"i": ["1", "1", "1", "1"]}}}}, {"name": "model_662/tf.math.sigmoid_400/Sigmoid", "op": "Sigmoid", "input": ["model_662/tf.math.add_667/Add"], "attr": {"_input_shapes": {"list": {"shape": [{"dim": [{"size": "-23"}, {"size": "-24"}, {"size": "-25"}, {"size": "64"}]}]}}, "T": {"type": "DT_FLOAT"}}}, {"name": "model_662/tf.math.sigmoid_401/Sigmoid", "op": "Sigmoid", "input": ["model_662/tf.math.add_668/Add"], "attr": {"_input_shapes": {"list": {"shape": [{"dim": [{"size": "-23"}, {"size": "-24"}, {"size": "-25"}, {"size": "64"}]}]}}, "T": {"type": "DT_FLOAT"}}}, {"name": "model_662/tf.math.multiply_1842/Mul", "op": "Mul", "input": ["model_662/tf.math.add_667/Add", "model_662/tf.math.sigmoid_400/Sigmoid"], "attr": {"T": {"type": "DT_FLOAT"}}}, {"name": "model_662/tf.math.multiply_1846/Mul", "op": "Mul", "input": ["model_662/tf.math.add_668/Add", "model_662/tf.math.sigmoid_401/Sigmoid"], "attr": {"T": {"type": "DT_FLOAT"}}}, {"name": "model_662/tf.math.add_669/Add", "op": "_FusedConv2D", "input": ["model_662/tf.math.multiply_1842/Mul", "model_662/tf.nn.convolution_1466/convolution/filter", "model_662/tf.math.add_669/Add/y"], "device": "/device:CPU:0", "attr": {"num_host_args": {"i": "0"}, "data_format": {"s": "TkhXQw=="}, "filter_format": {"s": "SFdJTw=="}, "_input_shapes": {"list": {"shape": [{"dim": [{"size": "-23"}, {"size": "-24"}, {"size": "-25"}, {"size": "64"}]}, {"dim": [{"size": "3"}, {"size": "3"}, {"size": "64"}, {"size": "64"}]}]}}, "fused_ops": {"list": {"s": ["Qmlhc0FkZA=="]}}, "num_args": {"i": "1"}, "strides": {"list": {"i": ["1", "1", "1", "1"]}}, "TArgs": {"list": {"type": ["DT_FLOAT"]}}, "padding": {"s": "U0FNRQ=="}, "use_cudnn_on_gpu": {"b": true}, "leakyrelu_alpha": {"f": 0.2}, "epsilon": {"f": 0.0}, "T": {"type": "DT_FLOAT"}, "explicit_paddings": {"list": {}}, "dilations": {"list": {"i": ["1", "1", "1", "1"]}}}}, {"name": "model_662/tf.math.sigmoid_402/Sigmoid", "op": "Sigmoid", "input": ["model_662/tf.math.add_669/Add"], "attr": {"_input_shapes": {"list": {"shape": [{"dim": [{"size": "-23"}, {"size": "-24"}, {"size": "-25"}, {"size": "64"}]}]}}, "T": {"type": "DT_FLOAT"}}}, {"name": "model_662/tf.math.multiply_1850/Mul", "op": "Mul", "input": ["model_662/tf.math.add_669/Add", "model_662/tf.math.sigmoid_402/Sigmoid"], "attr": {"T": {"type": "DT_FLOAT"}}}, {"name": "model_662/tf.math.add_670/Add", "op": "_FusedConv2D", "input": ["model_662/tf.math.multiply_1850/Mul", "model_662/tf.nn.convolution_1467/convolution/filter", "model_662/tf.math.add_670/Add/y"], "device": "/device:CPU:0", "attr": {"num_host_args": {"i": "0"}, "_input_shapes": {"list": {"shape": [{"dim": [{"size": "-23"}, {"size": "-24"}, {"size": "-25"}, {"size": "64"}]}, {"dim": [{"size": "3"}, {"size": "3"}, {"size": "64"}, {"size": "64"}]}]}}, "filter_format": {"s": "SFdJTw=="}, "data_format": {"s": "TkhXQw=="}, "strides": {"list": {"i": ["1", "1", "1", "1"]}}, "num_args": {"i": "1"}, "fused_ops": {"list": {"s": ["Qmlhc0FkZA=="]}}, "TArgs": {"list": {"type": ["DT_FLOAT"]}}, "padding": {"s": "U0FNRQ=="}, "use_cudnn_on_gpu": {"b": true}, "leakyrelu_alpha": {"f": 0.2}, "epsilon": {"f": 0.0}, "T": {"type": "DT_FLOAT"}, "explicit_paddings": {"list": {}}, "dilations": {"list": {"i": ["1", "1", "1", "1"]}}}}, {"name": "model_662/tf.math.sigmoid_403/Sigmoid", "op": "Sigmoid", "input": ["model_662/tf.math.add_670/Add"], "attr": {"_input_shapes": {"list": {"shape": [{"dim": [{"size": "-23"}, {"size": "-24"}, {"size": "-25"}, {"size": "64"}]}]}}, "T": {"type": "DT_FLOAT"}}}, {"name": "model_662/tf.math.multiply_1854/Mul", "op": "Mul", "input": ["model_662/tf.math.add_670/Add", "model_662/tf.math.sigmoid_403/Sigmoid"], "attr": {"T": {"type": "DT_FLOAT"}}}, {"name": "model_662/tf.math.add_672/Add", "op": "AddV2", "input": ["model_662/tf.math.multiply_1842/Mul", "model_662/tf.math.multiply_1854/Mul"], "attr": {"T": {"type": "DT_FLOAT"}}}, {"name": "model_662/tf.math.add_673/Add", "op": "_FusedConv2D", "input": ["model_662/tf.math.add_672/Add", "model_662/tf.nn.convolution_1468/convolution/filter", "model_662/tf.math.add_673/Add/y"], "device": "/device:CPU:0", "attr": {"num_host_args": {"i": "0"}, "_input_shapes": {"list": {"shape": [{"dim": [{"size": "-23"}, {"size": "-24"}, {"size": "-25"}, {"size": "64"}]}, {"dim": [{"size": "3"}, {"size": "3"}, {"size": "64"}, {"size": "64"}]}]}}, "filter_format": {"s": "SFdJTw=="}, "data_format": {"s": "TkhXQw=="}, "fused_ops": {"list": {"s": ["Qmlhc0FkZA=="]}}, "num_args": {"i": "1"}, "strides": {"list": {"i": ["1", "1", "1", "1"]}}, "TArgs": {"list": {"type": ["DT_FLOAT"]}}, "padding": {"s": "U0FNRQ=="}, "use_cudnn_on_gpu": {"b": true}, "leakyrelu_alpha": {"f": 0.2}, "epsilon": {"f": 0.0}, "T": {"type": "DT_FLOAT"}, "explicit_paddings": {"list": {}}, "dilations": {"list": {"i": ["1", "1", "1", "1"]}}}}, {"name": "model_662/tf.math.sigmoid_404/Sigmoid", "op": "Sigmoid", "input": ["model_662/tf.math.add_673/Add"], "attr": {"_input_shapes": {"list": {"shape": [{"dim": [{"size": "-23"}, {"size": "-24"}, {"size": "-25"}, {"size": "64"}]}]}}, "T": {"type": "DT_FLOAT"}}}, {"name": "model_662/tf.math.multiply_1860/Mul", "op": "Mul", "input": ["model_662/tf.math.add_673/Add", "model_662/tf.math.sigmoid_404/Sigmoid"], "attr": {"T": {"type": "DT_FLOAT"}}}, {"name": "model_662/tf.math.add_674/Add", "op": "_FusedConv2D", "input": ["model_662/tf.math.multiply_1860/Mul", "model_662/tf.nn.convolution_1469/convolution/filter", "model_662/tf.math.add_674/Add/y"], "device": "/device:CPU:0", "attr": {"num_host_args": {"i": "0"}, "_input_shapes": {"list": {"shape": [{"dim": [{"size": "-23"}, {"size": "-24"}, {"size": "-25"}, {"size": "64"}]}, {"dim": [{"size": "3"}, {"size": "3"}, {"size": "64"}, {"size": "64"}]}]}}, "filter_format": {"s": "SFdJTw=="}, "data_format": {"s": "TkhXQw=="}, "fused_ops": {"list": {"s": ["Qmlhc0FkZA=="]}}, "num_args": {"i": "1"}, "strides": {"list": {"i": ["1", "1", "1", "1"]}}, "TArgs": {"list": {"type": ["DT_FLOAT"]}}, "padding": {"s": "U0FNRQ=="}, "use_cudnn_on_gpu": {"b": true}, "leakyrelu_alpha": {"f": 0.2}, "epsilon": {"f": 0.0}, "T": {"type": "DT_FLOAT"}, "explicit_paddings": {"list": {}}, "dilations": {"list": {"i": ["1", "1", "1", "1"]}}}}, {"name": "model_662/tf.math.sigmoid_405/Sigmoid", "op": "Sigmoid", "input": ["model_662/tf.math.add_674/Add"], "attr": {"_input_shapes": {"list": {"shape": [{"dim": [{"size": "-23"}, {"size": "-24"}, {"size": "-25"}, {"size": "64"}]}]}}, "T": {"type": "DT_FLOAT"}}}, {"name": "model_662/tf.math.multiply_1864/Mul", "op": "Mul", "input": ["model_662/tf.math.add_674/Add", "model_662/tf.math.sigmoid_405/Sigmoid"], "attr": {"T": {"type": "DT_FLOAT"}}}, {"name": "model_662/tf.math.add_676/Add", "op": "AddV2", "input": ["model_662/tf.math.add_672/Add", "model_662/tf.math.multiply_1864/Mul"], "attr": {"T": {"type": "DT_FLOAT"}}}, {"name": "model_662/tf.concat_175/concat", "op": "ConcatV2", "input": ["model_662/tf.math.add_676/Add", "model_662/tf.math.multiply_1846/Mul", "model_662/tf.concat_175/concat/axis"], "attr": {"N": {"i": "2"}, "T": {"type": "DT_FLOAT"}, "Tidx": {"type": "DT_INT32"}}}, {"name": "model_662/tf.math.add_677/Add", "op": "_FusedConv2D", "input": ["model_662/tf.concat_175/concat", "model_662/tf.nn.convolution_1470/convolution/filter", "model_662/tf.math.add_677/Add/y"], "device": "/device:CPU:0", "attr": {"num_host_args": {"i": "0"}, "data_format": {"s": "TkhXQw=="}, "filter_format": {"s": "SFdJTw=="}, "_input_shapes": {"list": {"shape": [{"dim": [{"size": "-23"}, {"size": "-24"}, {"size": "-25"}, {"size": "128"}]}, {"dim": [{"size": "1"}, {"size": "1"}, {"size": "128"}, {"size": "128"}]}]}}, "strides": {"list": {"i": ["1", "1", "1", "1"]}}, "num_args": {"i": "1"}, "fused_ops": {"list": {"s": ["Qmlhc0FkZA=="]}}, "TArgs": {"list": {"type": ["DT_FLOAT"]}}, "padding": {"s": "U0FNRQ=="}, "use_cudnn_on_gpu": {"b": true}, "leakyrelu_alpha": {"f": 0.2}, "epsilon": {"f": 0.0}, "T": {"type": "DT_FLOAT"}, "explicit_paddings": {"list": {}}, "dilations": {"list": {"i": ["1", "1", "1", "1"]}}}}, {"name": "model_662/tf.math.sigmoid_406/Sigmoid", "op": "Sigmoid", "input": ["model_662/tf.math.add_677/Add"], "attr": {"_input_shapes": {"list": {"shape": [{"dim": [{"size": "-23"}, {"size": "-24"}, {"size": "-25"}, {"size": "128"}]}]}}, "T": {"type": "DT_FLOAT"}}}, {"name": "model_662/tf.math.multiply_1870/Mul", "op": "Mul", "input": ["model_662/tf.math.add_677/Add", "model_662/tf.math.sigmoid_406/Sigmoid"], "attr": {"T": {"type": "DT_FLOAT"}}}, {"name": "model_662/tf.concat_176/concat", "op": "ConcatV2", "input": ["model_662/tf.strided_slice_125/StridedSlice", "model_662/tf.strided_slice_126/StridedSlice", "model_662/tf.math.multiply_1870/Mul", "model_662/tf.concat_176/concat/axis"], "attr": {"N": {"i": "3"}, "T": {"type": "DT_FLOAT"}, "Tidx": {"type": "DT_INT32"}}}, {"name": "model_662/tf.math.add_678/Add", "op": "_FusedConv2D", "input": ["model_662/tf.concat_176/concat", "model_662/tf.nn.convolution_1471/convolution/filter", "model_662/tf.math.add_678/Add/y"], "device": "/device:CPU:0", "attr": {"num_host_args": {"i": "0"}, "_input_shapes": {"list": {"shape": [{"dim": [{"size": "-23"}, {"size": "-24"}, {"size": "-25"}, {"size": "384"}]}, {"dim": [{"size": "1"}, {"size": "1"}, {"size": "384"}, {"size": "256"}]}]}}, "filter_format": {"s": "SFdJTw=="}, "data_format": {"s": "TkhXQw=="}, "strides": {"list": {"i": ["1", "1", "1", "1"]}}, "num_args": {"i": "1"}, "fused_ops": {"list": {"s": ["Qmlhc0FkZA=="]}}, "TArgs": {"list": {"type": ["DT_FLOAT"]}}, "padding": {"s": "U0FNRQ=="}, "use_cudnn_on_gpu": {"b": true}, "leakyrelu_alpha": {"f": 0.2}, "epsilon": {"f": 0.0}, "T": {"type": "DT_FLOAT"}, "explicit_paddings": {"list": {}}, "dilations": {"list": {"i": ["1", "1", "1", "1"]}}}}, {"name": "model_662/tf.math.sigmoid_407/Sigmoid", "op": "Sigmoid", "input": ["model_662/tf.math.add_678/Add"], "attr": {"_input_shapes": {"list": {"shape": [{"dim": [{"size": "-23"}, {"size": "-24"}, {"size": "-25"}, {"size": "256"}]}]}}, "T": {"type": "DT_FLOAT"}}}, {"name": "model_662/tf.math.multiply_1874/Mul", "op": "Mul", "input": ["model_662/tf.math.add_678/Add", "model_662/tf.math.sigmoid_407/Sigmoid"], "attr": {"T": {"type": "DT_FLOAT"}}}, {"name": "model_662/tf.math.add_679/Add", "op": "_FusedConv2D", "input": ["model_662/tf.math.multiply_1874/Mul", "model_662/tf.nn.convolution_1472/convolution/filter", "model_662/tf.math.add_679/Add/y"], "device": "/device:CPU:0", "attr": {"num_host_args": {"i": "0"}, "_input_shapes": {"list": {"shape": [{"dim": [{"size": "-23"}, {"size": "-24"}, {"size": "-25"}, {"size": "256"}]}, {"dim": [{"size": "1"}, {"size": "1"}, {"size": "256"}, {"size": "256"}]}]}}, "filter_format": {"s": "SFdJTw=="}, "data_format": {"s": "TkhXQw=="}, "fused_ops": {"list": {"s": ["Qmlhc0FkZA=="]}}, "num_args": {"i": "1"}, "strides": {"list": {"i": ["1", "1", "1", "1"]}}, "TArgs": {"list": {"type": ["DT_FLOAT"]}}, "padding": {"s": "U0FNRQ=="}, "use_cudnn_on_gpu": {"b": true}, "leakyrelu_alpha": {"f": 0.2}, "epsilon": {"f": 0.0}, "T": {"type": "DT_FLOAT"}, "explicit_paddings": {"list": {}}, "dilations": {"list": {"i": ["1", "1", "1", "1"]}}}}, {"name": "model_662/tf.math.sigmoid_408/Sigmoid", "op": "Sigmoid", "input": ["model_662/tf.math.add_679/Add"], "attr": {"_input_shapes": {"list": {"shape": [{"dim": [{"size": "-23"}, {"size": "-24"}, {"size": "-25"}, {"size": "256"}]}]}}, "T": {"type": "DT_FLOAT"}}}, {"name": "model_662/tf.math.multiply_1878/Mul", "op": "Mul", "input": ["model_662/tf.math.add_679/Add", "model_662/tf.math.sigmoid_408/Sigmoid"], "attr": {"T": {"type": "DT_FLOAT"}}}, {"name": "model_662/tf.strided_slice_127/StridedSlice", "op": "StridedSlice", "input": ["model_662/tf.math.multiply_1878/Mul", "model_662/tf.strided_slice_127/StridedSlice/begin", "model_662/tf.strided_slice_127/StridedSlice/end", "model_662/tf.strided_slice_127/ones_like"], "attr": {"shrink_axis_mask": {"i": "0"}, "Index": {"type": "DT_INT32"}, "new_axis_mask": {"i": "0"}, "begin_mask": {"i": "7"}, "T": {"type": "DT_FLOAT"}, "end_mask": {"i": "7"}, "ellipsis_mask": {"i": "0"}}}, {"name": "model_662/tf.strided_slice_128/StridedSlice", "op": "StridedSlice", "input": ["model_662/tf.math.multiply_1878/Mul", "model_662/tf.strided_slice_128/StridedSlice/begin", "model_662/tf.strided_slice_128/StridedSlice/end", "model_662/tf.strided_slice_128/ones_like"], "attr": {"shrink_axis_mask": {"i": "0"}, "new_axis_mask": {"i": "0"}, "Index": {"type": "DT_INT32"}, "begin_mask": {"i": "7"}, "T": {"type": "DT_FLOAT"}, "end_mask": {"i": "7"}, "ellipsis_mask": {"i": "0"}}}, {"name": "model_662/tf.math.add_680/Add", "op": "_FusedConv2D", "input": ["model_662/tf.strided_slice_128/StridedSlice", "model_662/tf.nn.convolution_1473/convolution/filter", "model_662/tf.math.add_680/Add/y"], "device": "/device:CPU:0", "attr": {"num_host_args": {"i": "0"}, "data_format": {"s": "TkhXQw=="}, "filter_format": {"s": "SFdJTw=="}, "_input_shapes": {"list": {"shape": [{"dim": [{"size": "1"}, {"size": "-54"}, {"size": "-55"}, {"size": "128"}]}, {"dim": [{"size": "1"}, {"size": "1"}, {"size": "128"}, {"size": "256"}]}]}}, "fused_ops": {"list": {"s": ["Qmlhc0FkZA=="]}}, "num_args": {"i": "1"}, "strides": {"list": {"i": ["1", "1", "1", "1"]}}, "TArgs": {"list": {"type": ["DT_FLOAT"]}}, "padding": {"s": "U0FNRQ=="}, "use_cudnn_on_gpu": {"b": true}, "leakyrelu_alpha": {"f": 0.2}, "epsilon": {"f": 0.0}, "T": {"type": "DT_FLOAT"}, "explicit_paddings": {"list": {}}, "dilations": {"list": {"i": ["1", "1", "1", "1"]}}}}, {"name": "model_662/tf.compat.v1.transpose_1337/transpose", "op": "Transpose", "input": ["model_662/tf.math.add_680/Add", "model_662/tf.compat.v1.transpose_1337/transpose/perm"], "attr": {"Tperm": {"type": "DT_INT32"}, "_input_shapes": {"list": {"shape": [{"dim": [{"size": "1"}, {"size": "-54"}, {"size": "-55"}, {"size": "256"}]}, {"dim": [{"size": "4"}]}]}}, "T": {"type": "DT_FLOAT"}}}, {"name": "model_662/tf.reshape_386/Reshape", "op": "Reshape", "input": ["model_662/tf.compat.v1.transpose_1337/transpose", "model_662/tf.reshape_386/Reshape/shape"], "attr": {"T": {"type": "DT_FLOAT"}, "Tshape": {"type": "DT_INT32"}}}, {"name": "model_662/tf.strided_slice_129/StridedSlice", "op": "StridedSlice", "input": ["model_662/tf.reshape_386/Reshape", "model_662/tf.strided_slice_129/StridedSlice/begin", "model_662/tf.strided_slice_129/StridedSlice/end", "model_662/tf.strided_slice_129/ones_like"], "attr": {"shrink_axis_mask": {"i": "0"}, "new_axis_mask": {"i": "0"}, "Index": {"type": "DT_INT32"}, "begin_mask": {"i": "11"}, "T": {"type": "DT_FLOAT"}, "end_mask": {"i": "11"}, "ellipsis_mask": {"i": "0"}}}, {"name": "model_662/tf.strided_slice_130/StridedSlice", "op": "StridedSlice", "input": ["model_662/tf.reshape_386/Reshape", "model_662/tf.strided_slice_130/StridedSlice/begin", "model_662/tf.strided_slice_130/StridedSlice/end", "model_662/tf.strided_slice_130/ones_like"], "attr": {"shrink_axis_mask": {"i": "0"}, "Index": {"type": "DT_INT32"}, "new_axis_mask": {"i": "0"}, "begin_mask": {"i": "11"}, "end_mask": {"i": "11"}, "T": {"type": "DT_FLOAT"}, "ellipsis_mask": {"i": "0"}}}, {"name": "model_662/tf.strided_slice_131/StridedSlice", "op": "StridedSlice", "input": ["model_662/tf.reshape_386/Reshape", "model_662/tf.strided_slice_131/StridedSlice/begin", "model_662/tf.strided_slice_131/StridedSlice/end", "model_662/tf.strided_slice_131/ones_like"], "attr": {"shrink_axis_mask": {"i": "0"}, "new_axis_mask": {"i": "0"}, "Index": {"type": "DT_INT32"}, "begin_mask": {"i": "11"}, "end_mask": {"i": "11"}, "T": {"type": "DT_FLOAT"}, "ellipsis_mask": {"i": "0"}}}, {"name": "model_662/tf.linalg.matmul_33/ArithmeticOptimizer/FoldTransposeIntoMatMul_MatMul", "op": "BatchMatMulV2", "input": ["model_662/tf.strided_slice_129/StridedSlice", "model_662/tf.strided_slice_130/StridedSlice"], "attr": {"adj_x": {"b": true}, "T": {"type": "DT_FLOAT"}, "adj_y": {"b": false}}}, {"name": "model_662/tf.reshape_389/Reshape", "op": "Reshape", "input": ["model_662/tf.strided_slice_131/StridedSlice", "model_662/tf.reshape_389/Reshape/shape"], "attr": {"T": {"type": "DT_FLOAT"}, "Tshape": {"type": "DT_INT32"}}}, {"name": "model_662/tf.math.multiply_1881/Mul", "op": "Mul", "input": ["model_662/tf.linalg.matmul_33/ArithmeticOptimizer/FoldTransposeIntoMatMul_MatMul", "model_662/tf.math.multiply_1881/Mul/y"], "attr": {"T": {"type": "DT_FLOAT"}}}, {"name": "model_662/tf.compat.v1.transpose_1345/transpose", "op": "Transpose", "input": ["model_662/tf.reshape_389/Reshape", "model_662/tf.compat.v1.transpose_1345/transpose/perm"], "attr": {"Tperm": {"type": "DT_INT32"}, "_input_shapes": {"list": {"shape": [{"dim": [{"size": "1"}, {"size": "128"}, {"size": "7"}, {"size": "7"}]}, {"dim": [{"size": "4"}]}]}}, "T": {"type": "DT_FLOAT"}}}, {"name": "model_662/tf.nn.softmax_17/wa/model.9/m/m.0/attn/Softmax", "op": "Softmax", "input": ["model_662/tf.math.multiply_1881/Mul"], "attr": {"T": {"type": "DT_FLOAT"}}}, {"name": "model_662/tf.split_8/split", "op": "Split", "input": ["model_662/tf.split_8/split/split_dim", "model_662/tf.compat.v1.transpose_1345/transpose"], "attr": {"num_split": {"i": "128"}, "T": {"type": "DT_FLOAT"}}}, {"name": "model_662/tf.linalg.matmul_35/ArithmeticOptimizer/FoldTransposeIntoMatMul_MatMul", "op": "BatchMatMulV2", "input": ["model_662/tf.strided_slice_131/StridedSlice", "model_662/tf.nn.softmax_17/wa/model.9/m/m.0/attn/Softmax"], "attr": {"adj_x": {"b": false}, "T": {"type": "DT_FLOAT"}, "adj_y": {"b": true}}}, {"name": "model_662/tf.nn.convolution_1474/convolution", "op": "Conv2D", "input": ["model_662/tf.split_8/split", "model_662/tf.nn.convolution_1474/convolution/filter"], "device": "/device:CPU:0", "attr": {"padding": {"s": "U0FNRQ=="}, "data_format": {"s": "TkhXQw=="}, "_input_shapes": {"list": {"shape": [{"dim": [{"size": "1"}, {"size": "7"}, {"size": "7"}, {"size": "1"}]}, {"dim": [{"size": "3"}, {"size": "3"}, {"size": "1"}, {"size": "1"}]}]}}, "use_cudnn_on_gpu": {"b": true}, "strides": {"list": {"i": ["1", "1", "1", "1"]}}, "T": {"type": "DT_FLOAT"}, "explicit_paddings": {"list": {}}, "dilations": {"list": {"i": ["1", "1", "1", "1"]}}}}, {"name": "model_662/tf.nn.convolution_1475/convolution", "op": "Conv2D", "input": ["model_662/tf.split_8/split:1", "model_662/tf.nn.convolution_1475/convolution/filter"], "device": "/device:CPU:0", "attr": {"padding": {"s": "U0FNRQ=="}, "data_format": {"s": "TkhXQw=="}, "_input_shapes": {"list": {"shape": [{"dim": [{"size": "1"}, {"size": "7"}, {"size": "7"}, {"size": "1"}]}, {"dim": [{"size": "3"}, {"size": "3"}, {"size": "1"}, {"size": "1"}]}]}}, "use_cudnn_on_gpu": {"b": true}, "strides": {"list": {"i": ["1", "1", "1", "1"]}}, "T": {"type": "DT_FLOAT"}, "explicit_paddings": {"list": {}}, "dilations": {"list": {"i": ["1", "1", "1", "1"]}}}}, {"name": "model_662/tf.nn.convolution_1476/convolution", "op": "Conv2D", "input": ["model_662/tf.split_8/split:2", "model_662/tf.nn.convolution_1476/convolution/filter"], "device": "/device:CPU:0", "attr": {"padding": {"s": "U0FNRQ=="}, "_input_shapes": {"list": {"shape": [{"dim": [{"size": "1"}, {"size": "7"}, {"size": "7"}, {"size": "1"}]}, {"dim": [{"size": "3"}, {"size": "3"}, {"size": "1"}, {"size": "1"}]}]}}, "data_format": {"s": "TkhXQw=="}, "strides": {"list": {"i": ["1", "1", "1", "1"]}}, "use_cudnn_on_gpu": {"b": true}, "T": {"type": "DT_FLOAT"}, "explicit_paddings": {"list": {}}, "dilations": {"list": {"i": ["1", "1", "1", "1"]}}}}, {"name": "model_662/tf.nn.convolution_1477/convolution", "op": "Conv2D", "input": ["model_662/tf.split_8/split:3", "model_662/tf.nn.convolution_1477/convolution/filter"], "device": "/device:CPU:0", "attr": {"padding": {"s": "U0FNRQ=="}, "_input_shapes": {"list": {"shape": [{"dim": [{"size": "1"}, {"size": "7"}, {"size": "7"}, {"size": "1"}]}, {"dim": [{"size": "3"}, {"size": "3"}, {"size": "1"}, {"size": "1"}]}]}}, "data_format": {"s": "TkhXQw=="}, "use_cudnn_on_gpu": {"b": true}, "strides": {"list": {"i": ["1", "1", "1", "1"]}}, "T": {"type": "DT_FLOAT"}, "explicit_paddings": {"list": {}}, "dilations": {"list": {"i": ["1", "1", "1", "1"]}}}}, {"name": "model_662/tf.nn.convolution_1478/convolution", "op": "Conv2D", "input": ["model_662/tf.split_8/split:4", "model_662/tf.nn.convolution_1478/convolution/filter"], "device": "/device:CPU:0", "attr": {"padding": {"s": "U0FNRQ=="}, "data_format": {"s": "TkhXQw=="}, "_input_shapes": {"list": {"shape": [{"dim": [{"size": "1"}, {"size": "7"}, {"size": "7"}, {"size": "1"}]}, {"dim": [{"size": "3"}, {"size": "3"}, {"size": "1"}, {"size": "1"}]}]}}, "use_cudnn_on_gpu": {"b": true}, "strides": {"list": {"i": ["1", "1", "1", "1"]}}, "T": {"type": "DT_FLOAT"}, "explicit_paddings": {"list": {}}, "dilations": {"list": {"i": ["1", "1", "1", "1"]}}}}, {"name": "model_662/tf.nn.convolution_1479/convolution", "op": "Conv2D", "input": ["model_662/tf.split_8/split:5", "model_662/tf.nn.convolution_1479/convolution/filter"], "device": "/device:CPU:0", "attr": {"padding": {"s": "U0FNRQ=="}, "data_format": {"s": "TkhXQw=="}, "_input_shapes": {"list": {"shape": [{"dim": [{"size": "1"}, {"size": "7"}, {"size": "7"}, {"size": "1"}]}, {"dim": [{"size": "3"}, {"size": "3"}, {"size": "1"}, {"size": "1"}]}]}}, "use_cudnn_on_gpu": {"b": true}, "strides": {"list": {"i": ["1", "1", "1", "1"]}}, "T": {"type": "DT_FLOAT"}, "explicit_paddings": {"list": {}}, "dilations": {"list": {"i": ["1", "1", "1", "1"]}}}}, {"name": "model_662/tf.nn.convolution_1480/convolution", "op": "Conv2D", "input": ["model_662/tf.split_8/split:6", "model_662/tf.nn.convolution_1480/convolution/filter"], "device": "/device:CPU:0", "attr": {"padding": {"s": "U0FNRQ=="}, "_input_shapes": {"list": {"shape": [{"dim": [{"size": "1"}, {"size": "7"}, {"size": "7"}, {"size": "1"}]}, {"dim": [{"size": "3"}, {"size": "3"}, {"size": "1"}, {"size": "1"}]}]}}, "data_format": {"s": "TkhXQw=="}, "use_cudnn_on_gpu": {"b": true}, "strides": {"list": {"i": ["1", "1", "1", "1"]}}, "T": {"type": "DT_FLOAT"}, "explicit_paddings": {"list": {}}, "dilations": {"list": {"i": ["1", "1", "1", "1"]}}}}, {"name": "model_662/tf.nn.convolution_1481/convolution", "op": "Conv2D", "input": ["model_662/tf.split_8/split:7", "model_662/tf.nn.convolution_1481/convolution/filter"], "device": "/device:CPU:0", "attr": {"padding": {"s": "U0FNRQ=="}, "_input_shapes": {"list": {"shape": [{"dim": [{"size": "1"}, {"size": "7"}, {"size": "7"}, {"size": "1"}]}, {"dim": [{"size": "3"}, {"size": "3"}, {"size": "1"}, {"size": "1"}]}]}}, "data_format": {"s": "TkhXQw=="}, "strides": {"list": {"i": ["1", "1", "1", "1"]}}, "use_cudnn_on_gpu": {"b": true}, "T": {"type": "DT_FLOAT"}, "explicit_paddings": {"list": {}}, "dilations": {"list": {"i": ["1", "1", "1", "1"]}}}}, {"name": "model_662/tf.nn.convolution_1482/convolution", "op": "Conv2D", "input": ["model_662/tf.split_8/split:8", "model_662/tf.nn.convolution_1482/convolution/filter"], "device": "/device:CPU:0", "attr": {"padding": {"s": "U0FNRQ=="}, "data_format": {"s": "TkhXQw=="}, "_input_shapes": {"list": {"shape": [{"dim": [{"size": "1"}, {"size": "7"}, {"size": "7"}, {"size": "1"}]}, {"dim": [{"size": "3"}, {"size": "3"}, {"size": "1"}, {"size": "1"}]}]}}, "use_cudnn_on_gpu": {"b": true}, "strides": {"list": {"i": ["1", "1", "1", "1"]}}, "T": {"type": "DT_FLOAT"}, "explicit_paddings": {"list": {}}, "dilations": {"list": {"i": ["1", "1", "1", "1"]}}}}, {"name": "model_662/tf.nn.convolution_1483/convolution", "op": "Conv2D", "input": ["model_662/tf.split_8/split:9", "model_662/tf.nn.convolution_1483/convolution/filter"], "device": "/device:CPU:0", "attr": {"padding": {"s": "U0FNRQ=="}, "_input_shapes": {"list": {"shape": [{"dim": [{"size": "1"}, {"size": "7"}, {"size": "7"}, {"size": "1"}]}, {"dim": [{"size": "3"}, {"size": "3"}, {"size": "1"}, {"size": "1"}]}]}}, "data_format": {"s": "TkhXQw=="}, "use_cudnn_on_gpu": {"b": true}, "strides": {"list": {"i": ["1", "1", "1", "1"]}}, "T": {"type": "DT_FLOAT"}, "explicit_paddings": {"list": {}}, "dilations": {"list": {"i": ["1", "1", "1", "1"]}}}}, {"name": "model_662/tf.nn.convolution_1484/convolution", "op": "Conv2D", "input": ["model_662/tf.split_8/split:10", "model_662/tf.nn.convolution_1484/convolution/filter"], "device": "/device:CPU:0", "attr": {"padding": {"s": "U0FNRQ=="}, "_input_shapes": {"list": {"shape": [{"dim": [{"size": "1"}, {"size": "7"}, {"size": "7"}, {"size": "1"}]}, {"dim": [{"size": "3"}, {"size": "3"}, {"size": "1"}, {"size": "1"}]}]}}, "data_format": {"s": "TkhXQw=="}, "strides": {"list": {"i": ["1", "1", "1", "1"]}}, "use_cudnn_on_gpu": {"b": true}, "T": {"type": "DT_FLOAT"}, "explicit_paddings": {"list": {}}, "dilations": {"list": {"i": ["1", "1", "1", "1"]}}}}, {"name": "model_662/tf.nn.convolution_1485/convolution", "op": "Conv2D", "input": ["model_662/tf.split_8/split:11", "model_662/tf.nn.convolution_1485/convolution/filter"], "device": "/device:CPU:0", "attr": {"padding": {"s": "U0FNRQ=="}, "data_format": {"s": "TkhXQw=="}, "_input_shapes": {"list": {"shape": [{"dim": [{"size": "1"}, {"size": "7"}, {"size": "7"}, {"size": "1"}]}, {"dim": [{"size": "3"}, {"size": "3"}, {"size": "1"}, {"size": "1"}]}]}}, "strides": {"list": {"i": ["1", "1", "1", "1"]}}, "use_cudnn_on_gpu": {"b": true}, "T": {"type": "DT_FLOAT"}, "explicit_paddings": {"list": {}}, "dilations": {"list": {"i": ["1", "1", "1", "1"]}}}}, {"name": "model_662/tf.nn.convolution_1486/convolution", "op": "Conv2D", "input": ["model_662/tf.split_8/split:12", "model_662/tf.nn.convolution_1486/convolution/filter"], "device": "/device:CPU:0", "attr": {"padding": {"s": "U0FNRQ=="}, "_input_shapes": {"list": {"shape": [{"dim": [{"size": "1"}, {"size": "7"}, {"size": "7"}, {"size": "1"}]}, {"dim": [{"size": "3"}, {"size": "3"}, {"size": "1"}, {"size": "1"}]}]}}, "data_format": {"s": "TkhXQw=="}, "strides": {"list": {"i": ["1", "1", "1", "1"]}}, "use_cudnn_on_gpu": {"b": true}, "T": {"type": "DT_FLOAT"}, "explicit_paddings": {"list": {}}, "dilations": {"list": {"i": ["1", "1", "1", "1"]}}}}, {"name": "model_662/tf.nn.convolution_1487/convolution", "op": "Conv2D", "input": ["model_662/tf.split_8/split:13", "model_662/tf.nn.convolution_1487/convolution/filter"], "device": "/device:CPU:0", "attr": {"padding": {"s": "U0FNRQ=="}, "_input_shapes": {"list": {"shape": [{"dim": [{"size": "1"}, {"size": "7"}, {"size": "7"}, {"size": "1"}]}, {"dim": [{"size": "3"}, {"size": "3"}, {"size": "1"}, {"size": "1"}]}]}}, "data_format": {"s": "TkhXQw=="}, "strides": {"list": {"i": ["1", "1", "1", "1"]}}, "use_cudnn_on_gpu": {"b": true}, "T": {"type": "DT_FLOAT"}, "explicit_paddings": {"list": {}}, "dilations": {"list": {"i": ["1", "1", "1", "1"]}}}}, {"name": "model_662/tf.nn.convolution_1488/convolution", "op": "Conv2D", "input": ["model_662/tf.split_8/split:14", "model_662/tf.nn.convolution_1488/convolution/filter"], "device": "/device:CPU:0", "attr": {"padding": {"s": "U0FNRQ=="}, "data_format": {"s": "TkhXQw=="}, "_input_shapes": {"list": {"shape": [{"dim": [{"size": "1"}, {"size": "7"}, {"size": "7"}, {"size": "1"}]}, {"dim": [{"size": "3"}, {"size": "3"}, {"size": "1"}, {"size": "1"}]}]}}, "use_cudnn_on_gpu": {"b": true}, "strides": {"list": {"i": ["1", "1", "1", "1"]}}, "T": {"type": "DT_FLOAT"}, "explicit_paddings": {"list": {}}, "dilations": {"list": {"i": ["1", "1", "1", "1"]}}}}, {"name": "model_662/tf.nn.convolution_1489/convolution", "op": "Conv2D", "input": ["model_662/tf.split_8/split:15", "model_662/tf.nn.convolution_1489/convolution/filter"], "device": "/device:CPU:0", "attr": {"padding": {"s": "U0FNRQ=="}, "_input_shapes": {"list": {"shape": [{"dim": [{"size": "1"}, {"size": "7"}, {"size": "7"}, {"size": "1"}]}, {"dim": [{"size": "3"}, {"size": "3"}, {"size": "1"}, {"size": "1"}]}]}}, "data_format": {"s": "TkhXQw=="}, "strides": {"list": {"i": ["1", "1", "1", "1"]}}, "use_cudnn_on_gpu": {"b": true}, "T": {"type": "DT_FLOAT"}, "explicit_paddings": {"list": {}}, "dilations": {"list": {"i": ["1", "1", "1", "1"]}}}}, {"name": "model_662/tf.nn.convolution_1490/convolution", "op": "Conv2D", "input": ["model_662/tf.split_8/split:16", "model_662/tf.nn.convolution_1490/convolution/filter"], "device": "/device:CPU:0", "attr": {"padding": {"s": "U0FNRQ=="}, "_input_shapes": {"list": {"shape": [{"dim": [{"size": "1"}, {"size": "7"}, {"size": "7"}, {"size": "1"}]}, {"dim": [{"size": "3"}, {"size": "3"}, {"size": "1"}, {"size": "1"}]}]}}, "data_format": {"s": "TkhXQw=="}, "strides": {"list": {"i": ["1", "1", "1", "1"]}}, "use_cudnn_on_gpu": {"b": true}, "T": {"type": "DT_FLOAT"}, "explicit_paddings": {"list": {}}, "dilations": {"list": {"i": ["1", "1", "1", "1"]}}}}, {"name": "model_662/tf.nn.convolution_1491/convolution", "op": "Conv2D", "input": ["model_662/tf.split_8/split:17", "model_662/tf.nn.convolution_1491/convolution/filter"], "device": "/device:CPU:0", "attr": {"padding": {"s": "U0FNRQ=="}, "_input_shapes": {"list": {"shape": [{"dim": [{"size": "1"}, {"size": "7"}, {"size": "7"}, {"size": "1"}]}, {"dim": [{"size": "3"}, {"size": "3"}, {"size": "1"}, {"size": "1"}]}]}}, "data_format": {"s": "TkhXQw=="}, "strides": {"list": {"i": ["1", "1", "1", "1"]}}, "use_cudnn_on_gpu": {"b": true}, "T": {"type": "DT_FLOAT"}, "explicit_paddings": {"list": {}}, "dilations": {"list": {"i": ["1", "1", "1", "1"]}}}}, {"name": "model_662/tf.nn.convolution_1492/convolution", "op": "Conv2D", "input": ["model_662/tf.split_8/split:18", "model_662/tf.nn.convolution_1492/convolution/filter"], "device": "/device:CPU:0", "attr": {"padding": {"s": "U0FNRQ=="}, "_input_shapes": {"list": {"shape": [{"dim": [{"size": "1"}, {"size": "7"}, {"size": "7"}, {"size": "1"}]}, {"dim": [{"size": "3"}, {"size": "3"}, {"size": "1"}, {"size": "1"}]}]}}, "data_format": {"s": "TkhXQw=="}, "use_cudnn_on_gpu": {"b": true}, "strides": {"list": {"i": ["1", "1", "1", "1"]}}, "T": {"type": "DT_FLOAT"}, "explicit_paddings": {"list": {}}, "dilations": {"list": {"i": ["1", "1", "1", "1"]}}}}, {"name": "model_662/tf.nn.convolution_1493/convolution", "op": "Conv2D", "input": ["model_662/tf.split_8/split:19", "model_662/tf.nn.convolution_1493/convolution/filter"], "device": "/device:CPU:0", "attr": {"padding": {"s": "U0FNRQ=="}, "data_format": {"s": "TkhXQw=="}, "_input_shapes": {"list": {"shape": [{"dim": [{"size": "1"}, {"size": "7"}, {"size": "7"}, {"size": "1"}]}, {"dim": [{"size": "3"}, {"size": "3"}, {"size": "1"}, {"size": "1"}]}]}}, "strides": {"list": {"i": ["1", "1", "1", "1"]}}, "use_cudnn_on_gpu": {"b": true}, "T": {"type": "DT_FLOAT"}, "explicit_paddings": {"list": {}}, "dilations": {"list": {"i": ["1", "1", "1", "1"]}}}}, {"name": "model_662/tf.nn.convolution_1494/convolution", "op": "Conv2D", "input": ["model_662/tf.split_8/split:20", "model_662/tf.nn.convolution_1494/convolution/filter"], "device": "/device:CPU:0", "attr": {"padding": {"s": "U0FNRQ=="}, "data_format": {"s": "TkhXQw=="}, "_input_shapes": {"list": {"shape": [{"dim": [{"size": "1"}, {"size": "7"}, {"size": "7"}, {"size": "1"}]}, {"dim": [{"size": "3"}, {"size": "3"}, {"size": "1"}, {"size": "1"}]}]}}, "use_cudnn_on_gpu": {"b": true}, "strides": {"list": {"i": ["1", "1", "1", "1"]}}, "T": {"type": "DT_FLOAT"}, "explicit_paddings": {"list": {}}, "dilations": {"list": {"i": ["1", "1", "1", "1"]}}}}, {"name": "model_662/tf.nn.convolution_1495/convolution", "op": "Conv2D", "input": ["model_662/tf.split_8/split:21", "model_662/tf.nn.convolution_1495/convolution/filter"], "device": "/device:CPU:0", "attr": {"padding": {"s": "U0FNRQ=="}, "data_format": {"s": "TkhXQw=="}, "_input_shapes": {"list": {"shape": [{"dim": [{"size": "1"}, {"size": "7"}, {"size": "7"}, {"size": "1"}]}, {"dim": [{"size": "3"}, {"size": "3"}, {"size": "1"}, {"size": "1"}]}]}}, "use_cudnn_on_gpu": {"b": true}, "strides": {"list": {"i": ["1", "1", "1", "1"]}}, "T": {"type": "DT_FLOAT"}, "explicit_paddings": {"list": {}}, "dilations": {"list": {"i": ["1", "1", "1", "1"]}}}}, {"name": "model_662/tf.nn.convolution_1496/convolution", "op": "Conv2D", "input": ["model_662/tf.split_8/split:22", "model_662/tf.nn.convolution_1496/convolution/filter"], "device": "/device:CPU:0", "attr": {"padding": {"s": "U0FNRQ=="}, "data_format": {"s": "TkhXQw=="}, "_input_shapes": {"list": {"shape": [{"dim": [{"size": "1"}, {"size": "7"}, {"size": "7"}, {"size": "1"}]}, {"dim": [{"size": "3"}, {"size": "3"}, {"size": "1"}, {"size": "1"}]}]}}, "use_cudnn_on_gpu": {"b": true}, "strides": {"list": {"i": ["1", "1", "1", "1"]}}, "T": {"type": "DT_FLOAT"}, "explicit_paddings": {"list": {}}, "dilations": {"list": {"i": ["1", "1", "1", "1"]}}}}, {"name": "model_662/tf.nn.convolution_1497/convolution", "op": "Conv2D", "input": ["model_662/tf.split_8/split:23", "model_662/tf.nn.convolution_1497/convolution/filter"], "device": "/device:CPU:0", "attr": {"padding": {"s": "U0FNRQ=="}, "_input_shapes": {"list": {"shape": [{"dim": [{"size": "1"}, {"size": "7"}, {"size": "7"}, {"size": "1"}]}, {"dim": [{"size": "3"}, {"size": "3"}, {"size": "1"}, {"size": "1"}]}]}}, "data_format": {"s": "TkhXQw=="}, "strides": {"list": {"i": ["1", "1", "1", "1"]}}, "use_cudnn_on_gpu": {"b": true}, "T": {"type": "DT_FLOAT"}, "explicit_paddings": {"list": {}}, "dilations": {"list": {"i": ["1", "1", "1", "1"]}}}}, {"name": "model_662/tf.nn.convolution_1498/convolution", "op": "Conv2D", "input": ["model_662/tf.split_8/split:24", "model_662/tf.nn.convolution_1498/convolution/filter"], "device": "/device:CPU:0", "attr": {"padding": {"s": "U0FNRQ=="}, "data_format": {"s": "TkhXQw=="}, "_input_shapes": {"list": {"shape": [{"dim": [{"size": "1"}, {"size": "7"}, {"size": "7"}, {"size": "1"}]}, {"dim": [{"size": "3"}, {"size": "3"}, {"size": "1"}, {"size": "1"}]}]}}, "strides": {"list": {"i": ["1", "1", "1", "1"]}}, "use_cudnn_on_gpu": {"b": true}, "T": {"type": "DT_FLOAT"}, "explicit_paddings": {"list": {}}, "dilations": {"list": {"i": ["1", "1", "1", "1"]}}}}, {"name": "model_662/tf.nn.convolution_1499/convolution", "op": "Conv2D", "input": ["model_662/tf.split_8/split:25", "model_662/tf.nn.convolution_1499/convolution/filter"], "device": "/device:CPU:0", "attr": {"padding": {"s": "U0FNRQ=="}, "_input_shapes": {"list": {"shape": [{"dim": [{"size": "1"}, {"size": "7"}, {"size": "7"}, {"size": "1"}]}, {"dim": [{"size": "3"}, {"size": "3"}, {"size": "1"}, {"size": "1"}]}]}}, "data_format": {"s": "TkhXQw=="}, "use_cudnn_on_gpu": {"b": true}, "strides": {"list": {"i": ["1", "1", "1", "1"]}}, "T": {"type": "DT_FLOAT"}, "explicit_paddings": {"list": {}}, "dilations": {"list": {"i": ["1", "1", "1", "1"]}}}}, {"name": "model_662/tf.nn.convolution_1500/convolution", "op": "Conv2D", "input": ["model_662/tf.split_8/split:26", "model_662/tf.nn.convolution_1500/convolution/filter"], "device": "/device:CPU:0", "attr": {"padding": {"s": "U0FNRQ=="}, "data_format": {"s": "TkhXQw=="}, "_input_shapes": {"list": {"shape": [{"dim": [{"size": "1"}, {"size": "7"}, {"size": "7"}, {"size": "1"}]}, {"dim": [{"size": "3"}, {"size": "3"}, {"size": "1"}, {"size": "1"}]}]}}, "use_cudnn_on_gpu": {"b": true}, "strides": {"list": {"i": ["1", "1", "1", "1"]}}, "T": {"type": "DT_FLOAT"}, "explicit_paddings": {"list": {}}, "dilations": {"list": {"i": ["1", "1", "1", "1"]}}}}, {"name": "model_662/tf.nn.convolution_1501/convolution", "op": "Conv2D", "input": ["model_662/tf.split_8/split:27", "model_662/tf.nn.convolution_1501/convolution/filter"], "device": "/device:CPU:0", "attr": {"padding": {"s": "U0FNRQ=="}, "data_format": {"s": "TkhXQw=="}, "_input_shapes": {"list": {"shape": [{"dim": [{"size": "1"}, {"size": "7"}, {"size": "7"}, {"size": "1"}]}, {"dim": [{"size": "3"}, {"size": "3"}, {"size": "1"}, {"size": "1"}]}]}}, "use_cudnn_on_gpu": {"b": true}, "strides": {"list": {"i": ["1", "1", "1", "1"]}}, "T": {"type": "DT_FLOAT"}, "explicit_paddings": {"list": {}}, "dilations": {"list": {"i": ["1", "1", "1", "1"]}}}}, {"name": "model_662/tf.nn.convolution_1502/convolution", "op": "Conv2D", "input": ["model_662/tf.split_8/split:28", "model_662/tf.nn.convolution_1502/convolution/filter"], "device": "/device:CPU:0", "attr": {"padding": {"s": "U0FNRQ=="}, "_input_shapes": {"list": {"shape": [{"dim": [{"size": "1"}, {"size": "7"}, {"size": "7"}, {"size": "1"}]}, {"dim": [{"size": "3"}, {"size": "3"}, {"size": "1"}, {"size": "1"}]}]}}, "data_format": {"s": "TkhXQw=="}, "strides": {"list": {"i": ["1", "1", "1", "1"]}}, "use_cudnn_on_gpu": {"b": true}, "T": {"type": "DT_FLOAT"}, "explicit_paddings": {"list": {}}, "dilations": {"list": {"i": ["1", "1", "1", "1"]}}}}, {"name": "model_662/tf.nn.convolution_1503/convolution", "op": "Conv2D", "input": ["model_662/tf.split_8/split:29", "model_662/tf.nn.convolution_1503/convolution/filter"], "device": "/device:CPU:0", "attr": {"padding": {"s": "U0FNRQ=="}, "_input_shapes": {"list": {"shape": [{"dim": [{"size": "1"}, {"size": "7"}, {"size": "7"}, {"size": "1"}]}, {"dim": [{"size": "3"}, {"size": "3"}, {"size": "1"}, {"size": "1"}]}]}}, "data_format": {"s": "TkhXQw=="}, "strides": {"list": {"i": ["1", "1", "1", "1"]}}, "use_cudnn_on_gpu": {"b": true}, "T": {"type": "DT_FLOAT"}, "explicit_paddings": {"list": {}}, "dilations": {"list": {"i": ["1", "1", "1", "1"]}}}}, {"name": "model_662/tf.nn.convolution_1504/convolution", "op": "Conv2D", "input": ["model_662/tf.split_8/split:30", "model_662/tf.nn.convolution_1504/convolution/filter"], "device": "/device:CPU:0", "attr": {"padding": {"s": "U0FNRQ=="}, "data_format": {"s": "TkhXQw=="}, "_input_shapes": {"list": {"shape": [{"dim": [{"size": "1"}, {"size": "7"}, {"size": "7"}, {"size": "1"}]}, {"dim": [{"size": "3"}, {"size": "3"}, {"size": "1"}, {"size": "1"}]}]}}, "use_cudnn_on_gpu": {"b": true}, "strides": {"list": {"i": ["1", "1", "1", "1"]}}, "T": {"type": "DT_FLOAT"}, "explicit_paddings": {"list": {}}, "dilations": {"list": {"i": ["1", "1", "1", "1"]}}}}, {"name": "model_662/tf.nn.convolution_1505/convolution", "op": "Conv2D", "input": ["model_662/tf.split_8/split:31", "model_662/tf.nn.convolution_1505/convolution/filter"], "device": "/device:CPU:0", "attr": {"padding": {"s": "U0FNRQ=="}, "data_format": {"s": "TkhXQw=="}, "_input_shapes": {"list": {"shape": [{"dim": [{"size": "1"}, {"size": "7"}, {"size": "7"}, {"size": "1"}]}, {"dim": [{"size": "3"}, {"size": "3"}, {"size": "1"}, {"size": "1"}]}]}}, "use_cudnn_on_gpu": {"b": true}, "strides": {"list": {"i": ["1", "1", "1", "1"]}}, "T": {"type": "DT_FLOAT"}, "explicit_paddings": {"list": {}}, "dilations": {"list": {"i": ["1", "1", "1", "1"]}}}}, {"name": "model_662/tf.nn.convolution_1506/convolution", "op": "Conv2D", "input": ["model_662/tf.split_8/split:32", "model_662/tf.nn.convolution_1506/convolution/filter"], "device": "/device:CPU:0", "attr": {"padding": {"s": "U0FNRQ=="}, "data_format": {"s": "TkhXQw=="}, "_input_shapes": {"list": {"shape": [{"dim": [{"size": "1"}, {"size": "7"}, {"size": "7"}, {"size": "1"}]}, {"dim": [{"size": "3"}, {"size": "3"}, {"size": "1"}, {"size": "1"}]}]}}, "use_cudnn_on_gpu": {"b": true}, "strides": {"list": {"i": ["1", "1", "1", "1"]}}, "T": {"type": "DT_FLOAT"}, "explicit_paddings": {"list": {}}, "dilations": {"list": {"i": ["1", "1", "1", "1"]}}}}, {"name": "model_662/tf.nn.convolution_1507/convolution", "op": "Conv2D", "input": ["model_662/tf.split_8/split:33", "model_662/tf.nn.convolution_1507/convolution/filter"], "device": "/device:CPU:0", "attr": {"padding": {"s": "U0FNRQ=="}, "data_format": {"s": "TkhXQw=="}, "_input_shapes": {"list": {"shape": [{"dim": [{"size": "1"}, {"size": "7"}, {"size": "7"}, {"size": "1"}]}, {"dim": [{"size": "3"}, {"size": "3"}, {"size": "1"}, {"size": "1"}]}]}}, "use_cudnn_on_gpu": {"b": true}, "strides": {"list": {"i": ["1", "1", "1", "1"]}}, "T": {"type": "DT_FLOAT"}, "explicit_paddings": {"list": {}}, "dilations": {"list": {"i": ["1", "1", "1", "1"]}}}}, {"name": "model_662/tf.nn.convolution_1508/convolution", "op": "Conv2D", "input": ["model_662/tf.split_8/split:34", "model_662/tf.nn.convolution_1508/convolution/filter"], "device": "/device:CPU:0", "attr": {"padding": {"s": "U0FNRQ=="}, "data_format": {"s": "TkhXQw=="}, "_input_shapes": {"list": {"shape": [{"dim": [{"size": "1"}, {"size": "7"}, {"size": "7"}, {"size": "1"}]}, {"dim": [{"size": "3"}, {"size": "3"}, {"size": "1"}, {"size": "1"}]}]}}, "use_cudnn_on_gpu": {"b": true}, "strides": {"list": {"i": ["1", "1", "1", "1"]}}, "T": {"type": "DT_FLOAT"}, "explicit_paddings": {"list": {}}, "dilations": {"list": {"i": ["1", "1", "1", "1"]}}}}, {"name": "model_662/tf.nn.convolution_1509/convolution", "op": "Conv2D", "input": ["model_662/tf.split_8/split:35", "model_662/tf.nn.convolution_1509/convolution/filter"], "device": "/device:CPU:0", "attr": {"padding": {"s": "U0FNRQ=="}, "_input_shapes": {"list": {"shape": [{"dim": [{"size": "1"}, {"size": "7"}, {"size": "7"}, {"size": "1"}]}, {"dim": [{"size": "3"}, {"size": "3"}, {"size": "1"}, {"size": "1"}]}]}}, "data_format": {"s": "TkhXQw=="}, "strides": {"list": {"i": ["1", "1", "1", "1"]}}, "use_cudnn_on_gpu": {"b": true}, "T": {"type": "DT_FLOAT"}, "explicit_paddings": {"list": {}}, "dilations": {"list": {"i": ["1", "1", "1", "1"]}}}}, {"name": "model_662/tf.nn.convolution_1510/convolution", "op": "Conv2D", "input": ["model_662/tf.split_8/split:36", "model_662/tf.nn.convolution_1510/convolution/filter"], "device": "/device:CPU:0", "attr": {"padding": {"s": "U0FNRQ=="}, "_input_shapes": {"list": {"shape": [{"dim": [{"size": "1"}, {"size": "7"}, {"size": "7"}, {"size": "1"}]}, {"dim": [{"size": "3"}, {"size": "3"}, {"size": "1"}, {"size": "1"}]}]}}, "data_format": {"s": "TkhXQw=="}, "use_cudnn_on_gpu": {"b": true}, "strides": {"list": {"i": ["1", "1", "1", "1"]}}, "T": {"type": "DT_FLOAT"}, "explicit_paddings": {"list": {}}, "dilations": {"list": {"i": ["1", "1", "1", "1"]}}}}, {"name": "model_662/tf.nn.convolution_1511/convolution", "op": "Conv2D", "input": ["model_662/tf.split_8/split:37", "model_662/tf.nn.convolution_1511/convolution/filter"], "device": "/device:CPU:0", "attr": {"padding": {"s": "U0FNRQ=="}, "_input_shapes": {"list": {"shape": [{"dim": [{"size": "1"}, {"size": "7"}, {"size": "7"}, {"size": "1"}]}, {"dim": [{"size": "3"}, {"size": "3"}, {"size": "1"}, {"size": "1"}]}]}}, "data_format": {"s": "TkhXQw=="}, "use_cudnn_on_gpu": {"b": true}, "strides": {"list": {"i": ["1", "1", "1", "1"]}}, "T": {"type": "DT_FLOAT"}, "explicit_paddings": {"list": {}}, "dilations": {"list": {"i": ["1", "1", "1", "1"]}}}}, {"name": "model_662/tf.nn.convolution_1512/convolution", "op": "Conv2D", "input": ["model_662/tf.split_8/split:38", "model_662/tf.nn.convolution_1512/convolution/filter"], "device": "/device:CPU:0", "attr": {"padding": {"s": "U0FNRQ=="}, "data_format": {"s": "TkhXQw=="}, "_input_shapes": {"list": {"shape": [{"dim": [{"size": "1"}, {"size": "7"}, {"size": "7"}, {"size": "1"}]}, {"dim": [{"size": "3"}, {"size": "3"}, {"size": "1"}, {"size": "1"}]}]}}, "strides": {"list": {"i": ["1", "1", "1", "1"]}}, "use_cudnn_on_gpu": {"b": true}, "T": {"type": "DT_FLOAT"}, "explicit_paddings": {"list": {}}, "dilations": {"list": {"i": ["1", "1", "1", "1"]}}}}, {"name": "model_662/tf.nn.convolution_1513/convolution", "op": "Conv2D", "input": ["model_662/tf.split_8/split:39", "model_662/tf.nn.convolution_1513/convolution/filter"], "device": "/device:CPU:0", "attr": {"padding": {"s": "U0FNRQ=="}, "_input_shapes": {"list": {"shape": [{"dim": [{"size": "1"}, {"size": "7"}, {"size": "7"}, {"size": "1"}]}, {"dim": [{"size": "3"}, {"size": "3"}, {"size": "1"}, {"size": "1"}]}]}}, "data_format": {"s": "TkhXQw=="}, "strides": {"list": {"i": ["1", "1", "1", "1"]}}, "use_cudnn_on_gpu": {"b": true}, "T": {"type": "DT_FLOAT"}, "explicit_paddings": {"list": {}}, "dilations": {"list": {"i": ["1", "1", "1", "1"]}}}}, {"name": "model_662/tf.nn.convolution_1514/convolution", "op": "Conv2D", "input": ["model_662/tf.split_8/split:40", "model_662/tf.nn.convolution_1514/convolution/filter"], "device": "/device:CPU:0", "attr": {"padding": {"s": "U0FNRQ=="}, "_input_shapes": {"list": {"shape": [{"dim": [{"size": "1"}, {"size": "7"}, {"size": "7"}, {"size": "1"}]}, {"dim": [{"size": "3"}, {"size": "3"}, {"size": "1"}, {"size": "1"}]}]}}, "data_format": {"s": "TkhXQw=="}, "strides": {"list": {"i": ["1", "1", "1", "1"]}}, "use_cudnn_on_gpu": {"b": true}, "T": {"type": "DT_FLOAT"}, "explicit_paddings": {"list": {}}, "dilations": {"list": {"i": ["1", "1", "1", "1"]}}}}, {"name": "model_662/tf.nn.convolution_1515/convolution", "op": "Conv2D", "input": ["model_662/tf.split_8/split:41", "model_662/tf.nn.convolution_1515/convolution/filter"], "device": "/device:CPU:0", "attr": {"padding": {"s": "U0FNRQ=="}, "_input_shapes": {"list": {"shape": [{"dim": [{"size": "1"}, {"size": "7"}, {"size": "7"}, {"size": "1"}]}, {"dim": [{"size": "3"}, {"size": "3"}, {"size": "1"}, {"size": "1"}]}]}}, "data_format": {"s": "TkhXQw=="}, "strides": {"list": {"i": ["1", "1", "1", "1"]}}, "use_cudnn_on_gpu": {"b": true}, "T": {"type": "DT_FLOAT"}, "explicit_paddings": {"list": {}}, "dilations": {"list": {"i": ["1", "1", "1", "1"]}}}}, {"name": "model_662/tf.nn.convolution_1516/convolution", "op": "Conv2D", "input": ["model_662/tf.split_8/split:42", "model_662/tf.nn.convolution_1516/convolution/filter"], "device": "/device:CPU:0", "attr": {"padding": {"s": "U0FNRQ=="}, "data_format": {"s": "TkhXQw=="}, "_input_shapes": {"list": {"shape": [{"dim": [{"size": "1"}, {"size": "7"}, {"size": "7"}, {"size": "1"}]}, {"dim": [{"size": "3"}, {"size": "3"}, {"size": "1"}, {"size": "1"}]}]}}, "use_cudnn_on_gpu": {"b": true}, "strides": {"list": {"i": ["1", "1", "1", "1"]}}, "T": {"type": "DT_FLOAT"}, "explicit_paddings": {"list": {}}, "dilations": {"list": {"i": ["1", "1", "1", "1"]}}}}, {"name": "model_662/tf.nn.convolution_1517/convolution", "op": "Conv2D", "input": ["model_662/tf.split_8/split:43", "model_662/tf.nn.convolution_1517/convolution/filter"], "device": "/device:CPU:0", "attr": {"padding": {"s": "U0FNRQ=="}, "_input_shapes": {"list": {"shape": [{"dim": [{"size": "1"}, {"size": "7"}, {"size": "7"}, {"size": "1"}]}, {"dim": [{"size": "3"}, {"size": "3"}, {"size": "1"}, {"size": "1"}]}]}}, "data_format": {"s": "TkhXQw=="}, "use_cudnn_on_gpu": {"b": true}, "strides": {"list": {"i": ["1", "1", "1", "1"]}}, "T": {"type": "DT_FLOAT"}, "explicit_paddings": {"list": {}}, "dilations": {"list": {"i": ["1", "1", "1", "1"]}}}}, {"name": "model_662/tf.nn.convolution_1518/convolution", "op": "Conv2D", "input": ["model_662/tf.split_8/split:44", "model_662/tf.nn.convolution_1518/convolution/filter"], "device": "/device:CPU:0", "attr": {"padding": {"s": "U0FNRQ=="}, "_input_shapes": {"list": {"shape": [{"dim": [{"size": "1"}, {"size": "7"}, {"size": "7"}, {"size": "1"}]}, {"dim": [{"size": "3"}, {"size": "3"}, {"size": "1"}, {"size": "1"}]}]}}, "data_format": {"s": "TkhXQw=="}, "use_cudnn_on_gpu": {"b": true}, "strides": {"list": {"i": ["1", "1", "1", "1"]}}, "T": {"type": "DT_FLOAT"}, "explicit_paddings": {"list": {}}, "dilations": {"list": {"i": ["1", "1", "1", "1"]}}}}, {"name": "model_662/tf.nn.convolution_1519/convolution", "op": "Conv2D", "input": ["model_662/tf.split_8/split:45", "model_662/tf.nn.convolution_1519/convolution/filter"], "device": "/device:CPU:0", "attr": {"padding": {"s": "U0FNRQ=="}, "data_format": {"s": "TkhXQw=="}, "_input_shapes": {"list": {"shape": [{"dim": [{"size": "1"}, {"size": "7"}, {"size": "7"}, {"size": "1"}]}, {"dim": [{"size": "3"}, {"size": "3"}, {"size": "1"}, {"size": "1"}]}]}}, "strides": {"list": {"i": ["1", "1", "1", "1"]}}, "use_…
ngs": {"list": {}}, "dilations": {"list": {"i": ["1", "1", "1", "1"]}}}}, {"name": "model_662/tf.nn.convolution_1592/convolution", "op": "Conv2D", "input": ["model_662/tf.split_8/split:118", "model_662/tf.nn.convolution_1592/convolution/filter"], "device": "/device:CPU:0", "attr": {"padding": {"s": "U0FNRQ=="}, "data_format": {"s": "TkhXQw=="}, "_input_shapes": {"list": {"shape": [{"dim": [{"size": "1"}, {"size": "7"}, {"size": "7"}, {"size": "1"}]}, {"dim": [{"size": "3"}, {"size": "3"}, {"size": "1"}, {"size": "1"}]}]}}, "use_cudnn_on_gpu": {"b": true}, "strides": {"list": {"i": ["1", "1", "1", "1"]}}, "T": {"type": "DT_FLOAT"}, "explicit_paddings": {"list": {}}, "dilations": {"list": {"i": ["1", "1", "1", "1"]}}}}, {"name": "model_662/tf.nn.convolution_1593/convolution", "op": "Conv2D", "input": ["model_662/tf.split_8/split:119", "model_662/tf.nn.convolution_1593/convolution/filter"], "device": "/device:CPU:0", "attr": {"padding": {"s": "U0FNRQ=="}, "_input_shapes": {"list": {"shape": [{"dim": [{"size": "1"}, {"size": "7"}, {"size": "7"}, {"size": "1"}]}, {"dim": [{"size": "3"}, {"size": "3"}, {"size": "1"}, {"size": "1"}]}]}}, "data_format": {"s": "TkhXQw=="}, "use_cudnn_on_gpu": {"b": true}, "strides": {"list": {"i": ["1", "1", "1", "1"]}}, "T": {"type": "DT_FLOAT"}, "explicit_paddings": {"list": {}}, "dilations": {"list": {"i": ["1", "1", "1", "1"]}}}}, {"name": "model_662/tf.nn.convolution_1594/convolution", "op": "Conv2D", "input": ["model_662/tf.split_8/split:120", "model_662/tf.nn.convolution_1594/convolution/filter"], "device": "/device:CPU:0", "attr": {"padding": {"s": "U0FNRQ=="}, "data_format": {"s": "TkhXQw=="}, "_input_shapes": {"list": {"shape": [{"dim": [{"size": "1"}, {"size": "7"}, {"size": "7"}, {"size": "1"}]}, {"dim": [{"size": "3"}, {"size": "3"}, {"size": "1"}, {"size": "1"}]}]}}, "use_cudnn_on_gpu": {"b": true}, "strides": {"list": {"i": ["1", "1", "1", "1"]}}, "T": {"type": "DT_FLOAT"}, "explicit_paddings": {"list": {}}, "dilations": {"list": {"i": ["1", "1", "1", "1"]}}}}, {"name": "model_662/tf.nn.convolution_1595/convolution", "op": "Conv2D", "input": ["model_662/tf.split_8/split:121", "model_662/tf.nn.convolution_1595/convolution/filter"], "device": "/device:CPU:0", "attr": {"padding": {"s": "U0FNRQ=="}, "_input_shapes": {"list": {"shape": [{"dim": [{"size": "1"}, {"size": "7"}, {"size": "7"}, {"size": "1"}]}, {"dim": [{"size": "3"}, {"size": "3"}, {"size": "1"}, {"size": "1"}]}]}}, "data_format": {"s": "TkhXQw=="}, "strides": {"list": {"i": ["1", "1", "1", "1"]}}, "use_cudnn_on_gpu": {"b": true}, "T": {"type": "DT_FLOAT"}, "explicit_paddings": {"list": {}}, "dilations": {"list": {"i": ["1", "1", "1", "1"]}}}}, {"name": "model_662/tf.nn.convolution_1596/convolution", "op": "Conv2D", "input": ["model_662/tf.split_8/split:122", "model_662/tf.nn.convolution_1596/convolution/filter"], "device": "/device:CPU:0", "attr": {"padding": {"s": "U0FNRQ=="}, "_input_shapes": {"list": {"shape": [{"dim": [{"size": "1"}, {"size": "7"}, {"size": "7"}, {"size": "1"}]}, {"dim": [{"size": "3"}, {"size": "3"}, {"size": "1"}, {"size": "1"}]}]}}, "data_format": {"s": "TkhXQw=="}, "use_cudnn_on_gpu": {"b": true}, "strides": {"list": {"i": ["1", "1", "1", "1"]}}, "T": {"type": "DT_FLOAT"}, "explicit_paddings": {"list": {}}, "dilations": {"list": {"i": ["1", "1", "1", "1"]}}}}, {"name": "model_662/tf.nn.convolution_1597/convolution", "op": "Conv2D", "input": ["model_662/tf.split_8/split:123", "model_662/tf.nn.convolution_1597/convolution/filter"], "device": "/device:CPU:0", "attr": {"padding": {"s": "U0FNRQ=="}, "data_format": {"s": "TkhXQw=="}, "_input_shapes": {"list": {"shape": [{"dim": [{"size": "1"}, {"size": "7"}, {"size": "7"}, {"size": "1"}]}, {"dim": [{"size": "3"}, {"size": "3"}, {"size": "1"}, {"size": "1"}]}]}}, "use_cudnn_on_gpu": {"b": true}, "strides": {"list": {"i": ["1", "1", "1", "1"]}}, "T": {"type": "DT_FLOAT"}, "explicit_paddings": {"list": {}}, "dilations": {"list": {"i": ["1", "1", "1", "1"]}}}}, {"name": "model_662/tf.nn.convolution_1598/convolution", "op": "Conv2D", "input": ["model_662/tf.split_8/split:124", "model_662/tf.nn.convolution_1598/convolution/filter"], "device": "/device:CPU:0", "attr": {"padding": {"s": "U0FNRQ=="}, "data_format": {"s": "TkhXQw=="}, "_input_shapes": {"list": {"shape": [{"dim": [{"size": "1"}, {"size": "7"}, {"size": "7"}, {"size": "1"}]}, {"dim": [{"size": "3"}, {"size": "3"}, {"size": "1"}, {"size": "1"}]}]}}, "use_cudnn_on_gpu": {"b": true}, "strides": {"list": {"i": ["1", "1", "1", "1"]}}, "T": {"type": "DT_FLOAT"}, "explicit_paddings": {"list": {}}, "dilations": {"list": {"i": ["1", "1", "1", "1"]}}}}, {"name": "model_662/tf.nn.convolution_1599/convolution", "op": "Conv2D", "input": ["model_662/tf.split_8/split:125", "model_662/tf.nn.convolution_1599/convolution/filter"], "device": "/device:CPU:0", "attr": {"padding": {"s": "U0FNRQ=="}, "data_format": {"s": "TkhXQw=="}, "_input_shapes": {"list": {"shape": [{"dim": [{"size": "1"}, {"size": "7"}, {"size": "7"}, {"size": "1"}]}, {"dim": [{"size": "3"}, {"size": "3"}, {"size": "1"}, {"size": "1"}]}]}}, "strides": {"list": {"i": ["1", "1", "1", "1"]}}, "use_cudnn_on_gpu": {"b": true}, "T": {"type": "DT_FLOAT"}, "explicit_paddings": {"list": {}}, "dilations": {"list": {"i": ["1", "1", "1", "1"]}}}}, {"name": "model_662/tf.nn.convolution_1600/convolution", "op": "Conv2D", "input": ["model_662/tf.split_8/split:126", "model_662/tf.nn.convolution_1600/convolution/filter"], "device": "/device:CPU:0", "attr": {"padding": {"s": "U0FNRQ=="}, "_input_shapes": {"list": {"shape": [{"dim": [{"size": "1"}, {"size": "7"}, {"size": "7"}, {"size": "1"}]}, {"dim": [{"size": "3"}, {"size": "3"}, {"size": "1"}, {"size": "1"}]}]}}, "data_format": {"s": "TkhXQw=="}, "use_cudnn_on_gpu": {"b": true}, "strides": {"list": {"i": ["1", "1", "1", "1"]}}, "T": {"type": "DT_FLOAT"}, "explicit_paddings": {"list": {}}, "dilations": {"list": {"i": ["1", "1", "1", "1"]}}}}, {"name": "model_662/tf.nn.convolution_1601/convolution", "op": "Conv2D", "input": ["model_662/tf.split_8/split:127", "model_662/tf.nn.convolution_1601/convolution/filter"], "device": "/device:CPU:0", "attr": {"padding": {"s": "U0FNRQ=="}, "data_format": {"s": "TkhXQw=="}, "_input_shapes": {"list": {"shape": [{"dim": [{"size": "1"}, {"size": "7"}, {"size": "7"}, {"size": "1"}]}, {"dim": [{"size": "3"}, {"size": "3"}, {"size": "1"}, {"size": "1"}]}]}}, "use_cudnn_on_gpu": {"b": true}, "strides": {"list": {"i": ["1", "1", "1", "1"]}}, "T": {"type": "DT_FLOAT"}, "explicit_paddings": {"list": {}}, "dilations": {"list": {"i": ["1", "1", "1", "1"]}}}}, {"name": "model_662/tf.reshape_392/Reshape", "op": "Reshape", "input": ["model_662/tf.linalg.matmul_35/ArithmeticOptimizer/FoldTransposeIntoMatMul_MatMul", "model_662/tf.reshape_392/Reshape/shape"], "attr": {"T": {"type": "DT_FLOAT"}, "Tshape": {"type": "DT_INT32"}}}, {"name": "model_662/tf.concat_177/concat", "op": "ConcatV2", "input": ["model_662/tf.nn.convolution_1474/convolution", "model_662/tf.nn.convolution_1475/convolution", "model_662/tf.nn.convolution_1476/convolution", "model_662/tf.nn.convolution_1477/convolution", "model_662/tf.nn.convolution_1478/convolution", "model_662/tf.nn.convolution_1479/convolution", "model_662/tf.nn.convolution_1480/convolution", "model_662/tf.nn.convolution_1481/convolution", "model_662/tf.nn.convolution_1482/convolution", "model_662/tf.nn.convolution_1483/convolution", "model_662/tf.nn.convolution_1484/convolution", "model_662/tf.nn.convolution_1485/convolution", "model_662/tf.nn.convolution_1486/convolution", "model_662/tf.nn.convolution_1487/convolution", "model_662/tf.nn.convolution_1488/convolution", "model_662/tf.nn.convolution_1489/convolution", "model_662/tf.nn.convolution_1490/convolution", "model_662/tf.nn.convolution_1491/convolution", "model_662/tf.nn.convolution_1492/convolution", "model_662/tf.nn.convolution_1493/convolution", "model_662/tf.nn.convolution_1494/convolution", "model_662/tf.nn.convolution_1495/convolution", "model_662/tf.nn.convolution_1496/convolution", "model_662/tf.nn.convolution_1497/convolution", "model_662/tf.nn.convolution_1498/convolution", "model_662/tf.nn.convolution_1499/convolution", "model_662/tf.nn.convolution_1500/convolution", "model_662/tf.nn.convolution_1501/convolution", "model_662/tf.nn.convolution_1502/convolution", "model_662/tf.nn.convolution_1503/convolution", "model_662/tf.nn.convolution_1504/convolution", "model_662/tf.nn.convolution_1505/convolution", "model_662/tf.nn.convolution_1506/convolution", "model_662/tf.nn.convolution_1507/convolution", "model_662/tf.nn.convolution_1508/convolution", "model_662/tf.nn.convolution_1509/convolution", "model_662/tf.nn.convolution_1510/convolution", "model_662/tf.nn.convolution_1511/convolution", "model_662/tf.nn.convolution_1512/convolution", "model_662/tf.nn.convolution_1513/convolution", "model_662/tf.nn.convolution_1514/convolution", "model_662/tf.nn.convolution_1515/convolution", "model_662/tf.nn.convolution_1516/convolution", "model_662/tf.nn.convolution_1517/convolution", "model_662/tf.nn.convolution_1518/convolution", "model_662/tf.nn.convolution_1519/convolution", "model_662/tf.nn.convolution_1520/convolution", "model_662/tf.nn.convolution_1521/convolution", "model_662/tf.nn.convolution_1522/convolution", "model_662/tf.nn.convolution_1523/convolution", "model_662/tf.nn.convolution_1524/convolution", "model_662/tf.nn.convolution_1525/convolution", "model_662/tf.nn.convolution_1526/convolution", "model_662/tf.nn.convolution_1527/convolution", "model_662/tf.nn.convolution_1528/convolution", "model_662/tf.nn.convolution_1529/convolution", "model_662/tf.nn.convolution_1530/convolution", "model_662/tf.nn.convolution_1531/convolution", "model_662/tf.nn.convolution_1532/convolution", "model_662/tf.nn.convolution_1533/convolution", "model_662/tf.nn.convolution_1534/convolution", "model_662/tf.nn.convolution_1535/convolution", "model_662/tf.nn.convolution_1536/convolution", "model_662/tf.nn.convolution_1537/convolution", "model_662/tf.nn.convolution_1538/convolution", "model_662/tf.nn.convolution_1539/convolution", "model_662/tf.nn.convolution_1540/convolution", "model_662/tf.nn.convolution_1541/convolution", "model_662/tf.nn.convolution_1542/convolution", "model_662/tf.nn.convolution_1543/convolution", "model_662/tf.nn.convolution_1544/convolution", "model_662/tf.nn.convolution_1545/convolution", "model_662/tf.nn.convolution_1546/convolution", "model_662/tf.nn.convolution_1547/convolution", "model_662/tf.nn.convolution_1548/convolution", "model_662/tf.nn.convolution_1549/convolution", "model_662/tf.nn.convolution_1550/convolution", "model_662/tf.nn.convolution_1551/convolution", "model_662/tf.nn.convolution_1552/convolution", "model_662/tf.nn.convolution_1553/convolution", "model_662/tf.nn.convolution_1554/convolution", "model_662/tf.nn.convolution_1555/convolution", "model_662/tf.nn.convolution_1556/convolution", "model_662/tf.nn.convolution_1557/convolution", "model_662/tf.nn.convolution_1558/convolution", "model_662/tf.nn.convolution_1559/convolution", "model_662/tf.nn.convolution_1560/convolution", "model_662/tf.nn.convolution_1561/convolution", "model_662/tf.nn.convolution_1562/convolution", "model_662/tf.nn.convolution_1563/convolution", "model_662/tf.nn.convolution_1564/convolution", "model_662/tf.nn.convolution_1565/convolution", "model_662/tf.nn.convolution_1566/convolution", "model_662/tf.nn.convolution_1567/convolution", "model_662/tf.nn.convolution_1568/convolution", "model_662/tf.nn.convolution_1569/convolution", "model_662/tf.nn.convolution_1570/convolution", "model_662/tf.nn.convolution_1571/convolution", "model_662/tf.nn.convolution_1572/convolution", "model_662/tf.nn.convolution_1573/convolution", "model_662/tf.nn.convolution_1574/convolution", "model_662/tf.nn.convolution_1575/convolution", "model_662/tf.nn.convolution_1576/convolution", "model_662/tf.nn.convolution_1577/convolution", "model_662/tf.nn.convolution_1578/convolution", "model_662/tf.nn.convolution_1579/convolution", "model_662/tf.nn.convolution_1580/convolution", "model_662/tf.nn.convolution_1581/convolution", "model_662/tf.nn.convolution_1582/convolution", "model_662/tf.nn.convolution_1583/convolution", "model_662/tf.nn.convolution_1584/convolution", "model_662/tf.nn.convolution_1585/convolution", "model_662/tf.nn.convolution_1586/convolution", "model_662/tf.nn.convolution_1587/convolution", "model_662/tf.nn.convolution_1588/convolution", "model_662/tf.nn.convolution_1589/convolution", "model_662/tf.nn.convolution_1590/convolution", "model_662/tf.nn.convolution_1591/convolution", "model_662/tf.nn.convolution_1592/convolution", "model_662/tf.nn.convolution_1593/convolution", "model_662/tf.nn.convolution_1594/convolution", "model_662/tf.nn.convolution_1595/convolution", "model_662/tf.nn.convolution_1596/convolution", "model_662/tf.nn.convolution_1597/convolution", "model_662/tf.nn.convolution_1598/convolution", "model_662/tf.nn.convolution_1599/convolution", "model_662/tf.nn.convolution_1600/convolution", "model_662/tf.nn.convolution_1601/convolution", "model_662/tf.concat_177/concat/axis"], "attr": {"N": {"i": "128"}, "Tidx": {"type": "DT_INT32"}, "T": {"type": "DT_FLOAT"}}}, {"name": "model_662/tf.compat.v1.transpose_1352/transpose", "op": "Transpose", "input": ["model_662/tf.reshape_392/Reshape", "model_662/tf.compat.v1.transpose_1352/transpose/perm"], "attr": {"Tperm": {"type": "DT_INT32"}, "_input_shapes": {"list": {"shape": [{"dim": [{"size": "1"}, {"size": "128"}, {"size": "7"}, {"size": "7"}]}, {"dim": [{"size": "4"}]}]}}, "T": {"type": "DT_FLOAT"}}}, {"name": "model_662/tf.math.add_683/ArithmeticOptimizer/AddOpsRewrite_Leaf_1_Add", "op": "AddN", "input": ["model_662/tf.compat.v1.transpose_1352/transpose", "model_662/tf.concat_177/concat"], "attr": {"N": {"i": "2"}, "T": {"type": "DT_FLOAT"}, "_grappler_ArithmeticOptimizer_AddOpsRewriteStage": {"b": true}}}, {"name": "model_662/tf.math.add_683/ArithmeticOptimizer/AddOpsRewrite_Add", "op": "AddV2", "input": ["model_662/tf.math.add_681/Add/y", "model_662/tf.math.add_683/ArithmeticOptimizer/AddOpsRewrite_Leaf_1_Add"], "attr": {"T": {"type": "DT_FLOAT"}, "_grappler_ArithmeticOptimizer_AddOpsRewriteStage": {"b": true}}}, {"name": "model_662/tf.math.add_684/Add", "op": "_FusedConv2D", "input": ["model_662/tf.math.add_683/ArithmeticOptimizer/AddOpsRewrite_Add", "model_662/tf.nn.convolution_1602/convolution/filter", "model_662/tf.math.add_684/Add/y"], "device": "/device:CPU:0", "attr": {"num_host_args": {"i": "0"}, "_input_shapes": {"list": {"shape": [{"dim": [{"size": "1"}, {"size": "7"}, {"size": "7"}, {"size": "128"}]}, {"dim": [{"size": "1"}, {"size": "1"}, {"size": "128"}, {"size": "128"}]}]}}, "filter_format": {"s": "SFdJTw=="}, "data_format": {"s": "TkhXQw=="}, "fused_ops": {"list": {"s": ["Qmlhc0FkZA=="]}}, "num_args": {"i": "1"}, "strides": {"list": {"i": ["1", "1", "1", "1"]}}, "TArgs": {"list": {"type": ["DT_FLOAT"]}}, "padding": {"s": "U0FNRQ=="}, "use_cudnn_on_gpu": {"b": true}, "leakyrelu_alpha": {"f": 0.2}, "epsilon": {"f": 0.0}, "T": {"type": "DT_FLOAT"}, "explicit_paddings": {"list": {}}, "dilations": {"list": {"i": ["1", "1", "1", "1"]}}}}, {"name": "model_662/tf.math.add_686/Add", "op": "AddV2", "input": ["model_662/tf.strided_slice_128/StridedSlice", "model_662/tf.math.add_684/Add"], "attr": {"T": {"type": "DT_FLOAT"}}}, {"name": "model_662/tf.math.add_687/Add", "op": "_FusedConv2D", "input": ["model_662/tf.math.add_686/Add", "model_662/tf.nn.convolution_1603/convolution/filter", "model_662/tf.math.add_687/Add/y"], "device": "/device:CPU:0", "attr": {"num_host_args": {"i": "0"}, "_input_shapes": {"list": {"shape": [{"dim": [{"size": "1"}, {"size": "7"}, {"size": "7"}, {"size": "128"}]}, {"dim": [{"size": "1"}, {"size": "1"}, {"size": "128"}, {"size": "256"}]}]}}, "filter_format": {"s": "SFdJTw=="}, "data_format": {"s": "TkhXQw=="}, "fused_ops": {"list": {"s": ["Qmlhc0FkZA=="]}}, "num_args": {"i": "1"}, "strides": {"list": {"i": ["1", "1", "1", "1"]}}, "TArgs": {"list": {"type": ["DT_FLOAT"]}}, "padding": {"s": "U0FNRQ=="}, "use_cudnn_on_gpu": {"b": true}, "leakyrelu_alpha": {"f": 0.2}, "epsilon": {"f": 0.0}, "T": {"type": "DT_FLOAT"}, "explicit_paddings": {"list": {}}, "dilations": {"list": {"i": ["1", "1", "1", "1"]}}}}, {"name": "model_662/tf.math.sigmoid_409/Sigmoid", "op": "Sigmoid", "input": ["model_662/tf.math.add_687/Add"], "attr": {"_input_shapes": {"list": {"shape": [{"dim": [{"size": "1"}, {"size": "7"}, {"size": "7"}, {"size": "256"}]}]}}, "T": {"type": "DT_FLOAT"}}}, {"name": "model_662/tf.math.multiply_1889/Mul", "op": "Mul", "input": ["model_662/tf.math.add_687/Add", "model_662/tf.math.sigmoid_409/Sigmoid"], "attr": {"T": {"type": "DT_FLOAT"}}}, {"name": "model_662/tf.nn.convolution_1604/convolution", "op": "Conv2D", "input": ["model_662/tf.math.multiply_1889/Mul", "model_662/tf.nn.convolution_1604/convolution/filter"], "device": "/device:CPU:0", "attr": {"padding": {"s": "U0FNRQ=="}, "_input_shapes": {"list": {"shape": [{"dim": [{"size": "1"}, {"size": "7"}, {"size": "7"}, {"size": "256"}]}, {"dim": [{"size": "1"}, {"size": "1"}, {"size": "256"}, {"size": "128"}]}]}}, "data_format": {"s": "TkhXQw=="}, "strides": {"list": {"i": ["1", "1", "1", "1"]}}, "use_cudnn_on_gpu": {"b": true}, "T": {"type": "DT_FLOAT"}, "explicit_paddings": {"list": {}}, "dilations": {"list": {"i": ["1", "1", "1", "1"]}}}}, {"name": "model_662/tf.math.add_690/ArithmeticOptimizer/AddOpsRewrite_Leaf_1_Add", "op": "AddN", "input": ["model_662/tf.math.add_686/Add", "model_662/tf.nn.convolution_1604/convolution"], "attr": {"N": {"i": "2"}, "T": {"type": "DT_FLOAT"}, "_grappler_ArithmeticOptimizer_AddOpsRewriteStage": {"b": true}}}, {"name": "model_662/tf.math.add_690/ArithmeticOptimizer/AddOpsRewrite_Add", "op": "AddV2", "input": ["model_662/tf.math.add_688/Add/y", "model_662/tf.math.add_690/ArithmeticOptimizer/AddOpsRewrite_Leaf_1_Add"], "attr": {"T": {"type": "DT_FLOAT"}, "_grappler_ArithmeticOptimizer_AddOpsRewriteStage": {"b": true}}}, {"name": "model_662/tf.concat_178/concat", "op": "ConcatV2", "input": ["model_662/tf.strided_slice_127/StridedSlice", "model_662/tf.math.add_690/ArithmeticOptimizer/AddOpsRewrite_Add", "model_662/tf.concat_178/concat/axis"], "attr": {"N": {"i": "2"}, "T": {"type": "DT_FLOAT"}, "Tidx": {"type": "DT_INT32"}}}, {"name": "model_662/tf.math.add_691/Add", "op": "_FusedConv2D", "input": ["model_662/tf.concat_178/concat", "model_662/tf.nn.convolution_1605/convolution/filter", "model_662/tf.math.add_691/Add/y"], "device": "/device:CPU:0", "attr": {"num_host_args": {"i": "0"}, "data_format": {"s": "TkhXQw=="}, "filter_format": {"s": "SFdJTw=="}, "_input_shapes": {"list": {"shape": [{"dim": [{"size": "1"}, {"size": "7"}, {"size": "7"}, {"size": "256"}]}, {"dim": [{"size": "1"}, {"size": "1"}, {"size": "256"}, {"size": "256"}]}]}}, "strides": {"list": {"i": ["1", "1", "1", "1"]}}, "num_args": {"i": "1"}, "fused_ops": {"list": {"s": ["Qmlhc0FkZA=="]}}, "TArgs": {"list": {"type": ["DT_FLOAT"]}}, "padding": {"s": "U0FNRQ=="}, "use_cudnn_on_gpu": {"b": true}, "leakyrelu_alpha": {"f": 0.2}, "epsilon": {"f": 0.0}, "T": {"type": "DT_FLOAT"}, "explicit_paddings": {"list": {}}, "dilations": {"list": {"i": ["1", "1", "1", "1"]}}}}, {"name": "model_662/tf.math.sigmoid_410/Sigmoid", "op": "Sigmoid", "input": ["model_662/tf.math.add_691/Add"], "attr": {"_input_shapes": {"list": {"shape": [{"dim": [{"size": "1"}, {"size": "7"}, {"size": "7"}, {"size": "256"}]}]}}, "T": {"type": "DT_FLOAT"}}}, {"name": "model_662/tf.math.multiply_1895/Mul", "op": "Mul", "input": ["model_662/tf.math.add_691/Add", "model_662/tf.math.sigmoid_410/Sigmoid"], "attr": {"T": {"type": "DT_FLOAT"}}}, {"name": "model_662/tf.math.add_692/Add", "op": "_FusedConv2D", "input": ["model_662/tf.math.multiply_1895/Mul", "model_662/tf.nn.convolution_1606/convolution/filter", "model_662/tf.math.add_692/Add/y"], "device": "/device:CPU:0", "attr": {"num_host_args": {"i": "0"}, "_input_shapes": {"list": {"shape": [{"dim": [{"size": "1"}, {"size": "7"}, {"size": "7"}, {"size": "256"}]}, {"dim": [{"size": "1"}, {"size": "1"}, {"size": "256"}, {"size": "1280"}]}]}}, "filter_format": {"s": "SFdJTw=="}, "data_format": {"s": "TkhXQw=="}, "strides": {"list": {"i": ["1", "1", "1", "1"]}}, "num_args": {"i": "1"}, "fused_ops": {"list": {"s": ["Qmlhc0FkZA=="]}}, "TArgs": {"list": {"type": ["DT_FLOAT"]}}, "padding": {"s": "U0FNRQ=="}, "use_cudnn_on_gpu": {"b": true}, "leakyrelu_alpha": {"f": 0.2}, "epsilon": {"f": 0.0}, "T": {"type": "DT_FLOAT"}, "explicit_paddings": {"list": {}}, "dilations": {"list": {"i": ["1", "1", "1", "1"]}}}}, {"name": "model_662/tf.math.sigmoid_411/Sigmoid", "op": "Sigmoid", "input": ["model_662/tf.math.add_692/Add"], "attr": {"_input_shapes": {"list": {"shape": [{"dim": [{"size": "1"}, {"size": "7"}, {"size": "7"}, {"size": "1280"}]}]}}, "T": {"type": "DT_FLOAT"}}}, {"name": "model_662/tf.math.multiply_1899/Mul", "op": "Mul", "input": ["model_662/tf.math.add_692/Add", "model_662/tf.math.sigmoid_411/Sigmoid"], "attr": {"T": {"type": "DT_FLOAT"}}}, {"name": "model_662/tf.math.reduce_mean/Mean", "op": "Mean", "input": ["model_662/tf.math.multiply_1899/Mul", "model_662/tf.math.reduce_mean/Mean/reduction_indices"], "attr": {"T": {"type": "DT_FLOAT"}, "Tidx": {"type": "DT_INT32"}, "keep_dims": {"b": true}}}, {"name": "model_662/tf.compat.v1.transpose_1359/transpose", "op": "Transpose", "input": ["model_662/tf.math.reduce_mean/Mean", "model_662/tf.compat.v1.transpose_1359/transpose/perm"], "attr": {"Tperm": {"type": "DT_INT32"}, "_input_shapes": {"list": {"shape": [{"dim": [{"size": "1"}, {"size": "1"}, {"size": "1"}, {"size": "1280"}]}, {"dim": [{"size": "4"}]}]}}, "T": {"type": "DT_FLOAT"}}}, {"name": "model_662/tf.reshape_393/Reshape", "op": "Reshape", "input": ["model_662/tf.compat.v1.transpose_1359/transpose", "model_662/tf.reshape_393/Reshape/shape"], "attr": {"T": {"type": "DT_FLOAT"}, "Tshape": {"type": "DT_INT32"}}}, {"name": "model_662/tf.__operators__.add_4/AddV2", "op": "_FusedMatMul", "input": ["model_662/tf.reshape_393/Reshape", "model_662/tf.linalg.matmul_36/MatMul/b", "model_662/tf.__operators__.add_4/AddV2/y"], "device": "/device:CPU:0", "attr": {"transpose_a": {"b": false}, "_input_shapes": {"list": {"shape": [{"dim": [{"size": "1"}, {"size": "1280"}]}, {"dim": [{"size": "1280"}, {"size": "1000"}]}]}}, "transpose_b": {"b": false}, "fused_ops": {"list": {"s": ["Qmlhc0FkZA=="]}}, "leakyrelu_alpha": {"f": 0.2}, "num_args": {"i": "1"}, "epsilon": {"f": 0.0}, "T": {"type": "DT_FLOAT"}}}, {"name": "model_662/output0/wa/model.10/Softmax", "op": "Softmax", "input": ["model_662/tf.__operators__.add_4/AddV2"], "attr": {"T": {"type": "DT_FLOAT"}}}, {"name": "Identity", "op": "Identity", "input": ["model_662/output0/wa/model.10/Softmax"], "attr": {"T": {"type": "DT_FLOAT"}}}], "library": {}, "versions": {"producer": 1645}}, "weightsManifest": [{"paths": ["group1-shard1of3.bin", "group1-shard2of3.bin", "group1-shard3of3.bin"], "weights": [{"name": "model_662/tf.strided_slice_127/StridedSlice/begin", "shape": [4], "dtype": "int32"}, {"name": "model_662/tf.strided_slice_127/StridedSlice/end", "shape": [4], "dtype": "int32"}, {"name": "model_662/tf.strided_slice_127/ones_like", "shape": [4], "dtype": "int32"}, {"name": "model_662/tf.math.add_688/Add/y", "shape": [128], "dtype": "float32"}, {"name": "model_662/tf.math.add_681/Add/y", "shape": [128], "dtype": "float32"}, {"name": "model_662/tf.strided_slice_129/StridedSlice/begin", "shape": [4], "dtype": "int32"}, {"name": "model_662/tf.strided_slice_129/StridedSlice/end", "shape": [4], "dtype": "int32"}, {"name": "model_662/tf.strided_slice_129/ones_like", "shape": [4], "dtype": "int32"}, {"name": "model_662/tf.strided_slice_130/StridedSlice/begin", "shape": [4], "dtype": "int32"}, {"name": "model_662/tf.strided_slice_130/StridedSlice/end", "shape": [4], "dtype": "int32"}, {"name": "model_662/tf.strided_slice_130/ones_like", "shape": [4], "dtype": "int32"}, {"name": "model_662/tf.math.multiply_1881/Mul/y", "shape": [], "dtype": "float32"}, {"name": "model_662/tf.reshape_392/Reshape/shape", "shape": [4], "dtype": "int32"}, {"name": "model_662/tf.compat.v1.transpose_1352/transpose/perm", "shape": [4], "dtype": "int32"}, {"name": "model_662/tf.nn.convolution_1474/convolution/filter", "shape": [3, 3, 1, 1], "dtype": "float32"}, {"name": "model_662/tf.nn.convolution_1475/convolution/filter", "shape": [3, 3, 1, 1], "dtype": "float32"}, {"name": "model_662/tf.nn.convolution_1476/convolution/filter", "shape": [3, 3, 1, 1], "dtype": "float32"}, {"name": "model_662/tf.nn.convolution_1477/convolution/filter", "shape": [3, 3, 1, 1], "dtype": "float32"}, {"name": "model_662/tf.nn.convolution_1478/convolution/filter", "shape": [3, 3, 1, 1], "dtype": "float32"}, {"name": "model_662/tf.nn.convolution_1479/convolution/filter", "shape": [3, 3, 1, 1], "dtype": "float32"}, {"name": "model_662/tf.nn.convolution_1480/convolution/filter", "shape": [3, 3, 1, 1], "dtype": "float32"}, {"name": "model_662/tf.nn.convolution_1481/convolution/filter", "shape": [3, 3, 1, 1], "dtype": "float32"}, {"name": "model_662/tf.nn.convolution_1482/convolution/filter", "shape": [3, 3, 1, 1], "dtype": "float32"}, {"name": "model_662/tf.nn.convolution_1483/convolution/filter", "shape": [3, 3, 1, 1], "dtype": "float32"}, {"name": "model_662/tf.nn.convolution_1484/convolution/filter", "shape": [3, 3, 1, 1], "dtype": "float32"}, {"name": "model_662/tf.nn.convolution_1485/convolution/filter", "shape": [3, 3, 1, 1], "dtype": "float32"}, {"name": "model_662/tf.nn.convolution_1486/convolution/filter", "shape": [3, 3, 1, 1], "dtype": "float32"}, {"name": "model_662/tf.nn.convolution_1487/convolution/filter", "shape": [3, 3, 1, 1], "dtype": "float32"}, {"name": "model_662/tf.nn.convolution_1488/convolution/filter", "shape": [3, 3, 1, 1], "dtype": "float32"}, {"name": "model_662/tf.nn.convolution_1489/convolution/filter", "shape": [3, 3, 1, 1], "dtype": "float32"}, {"name": "model_662/tf.nn.convolution_1490/convolution/filter", "shape": [3, 3, 1, 1], "dtype": "float32"}, {"name": "model_662/tf.nn.convolution_1491/convolution/filter", "shape": [3, 3, 1, 1], "dtype": "float32"}, {"name": "model_662/tf.nn.convolution_1492/convolution/filter", "shape": [3, 3, 1, 1], "dtype": "float32"}, {"name": "model_662/tf.nn.convolution_1493/convolution/filter", "shape": [3, 3, 1, 1], "dtype": "float32"}, {"name": "model_662/tf.nn.convolution_1494/convolution/filter", "shape": [3, 3, 1, 1], "dtype": "float32"}, {"name": "model_662/tf.nn.convolution_1495/convolution/filter", "shape": [3, 3, 1, 1], "dtype": "float32"}, {"name": "model_662/tf.nn.convolution_1496/convolution/filter", "shape": [3, 3, 1, 1], "dtype": "float32"}, {"name": "model_662/tf.nn.convolution_1497/convolution/filter", "shape": [3, 3, 1, 1], "dtype": "float32"}, {"name": "model_662/tf.nn.convolution_1498/convolution/filter", "shape": [3, 3, 1, 1], "dtype": "float32"}, {"name": "model_662/tf.nn.convolution_1499/convolution/filter", "shape": [3, 3, 1, 1], "dtype": "float32"}, {"name": "model_662/tf.nn.convolution_1500/convolution/filter", "shape": [3, 3, 1, 1], "dtype": "float32"}, {"name": "model_662/tf.nn.convolution_1501/convolution/filter", "shape": [3, 3, 1, 1], "dtype": "float32"}, {"name": "model_662/tf.nn.convolution_1502/convolution/filter", "shape": [3, 3, 1, 1], "dtype": "float32"}, {"name": "model_662/tf.nn.convolution_1503/convolution/filter", "shape": [3, 3, 1, 1], "dtype": "float32"}, {"name": "model_662/tf.nn.convolution_1504/convolution/filter", "shape": [3, 3, 1, 1], "dtype": "float32"}, {"name": "model_662/tf.nn.convolution_1505/convolution/filter", "shape": [3, 3, 1, 1], "dtype": "float32"}, {"name": "model_662/tf.nn.convolution_1506/convolution/filter", "shape": [3, 3, 1, 1], "dtype": "float32"}, {"name": "model_662/tf.nn.convolution_1507/convolution/filter", "shape": [3, 3, 1, 1], "dtype": "float32"}, {"name": "model_662/tf.nn.convolution_1508/convolution/filter", "shape": [3, 3, 1, 1], "dtype": "float32"}, {"name": "model_662/tf.nn.convolution_1509/convolution/filter", "shape": [3, 3, 1, 1], "dtype": "float32"}, {"name": "model_662/tf.nn.convolution_1510/convolution/filter", "shape": [3, 3, 1, 1], "dtype": "float32"}, {"name": "model_662/tf.nn.convolution_1511/convolution/filter", "shape": [3, 3, 1, 1], "dtype": "float32"}, {"name": "model_662/tf.nn.convolution_1512/convolution/filter", "shape": [3, 3, 1, 1], "dtype": "float32"}, {"name": "model_662/tf.nn.convolution_1513/convolution/filter", "shape": [3, 3, 1, 1], "dtype": "float32"}, {"name": "model_662/tf.nn.convolution_1514/convolution/filter", "shape": [3, 3, 1, 1], "dtype": "float32"}, {"name": "model_662/tf.nn.convolution_1515/convolution/filter", "shape": [3, 3, 1, 1], "dtype": "float32"}, {"name": "model_662/tf.nn.convolution_1516/convolution/filter", "shape": [3, 3, 1, 1], "dtype": "float32"}, {"name": "model_662/tf.nn.convolution_1517/convolution/filter", "shape": [3, 3, 1, 1], "dtype": "float32"}, {"name": "model_662/tf.nn.convolution_1518/convolution/filter", "shape": [3, 3, 1, 1], "dtype": "float32"}, {"name": "model_662/tf.nn.convolution_1519/convolution/filter", "shape": [3, 3, 1, 1], "dtype": "float32"}, {"name": "model_662/tf.nn.convolution_1520/convolution/filter", "shape": [3, 3, 1, 1], "dtype": "float32"}, {"name": "model_662/tf.nn.convolution_1521/convolution/filter", "shape": [3, 3, 1, 1], "dtype": "float32"}, {"name": "model_662/tf.nn.convolution_1522/convolution/filter", "shape": [3, 3, 1, 1], "dtype": "float32"}, {"name": "model_662/tf.nn.convolution_1523/convolution/filter", "shape": [3, 3, 1, 1], "dtype": "float32"}, {"name": "model_662/tf.nn.convolution_1524/convolution/filter", "shape": [3, 3, 1, 1], "dtype": "float32"}, {"name": "model_662/tf.nn.convolution_1525/convolution/filter", "shape": [3, 3, 1, 1], "dtype": "float32"}, {"name": "model_662/tf.nn.convolution_1526/convolution/filter", "shape": [3, 3, 1, 1], "dtype": "float32"}, {"name": "model_662/tf.nn.convolution_1527/convolution/filter", "shape": [3, 3, 1, 1], "dtype": "float32"}, {"name": "model_662/tf.nn.convolution_1528/convolution/filter", "shape": [3, 3, 1, 1], "dtype": "float32"}, {"name": "model_662/tf.nn.convolution_1529/convolution/filter", "shape": [3, 3, 1, 1], "dtype": "float32"}, {"name": "model_662/tf.nn.convolution_1530/convolution/filter", "shape": [3, 3, 1, 1], "dtype": "float32"}, {"name": "model_662/tf.nn.convolution_1531/convolution/filter", "shape": [3, 3, 1, 1], "dtype": "float32"}, {"name": "model_662/tf.nn.convolution_1532/convolution/filter", "shape": [3, 3, 1, 1], "dtype": "float32"}, {"name": "model_662/tf.nn.convolution_1533/convolution/filter", "shape": [3, 3, 1, 1], "dtype": "float32"}, {"name": "model_662/tf.nn.convolution_1534/convolution/filter", "shape": [3, 3, 1, 1], "dtype": "float32"}, {"name": "model_662/tf.nn.convolution_1535/convolution/filter", "shape": [3, 3, 1, 1], "dtype": "float32"}, {"name": "model_662/tf.nn.convolution_1536/convolution/filter", "shape": [3, 3, 1, 1], "dtype": "float32"}, {"name": "model_662/tf.nn.convolution_1537/convolution/filter", "shape": [3, 3, 1, 1], "dtype": "float32"}, {"name": "model_662/tf.nn.convolution_1538/convolution/filter", "shape": [3, 3, 1, 1], "dtype": "float32"}, {"name": "model_662/tf.nn.convolution_1539/convolution/filter", "shape": [3, 3, 1, 1], "dtype": "float32"}, {"name": "model_662/tf.nn.convolution_1540/convolution/filter", "shape": [3, 3, 1, 1], "dtype": "float32"}, {"name": "model_662/tf.nn.convolution_1541/convolution/filter", "shape": [3, 3, 1, 1], "dtype": "float32"}, {"name": "model_662/tf.nn.convolution_1542/convolution/filter", "shape": [3, 3, 1, 1], "dtype": "float32"}, {"name": "model_662/tf.nn.convolution_1543/convolution/filter", "shape": [3, 3, 1, 1], "dtype": "float32"}, {"name": "model_662/tf.nn.convolution_1544/convolution/filter", "shape": [3, 3, 1, 1], "dtype": "float32"}, {"name": "model_662/tf.nn.convolution_1545/convolution/filter", "shape": [3, 3, 1, 1], "dtype": "float32"}, {"name": "model_662/tf.nn.convolution_1546/convolution/filter", "shape": [3, 3, 1, 1], "dtype": "float32"}, {"name": "model_662/tf.nn.convolution_1547/convolution/filter", "shape": [3, 3, 1, 1], "dtype": "float32"}, {"name": "model_662/tf.nn.convolution_1548/convolution/filter", "shape": [3, 3, 1, 1], "dtype": "float32"}, {"name": "model_662/tf.nn.convolution_1549/convolution/filter", "shape": [3, 3, 1, 1], "dtype": "float32"}, {"name": "model_662/tf.nn.convolution_1550/convolution/filter", "shape": [3, 3, 1, 1], "dtype": "float32"}, {"name": "model_662/tf.nn.convolution_1551/convolution/filter", "shape": [3, 3, 1, 1], "dtype": "float32"}, {"name": "model_662/tf.nn.convolution_1552/convolution/filter", "shape": [3, 3, 1, 1], "dtype": "float32"}, {"name": "model_662/tf.nn.convolution_1553/convolution/filter", "shape": [3, 3, 1, 1], "dtype": "float32"}, {"name": "model_662/tf.nn.convolution_1554/convolution/filter", "shape": [3, 3, 1, 1], "dtype": "float32"}, {"name": "model_662/tf.nn.convolution_1555/convolution/filter", "shape": [3, 3, 1, 1], "dtype": "float32"}, {"name": "model_662/tf.nn.convolution_1556/convolution/filter", "shape": [3, 3, 1, 1], "dtype": "float32"}, {"name": "model_662/tf.nn.convolution_1557/convolution/filter", "shape": [3, 3, 1, 1], "dtype": "float32"}, {"name": "model_662/tf.nn.convolution_1558/convolution/filter", "shape": [3, 3, 1, 1], "dtype": "float32"}, {"name": "model_662/tf.nn.convolution_1559/convolution/filter", "shape": [3, 3, 1, 1], "dtype": "float32"}, {"name": "model_662/tf.nn.convolution_1560/convolution/filter", "shape": [3, 3, 1, 1], "dtype": "float32"}, {"name": "model_662/tf.nn.convolution_1561/convolution/filter", "shape": [3, 3, 1, 1], "dtype": "float32"}, {"name": "model_662/tf.nn.convolution_1562/convolution/filter", "shape": [3, 3, 1, 1], "dtype": "float32"}, {"name": "model_662/tf.nn.convolution_1563/convolution/filter", "shape": [3, 3, 1, 1], "dtype": "float32"}, {"name": "model_662/tf.nn.convolution_1564/convolution/filter", "shape": [3, 3, 1, 1], "dtype": "float32"}, {"name": "model_662/tf.nn.convolution_1565/convolution/filter", "shape": [3, 3, 1, 1], "dtype": "float32"}, {"name": "model_662/tf.nn.convolution_1566/convolution/filter", "shape": [3, 3, 1, 1], "dtype": "float32"}, {"name": "model_662/tf.nn.convolution_1567/convolution/filter", "shape": [3, 3, 1, 1], "dtype": "float32"}, {"name": "model_662/tf.nn.convolution_1568/convolution/filter", "shape": [3, 3, 1, 1], "dtype": "float32"}, {"name": "model_662/tf.nn.convolution_1569/convolution/filter", "shape": [3, 3, 1, 1], "dtype": "float32"}, {"name": "model_662/tf.nn.convolution_1570/convolution/filter", "shape": [3, 3, 1, 1], "dtype": "float32"}, {"name": "model_662/tf.nn.convolution_1571/convolution/filter", "shape": [3, 3, 1, 1], "dtype": "float32"}, {"name": "model_662/tf.nn.convolution_1572/convolution/filter", "shape": [3, 3, 1, 1], "dtype": "float32"}, {"name": "model_662/tf.nn.convolution_1573/convolution/filter", "shape": [3, 3, 1, 1], "dtype": "float32"}, {"name": "model_662/tf.nn.convolution_1574/convolution/filter", "shape": [3, 3, 1, 1], "dtype": "float32"}, {"name": "model_662/tf.nn.convolution_1575/convolution/filter", "shape": [3, 3, 1, 1], "dtype": "float32"}, {"name": "model_662/tf.nn.convolution_1576/convolution/filter", "shape": [3, 3, 1, 1], "dtype": "float32"}, {"name": "model_662/tf.nn.convolution_1577/convolution/filter", "shape": [3, 3, 1, 1], "dtype": "float32"}, {"name": "model_662/tf.nn.convolution_1578/convolution/filter", "shape": [3, 3, 1, 1], "dtype": "float32"}, {"name": "model_662/tf.nn.convolution_1579/convolution/filter", "shape": [3, 3, 1, 1], "dtype": "float32"}, {"name": "model_662/tf.nn.convolution_1580/convolution/filter", "shape": [3, 3, 1, 1], "dtype": "float32"}, {"name": "model_662/tf.nn.convolution_1581/convolution/filter", "shape": [3, 3, 1, 1], "dtype": "float32"}, {"name": "model_662/tf.nn.convolution_1582/convolution/filter", "shape": [3, 3, 1, 1], "dtype": "float32"}, {"name": "model_662/tf.nn.convolution_1583/convolution/filter", "shape": [3, 3, 1, 1], "dtype": "float32"}, {"name": "model_662/tf.nn.convolution_1584/convolution/filter", "shape": [3, 3, 1, 1], "dtype": "float32"}, {"name": "model_662/tf.nn.convolution_1585/convolution/filter", "shape": [3, 3, 1, 1], "dtype": "float32"}, {"name": "model_662/tf.nn.convolution_1586/convolution/filter", "shape": [3, 3, 1, 1], "dtype": "float32"}, {"name": "model_662/tf.nn.convolution_1587/convolution/filter", "shape": [3, 3, 1, 1], "dtype": "float32"}, {"name": "model_662/tf.nn.convolution_1588/convolution/filter", "shape": [3, 3, 1, 1], "dtype": "float32"}, {"name": "model_662/tf.nn.convolution_1589/convolution/filter", "shape": [3, 3, 1, 1], "dtype": "float32"}, {"name": "model_662/tf.nn.convolution_1590/convolution/filter", "shape": [3, 3, 1, 1], "dtype": "float32"}, {"name": "model_662/tf.nn.convolution_1591/convolution/filter", "shape": [3, 3, 1, 1], "dtype": "float32"}, {"name": "model_662/tf.nn.convolution_1592/convolution/filter", "shape": [3, 3, 1, 1], "dtype": "float32"}, {"name": "model_662/tf.nn.convolution_1593/convolution/filter", "shape": [3, 3, 1, 1], "dtype": "float32"}, {"name": "model_662/tf.nn.convolution_1594/convolution/filter", "shape": [3, 3, 1, 1], "dtype": "float32"}, {"name": "model_662/tf.nn.convolution_1595/convolution/filter", "shape": [3, 3, 1, 1], "dtype": "float32"}, {"name": "model_662/tf.nn.convolution_1596/convolution/filter", "shape": [3, 3, 1, 1], "dtype": "float32"}, {"name": "model_662/tf.nn.convolution_1597/convolution/filter", "shape": [3, 3, 1, 1], "dtype": "float32"}, {"name": "model_662/tf.nn.convolution_1598/convolution/filter", "shape": [3, 3, 1, 1], "dtype": "float32"}, {"name": "model_662/tf.nn.convolution_1599/convolution/filter", "shape": [3, 3, 1, 1], "dtype": "float32"}, {"name": "model_662/tf.nn.convolution_1600/convolution/filter", "shape": [3, 3, 1, 1], "dtype": "float32"}, {"name": "model_662/tf.split_8/split/split_dim", "shape": [], "dtype": "int32"}, {"name": "model_662/tf.strided_slice_125/ones_like/tensor", "shape": [4], "dtype": "int32"}, {"name": "model_662/tf.strided_slice_125/StridedSlice/end", "shape": [4], "dtype": "int32"}, {"name": "model_662/tf.strided_slice_125/ones_like", "shape": [4], "dtype": "int32"}, {"name": "model_662/tf.nn.convolution_1464/convolution/filter", "shape": [1, 1, 128, 64], "dtype": "float32"}, {"name": "model_662/tf.math.add_667/Add/y", "shape": [64], "dtype": "float32"}, {"name": "model_662/tf.nn.convolution_1466/convolution/filter", "shape": [3, 3, 64, 64], "dtype": "float32"}, {"name": "model_662/tf.math.add_669/Add/y", "shape": [64], "dtype": "float32"}, {"name": "model_662/tf.nn.convolution_1467/convolution/filter", "shape": [3, 3, 64, 64], "dtype": "float32"}, {"name": "model_662/tf.math.add_670/Add/y", "shape": [64], "dtype": "float32"}, {"name": "model_662/tf.nn.convolution_1468/convolution/filter", "shape": [3, 3, 64, 64], "dtype": "float32"}, {"name": "model_662/tf.math.add_673/Add/y", "shape": [64], "dtype": "float32"}, {"name": "model_662/tf.nn.convolution_1469/convolution/filter", "shape": [3, 3, 64, 64], "dtype": "float32"}, {"name": "model_662/tf.math.add_674/Add/y", "shape": [64], "dtype": "float32"}, {"name": "model_662/tf.strided_slice_123/ones_like/tensor", "shape": [4], "dtype": "int32"}, {"name": "model_662/tf.strided_slice_123/StridedSlice/end", "shape": [4], "dtype": "int32"}, {"name": "model_662/tf.strided_slice_123/ones_like", "shape": [4], "dtype": "int32"}, {"name": "model_662/tf.nn.convolution_1454/convolution/filter", "shape": [1, 1, 64, 32], "dtype": "float32"}, {"name": "model_662/tf.math.add_653/Add/y", "shape": [32], "dtype": "float32"}, {"name": "model_662/tf.nn.convolution_1456/convolution/filter", "shape": [3, 3, 32, 32], "dtype": "float32"}, {"name": "model_662/tf.math.add_655/Add/y", "shape": [32], "dtype": "float32"}, {"name": "model_662/tf.nn.convolution_1457/convolution/filter", "shape": [3, 3, 32, 32], "dtype": "float32"}, {"name": "model_662/tf.math.add_656/Add/y", "shape": [32], "dtype": "float32"}, {"name": "model_662/tf.nn.convolution_1458/convolution/filter", "shape": [3, 3, 32, 32], "dtype": "float32"}, {"name": "model_662/tf.math.add_659/Add/y", "shape": [32], "dtype": "float32"}, {"name": "model_662/tf.nn.convolution_1459/convolution/filter", "shape": [3, 3, 32, 32], "dtype": "float32"}, {"name": "model_662/tf.math.add_660/Add/y", "shape": [32], "dtype": "float32"}, {"name": "model_662/tf.strided_slice_121/ones_like/tensor", "shape": [4], "dtype": "int32"}, {"name": "model_662/tf.strided_slice_121/StridedSlice/end", "shape": [4], "dtype": "int32"}, {"name": "model_662/tf.strided_slice_121/ones_like", "shape": [4], "dtype": "int32"}, {"name": "model_662/tf.strided_slice_119/ones_like/tensor", "shape": [4], "dtype": "int32"}, {"name": "model_662/tf.strided_slice_119/StridedSlice/end", "shape": [4], "dtype": "int32"}, {"name": "model_662/tf.strided_slice_119/ones_like", "shape": [4], "dtype": "int32"}, {"name": "model_662/tf.compat.v1.pad_28/Pad/paddings", "shape": [4, 2], "dtype": "int32"}, {"name": "model_662/tf.nn.convolution_1441/convolution/filter", "shape": [3, 3, 3, 16], "dtype": "float32"}, {"name": "model_662/tf.math.add_636/Add/y", "shape": [16], "dtype": "float32"}, {"name": "model_662/tf.compat.v1.pad_29/Pad/paddings", "shape": [4, 2], "dtype": "int32"}, {"name": "model_662/tf.nn.convolution_1442/convolution/filter", "shape": [3, 3, 16, 32], "dtype": "float32"}, {"name": "model_662/tf.math.add_637/Add/y", "shape": [32], "dtype": "float32"}, {"name": "model_662/tf.nn.convolution_1443/convolution/filter", "shape": [1, 1, 32, 32], "dtype": "float32"}, {"name": "model_662/tf.math.add_638/Add/y", "shape": [32], "dtype": "float32"}, {"name": "model_662/tf.strided_slice_120/ones_like/tensor", "shape": [4], "dtype": "int32"}, {"name": "model_662/tf.strided_slice_120/StridedSlice/end", "shape": [4], "dtype": "int32"}, {"name": "model_662/tf.strided_slice_120/ones_like", "shape": [4], "dtype": "int32"}, {"name": "model_662/tf.nn.convolution_1444/convolution/filter", "shape": [3, 3, 16, 8], "dtype": "float32"}, {"name": "model_662/tf.math.add_639/Add/y", "shape": [8], "dtype": "float32"}, {"name": "model_662/tf.nn.convolution_1445/convolution/filter", "shape": [3, 3, 8, 16], "dtype": "float32"}, {"name": "model_662/tf.math.add_640/Add/y", "shape": [16], "dtype": "float32"}, {"name": "model_662/tf.concat_171/concat/axis", "shape": [], "dtype": "int32"}, {"name": "model_662/tf.nn.convolution_1446/convolution/filter", "shape": [1, 1, 48, 64], "dtype": "float32"}, {"name": "model_662/tf.math.add_643/Add/y", "shape": [64], "dtype": "float32"}, {"name": "model_662/tf.compat.v1.pad_30/Pad/paddings", "shape": [4, 2], "dtype": "int32"}, {"name": "model_662/tf.nn.convolution_1447/convolution/filter", "shape": [3, 3, 64, 64], "dtype": "float32"}, {"name": "model_662/tf.math.add_644/Add/y", "shape": [64], "dtype": "float32"}, {"name": "model_662/tf.nn.convolution_1448/convolution/filter", "shape": [1, 1, 64, 64], "dtype": "float32"}, {"name": "model_662/tf.math.add_645/Add/y", "shape": [64], "dtype": "float32"}, {"name": "model_662/tf.strided_slice_122/ones_like/tensor", "shape": [4], "dtype": "int32"}, {"name": "model_662/tf.strided_slice_122/StridedSlice/end", "shape": [4], "dtype": "int32"}, {"name": "model_662/tf.strided_slice_122/ones_like", "shape": [4], "dtype": "int32"}, {"name": "model_662/tf.nn.convolution_1449/convolution/filter", "shape": [3, 3, 32, 16], "dtype": "float32"}, {"name": "model_662/tf.math.add_646/Add/y", "shape": [16], "dtype": "float32"}, {"name": "model_662/tf.nn.convolution_1450/convolution/filter", "shape": [3, 3, 16, 32], "dtype": "float32"}, {"name": "model_662/tf.math.add_647/Add/y", "shape": [32], "dtype": "float32"}, {"name": "model_662/tf.concat_172/concat/axis", "shape": [], "dtype": "int32"}, {"name": "model_662/tf.nn.convolution_1451/convolution/filter", "shape": [1, 1, 96, 128], "dtype": "float32"}, {"name": "model_662/tf.math.add_650/Add/y", "shape": [128], "dtype": "float32"}, {"name": "model_662/tf.compat.v1.pad_31/Pad/paddings", "shape": [4, 2], "dtype": "int32"}, {"name": "model_662/tf.nn.convolution_1452/convolution/filter", "shape": [3, 3, 128, 128], "dtype": "float32"}, {"name": "model_662/tf.math.add_651/Add/y", "shape": [128], "dtype": "float32"}, {"name": "model_662/tf.nn.convolution_1453/convolution/filter", "shape": [1, 1, 128, 128], "dtype": "float32"}, {"name": "model_662/tf.math.add_652/Add/y", "shape": [128], "dtype": "float32"}, {"name": "model_662/tf.strided_slice_124/ones_like/tensor", "shape": [4], "dtype": "int32"}, {"name": "model_662/tf.strided_slice_124/StridedSlice/end", "shape": [4], "dtype": "int32"}, {"name": "model_662/tf.strided_slice_124/ones_like", "shape": [4], "dtype": "int32"}, {"name": "model_662/tf.nn.convolution_1455/convolution/filter", "shape": [1, 1, 64, 32], "dtype": "float32"}, {"name": "model_662/tf.math.add_654/Add/y", "shape": [32], "dtype": "float32"}, {"name": "model_662/tf.concat_173/concat/axis", "shape": [], "dtype": "int32"}, {"name": "model_662/tf.nn.convolution_1460/convolution/filter", "shape": [1, 1, 64, 64], "dtype": "float32"}, {"name": "model_662/tf.math.add_663/Add/y", "shape": [64], "dtype": "float32"}, {"name": "model_662/tf.concat_174/concat/axis", "shape": [], "dtype": "int32"}, {"name": "model_662/tf.nn.convolution_1461/convolution/filter", "shape": [1, 1, 192, 128], "dtype": "float32"}, {"name": "model_662/tf.math.add_664/Add/y", "shape": [128], "dtype": "float32"}, {"name": "model_662/tf.compat.v1.pad_32/Pad/paddings", "shape": [4, 2], "dtype": "int32"}, {"name": "model_662/tf.nn.convolution_1462/convolution/filter", "shape": [3, 3, 128, 256], "dtype": "float32"}, {"name": "model_662/tf.math.add_665/Add/y", "shape": [256], "dtype": "float32"}, {"name": "model_662/tf.nn.convolution_1463/convolution/filter", "shape": [1, 1, 256, 256], "dtype": "float32"}, {"name": "model_662/tf.math.add_666/Add/y", "shape": [256], "dtype": "float32"}, {"name": "model_662/tf.strided_slice_126/ones_like/tensor", "shape": [4], "dtype": "int32"}, {"name": "model_662/tf.strided_slice_126/StridedSlice/end", "shape": [4], "dtype": "int32"}, {"name": "model_662/tf.strided_slice_126/ones_like", "shape": [4], "dtype": "int32"}, {"name": "model_662/tf.nn.convolution_1465/convolution/filter", "shape": [1, 1, 128, 64], "dtype": "float32"}, {"name": "model_662/tf.math.add_668/Add/y", "shape": [64], "dtype": "float32"}, {"name": "model_662/tf.concat_175/concat/axis", "shape": [], "dtype": "int32"}, {"name": "model_662/tf.nn.convolution_1470/convolution/filter", "shape": [1, 1, 128, 128], "dtype": "float32"}, {"name": "model_662/tf.math.add_677/Add/y", "shape": [128], "dtype": "float32"}, {"name": "model_662/tf.concat_176/concat/axis", "shape": [], "dtype": "int32"}, {"name": "model_662/tf.nn.convolution_1471/convolution/filter", "shape": [1, 1, 384, 256], "dtype": "float32"}, {"name": "model_662/tf.math.add_678/Add/y", "shape": [256], "dtype": "float32"}, {"name": "model_662/tf.nn.convolution_1472/convolution/filter", "shape": [1, 1, 256, 256], "dtype": "float32"}, {"name": "model_662/tf.math.add_679/Add/y", "shape": [256], "dtype": "float32"}, {"name": "model_662/tf.strided_slice_128/StridedSlice/begin", "shape": [4], "dtype": "int32"}, {"name": "model_662/tf.strided_slice_128/StridedSlice/end", "shape": [4], "dtype": "int32"}, {"name": "model_662/tf.strided_slice_128/ones_like", "shape": [4], "dtype": "int32"}, {"name": "model_662/tf.nn.convolution_1473/convolution/filter", "shape": [1, 1, 128, 256], "dtype": "float32"}, {"name": "model_662/tf.math.add_680/Add/y", "shape": [256], "dtype": "float32"}, {"name": "model_662/tf.compat.v1.transpose_1337/transpose/perm", "shape": [4], "dtype": "int32"}, {"name": "model_662/tf.reshape_386/Reshape/shape", "shape": [4], "dtype": "int32"}, {"name": "model_662/tf.strided_slice_131/StridedSlice/begin", "shape": [4], "dtype": "int32"}, {"name": "model_662/tf.strided_slice_131/StridedSlice/end", "shape": [4], "dtype": "int32"}, {"name": "model_662/tf.strided_slice_131/ones_like", "shape": [4], "dtype": "int32"}, {"name": "model_662/tf.reshape_389/Reshape/shape", "shape": [4], "dtype": "int32"}, {"name": "model_662/tf.compat.v1.transpose_1345/transpose/perm", "shape": [4], "dtype": "int32"}, {"name": "model_662/tf.nn.convolution_1601/convolution/filter", "shape": [3, 3, 1, 1], "dtype": "float32"}, {"name": "model_662/tf.concat_177/concat/axis", "shape": [], "dtype": "int32"}, {"name": "model_662/tf.nn.convolution_1602/convolution/filter", "shape": [1, 1, 128, 128], "dtype": "float32"}, {"name": "model_662/tf.math.add_684/Add/y", "shape": [128], "dtype": "float32"}, {"name": "model_662/tf.nn.convolution_1603/convolution/filter", "shape": [1, 1, 128, 256], "dtype": "float32"}, {"name": "model_662/tf.math.add_687/Add/y", "shape": [256], "dtype": "float32"}, {"name": "model_662/tf.nn.convolution_1604/convolution/filter", "shape": [1, 1, 256, 128], "dtype": "float32"}, {"name": "model_662/tf.concat_178/concat/axis", "shape": [], "dtype": "int32"}, {"name": "model_662/tf.nn.convolution_1605/convolution/filter", "shape": [1, 1, 256, 256], "dtype": "float32"}, {"name": "model_662/tf.math.add_691/Add/y", "shape": [256], "dtype": "float32"}, {"name": "model_662/tf.nn.convolution_1606/convolution/filter", "shape": [1, 1, 256, 1280], "dtype": "float32"}, {"name": "model_662/tf.math.add_692/Add/y", "shape": [1280], "dtype": "float32"}, {"name": "model_662/tf.math.reduce_mean/Mean/reduction_indices", "shape": [2], "dtype": "int32"}, {"name": "model_662/tf.compat.v1.transpose_1359/transpose/perm", "shape": [4], "dtype": "int32"}, {"name": "model_662/tf.reshape_393/Reshape/shape", "shape": [2], "dtype": "int32"}, {"name": "model_662/tf.linalg.matmul_36/MatMul/b", "shape": [1280, 1000], "dtype": "float32"}, {"name": "model_662/tf.__operators__.add_4/AddV2/y", "shape": [1000], "dtype": "float32"}]}]}