{"format": "graph-model", "generatedBy": "2.15.1", "convertedBy": "TensorFlow.js Converter v4.22.0", "signature": {"outputs": {"Identity": {"name": "Identity"}}}, "modelTopology": {"node": [{"name": "model_648/tf.strided_slice_116/StridedSlice/begin", "op": "Const", "attr": {"value": {"tensor": {"dtype": "DT_INT32", "tensorShape": {"dim": [{"size": "3"}]}}}, "dtype": {"type": "DT_INT32"}}}, {"name": "model_648/tf.strided_slice_116/StridedSlice/end", "op": "Const", "attr": {"value": {"tensor": {"dtype": "DT_INT32", "tensorShape": {"dim": [{"size": "3"}]}}}, "dtype": {"type": "DT_INT32"}}}, {"name": "model_648/tf.strided_slice_116/ones_like", "op": "Const", "attr": {"value": {"tensor": {"dtype": "DT_INT32", "tensorShape": {"dim": [{"size": "3"}]}}}, "dtype": {"type": "DT_INT32"}}}, {"name": "model_648/tf.tile_299/Tile/multiples", "op": "Const", "attr": {"value": {"tensor": {"dtype": "DT_INT64", "tensorShape": {"dim": [{"size": "3"}]}}}, "dtype": {"type": "DT_INT64"}}}, {"name": "model_648/tf.math.add_634/Add/y", "op": "Const", "attr": {"value": {"tensor": {"dtype": "DT_INT64", "tensorShape": {}}}, "dtype": {"type": "DT_INT64"}}}, {"name": "model_648/tf.expand_dims_117/ExpandDims/dim", "op": "Const", "attr": {"value": {"tensor": {"dtype": "DT_INT32", "tensorShape": {}}}, "dtype": {"type": "DT_INT32"}}}, {"name": "ConstantFolding/model_648/tf.concat_162/concat_partial_split_1", "op": "Const", "attr": {"value": {"tensor": {"dtype": "DT_INT64", "tensorShape": {"dim": [{"size": "300"}, {"size": "1"}, {"size": "4"}, {"size": "2"}]}}}, "dtype": {"type": "DT_INT64"}}}, {"name": "model_648/tf.concat_162/concat/axis", "op": "Const", "attr": {"value": {"tensor": {"dtype": "DT_INT32", "tensorShape": {}}}, "dtype": {"type": "DT_INT32"}}}, {"name": "model_648/tf.tensor_scatter_nd_update_39/TensorScatterUpdate", "op": "Const", "attr": {"value": {"tensor": {"dtype": "DT_INT32", "tensorShape": {"dim": [{"size": "3"}]}}}, "dtype": {"type": "DT_INT32"}}}, {"name": "model_648/tf.reshape_340/Reshape/shape", "op": "Const", "attr": {"value": {"tensor": {"dtype": "DT_INT32", "tensorShape": {"dim": [{"size": "3"}]}}}, "dtype": {"type": "DT_INT32"}}}, {"name": "model_648/tf.math.floormod_16/FloorMod/y", "op": "Const", "attr": {"value": {"tensor": {"dtype": "DT_INT64", "tensorShape": {}}}, "dtype": {"type": "DT_INT64"}}}, {"name": "model_648/tf.reshape_341/Reshape/shape", "op": "Const", "attr": {"value": {"tensor": {"dtype": "DT_INT32", "tensorShape": {"dim": [{"size": "3"}]}}}, "dtype": {"type": "DT_INT32"}}}, {"name": "model_648/tf.strided_slice_118/StridedSlice/begin", "op": "Const", "attr": {"value": {"tensor": {"dtype": "DT_INT32", "tensorShape": {"dim": [{"size": "3"}]}}}, "dtype": {"type": "DT_INT32"}}}, {"name": "model_648/tf.strided_slice_118/StridedSlice/end", "op": "Const", "attr": {"value": {"tensor": {"dtype": "DT_INT32", "tensorShape": {"dim": [{"size": "3"}]}}}, "dtype": {"type": "DT_INT32"}}}, {"name": "model_648/tf.strided_slice_118/ones_like", "op": "Const", "attr": {"value": {"tensor": {"dtype": "DT_INT32", "tensorShape": {"dim": [{"size": "3"}]}}}, "dtype": {"type": "DT_INT32"}}}, {"name": "model_648/tf.reshape_332/Reshape/shape", "op": "Const", "attr": {"value": {"tensor": {"dtype": "DT_INT32", "tensorShape": {"dim": [{"size": "2"}]}}}, "dtype": {"type": "DT_INT32"}}}, {"name": "model_648/tf.strided_slice_114/StridedSlice/begin", "op": "Const", "attr": {"value": {"tensor": {"dtype": "DT_INT32", "tensorShape": {"dim": [{"size": "3"}]}}}, "dtype": {"type": "DT_INT32"}}}, {"name": "model_648/tf.strided_slice_114/StridedSlice/end", "op": "Const", "attr": {"value": {"tensor": {"dtype": "DT_INT32", "tensorShape": {"dim": [{"size": "3"}]}}}, "dtype": {"type": "DT_INT32"}}}, {"name": "model_648/tf.strided_slice_114/ones_like", "op": "Const", "attr": {"value": {"tensor": {"dtype": "DT_INT32", "tensorShape": {"dim": [{"size": "3"}]}}}, "dtype": {"type": "DT_INT32"}}}, {"name": "ConstantFolding/model_648/tf.math.divide_2/truediv_recip", "op": "Const", "attr": {"value": {"tensor": {"dtype": "DT_FLOAT", "tensorShape": {}}}, "dtype": {"type": "DT_FLOAT"}}}, {"name": "model_648/tf.strided_slice_115/StridedSlice/begin", "op": "Const", "attr": {"value": {"tensor": {"dtype": "DT_INT32", "tensorShape": {"dim": [{"size": "3"}]}}}, "dtype": {"type": "DT_INT32"}}}, {"name": "model_648/tf.strided_slice_115/StridedSlice/end", "op": "Const", "attr": {"value": {"tensor": {"dtype": "DT_INT32", "tensorShape": {"dim": [{"size": "3"}]}}}, "dtype": {"type": "DT_INT32"}}}, {"name": "model_648/tf.strided_slice_115/ones_like", "op": "Const", "attr": {"value": {"tensor": {"dtype": "DT_INT32", "tensorShape": {"dim": [{"size": "3"}]}}}, "dtype": {"type": "DT_INT32"}}}, {"name": "model_648/tf.concat_148/concat/axis", "op": "Const", "attr": {"value": {"tensor": {"dtype": "DT_INT32", "tensorShape": {}}}, "dtype": {"type": "DT_INT32"}}}, {"name": "model_648/tf.math.add_632/Add/y", "op": "Const", "attr": {"value": {"tensor": {"dtype": "DT_FLOAT", "tensorShape": {"dim": [{"size": "1"}, {"size": "2"}, {"size": "8400"}]}}}, "dtype": {"type": "DT_FLOAT"}}}, {"name": "model_648/tf.strided_slice_112/StridedSlice/begin", "op": "Const", "attr": {"value": {"tensor": {"dtype": "DT_INT32", "tensorShape": {"dim": [{"size": "3"}]}}}, "dtype": {"type": "DT_INT32"}}}, {"name": "model_648/tf.strided_slice_112/StridedSlice/end", "op": "Const", "attr": {"value": {"tensor": {"dtype": "DT_INT32", "tensorShape": {"dim": [{"size": "3"}]}}}, "dtype": {"type": "DT_INT32"}}}, {"name": "model_648/tf.strided_slice_112/ones_like", "op": "Const", "attr": {"value": {"tensor": {"dtype": "DT_INT32", "tensorShape": {"dim": [{"size": "3"}]}}}, "dtype": {"type": "DT_INT32"}}}, {"name": "model_648/tf.nn.convolution_1268/convolution/filter", "op": "Const", "attr": {"value": {"tensor": {"dtype": "DT_FLOAT", "tensorShape": {"dim": [{"size": "3"}, {"size": "3"}, {"size": "64"}, {"size": "16"}]}}}, "dtype": {"type": "DT_FLOAT"}}}, {"name": "model_648/tf.math.add_566/Add/y", "op": "Const", "attr": {"value": {"tensor": {"dtype": "DT_FLOAT", "tensorShape": {"dim": [{"size": "16"}]}}}, "dtype": {"type": "DT_FLOAT"}}}, {"name": "model_648/tf.nn.convolution_1270/convolution/filter", "op": "Const", "attr": {"value": {"tensor": {"dtype": "DT_FLOAT", "tensorShape": {"dim": [{"size": "3"}, {"size": "3"}, {"size": "16"}, {"size": "16"}]}}}, "dtype": {"type": "DT_FLOAT"}}}, {"name": "model_648/tf.math.add_569/Add/y", "op": "Const", "attr": {"value": {"tensor": {"dtype": "DT_FLOAT", "tensorShape": {"dim": [{"size": "16"}]}}}, "dtype": {"type": "DT_FLOAT"}}}, {"name": "model_648/tf.nn.convolution_1274/convolution/filter", "op": "Const", "attr": {"value": {"tensor": {"dtype": "DT_FLOAT", "tensorShape": {"dim": [{"size": "1"}, {"size": "1"}, {"size": "16"}, {"size": "4"}]}}}, "dtype": {"type": "DT_FLOAT"}}}, {"name": "model_648/tf.math.add_573/Add/y", "op": "Const", "attr": {"value": {"tensor": {"dtype": "DT_FLOAT", "tensorShape": {"dim": [{"size": "4"}]}}}, "dtype": {"type": "DT_FLOAT"}}}, {"name": "model_648/tf.compat.v1.transpose_1043/transpose/perm", "op": "Const", "attr": {"value": {"tensor": {"dtype": "DT_INT32", "tensorShape": {"dim": [{"size": "4"}]}}}, "dtype": {"type": "DT_INT32"}}}, {"name": "model_648/tf.reshape_297/Reshape/shape", "op": "Const", "attr": {"value": {"tensor": {"dtype": "DT_INT32", "tensorShape": {"dim": [{"size": "3"}]}}}, "dtype": {"type": "DT_INT32"}}}, {"name": "model_648/tf.nn.convolution_1287/convolution/filter", "op": "Const", "attr": {"value": {"tensor": {"dtype": "DT_FLOAT", "tensorShape": {"dim": [{"size": "3"}, {"size": "3"}, {"size": "128"}, {"size": "16"}]}}}, "dtype": {"type": "DT_FLOAT"}}}, {"name": "model_648/tf.math.add_591/Add/y", "op": "Const", "attr": {"value": {"tensor": {"dtype": "DT_FLOAT", "tensorShape": {"dim": [{"size": "16"}]}}}, "dtype": {"type": "DT_FLOAT"}}}, {"name": "model_648/tf.nn.convolution_1289/convolution/filter", "op": "Const", "attr": {"value": {"tensor": {"dtype": "DT_FLOAT", "tensorShape": {"dim": [{"size": "3"}, {"size": "3"}, {"size": "16"}, {"size": "16"}]}}}, "dtype": {"type": "DT_FLOAT"}}}, {"name": "model_648/tf.math.add_594/Add/y", "op": "Const", "attr": {"value": {"tensor": {"dtype": "DT_FLOAT", "tensorShape": {"dim": [{"size": "16"}]}}}, "dtype": {"type": "DT_FLOAT"}}}, {"name": "model_648/tf.nn.convolution_1293/convolution/filter", "op": "Const", "attr": {"value": {"tensor": {"dtype": "DT_FLOAT", "tensorShape": {"dim": [{"size": "1"}, {"size": "1"}, {"size": "16"}, {"size": "4"}]}}}, "dtype": {"type": "DT_FLOAT"}}}, {"name": "model_648/tf.math.add_598/Add/y", "op": "Const", "attr": {"value": {"tensor": {"dtype": "DT_FLOAT", "tensorShape": {"dim": [{"size": "4"}]}}}, "dtype": {"type": "DT_FLOAT"}}}, {"name": "model_648/tf.compat.v1.transpose_1078/transpose/perm", "op": "Const", "attr": {"value": {"tensor": {"dtype": "DT_INT32", "tensorShape": {"dim": [{"size": "4"}]}}}, "dtype": {"type": "DT_INT32"}}}, {"name": "model_648/tf.reshape_306/Reshape/shape", "op": "Const", "attr": {"value": {"tensor": {"dtype": "DT_INT32", "tensorShape": {"dim": [{"size": "3"}]}}}, "dtype": {"type": "DT_INT32"}}}, {"name": "model_648/tf.nn.convolution_1432/convolution/filter", "op": "Const", "attr": {"value": {"tensor": {"dtype": "DT_FLOAT", "tensorShape": {"dim": [{"size": "3"}, {"size": "3"}, {"size": "256"}, {"size": "16"}]}}}, "dtype": {"type": "DT_FLOAT"}}}, {"name": "model_648/tf.math.add_619/Add/y", "op": "Const", "attr": {"value": {"tensor": {"dtype": "DT_FLOAT", "tensorShape": {"dim": [{"size": "16"}]}}}, "dtype": {"type": "DT_FLOAT"}}}, {"name": "model_648/tf.nn.convolution_1434/convolution/filter", "op": "Const", "attr": {"value": {"tensor": {"dtype": "DT_FLOAT", "tensorShape": {"dim": [{"size": "3"}, {"size": "3"}, {"size": "16"}, {"size": "16"}]}}}, "dtype": {"type": "DT_FLOAT"}}}, {"name": "model_648/tf.math.add_622/Add/y", "op": "Const", "attr": {"value": {"tensor": {"dtype": "DT_FLOAT", "tensorShape": {"dim": [{"size": "16"}]}}}, "dtype": {"type": "DT_FLOAT"}}}, {"name": "model_648/tf.nn.convolution_1437/convolution/filter", "op": "Const", "attr": {"value": {"tensor": {"dtype": "DT_FLOAT", "tensorShape": {"dim": [{"size": "1"}, {"size": "1"}, {"size": "16"}, {"size": "4"}]}}}, "dtype": {"type": "DT_FLOAT"}}}, {"name": "model_648/tf.math.add_625/Add/y", "op": "Const", "attr": {"value": {"tensor": {"dtype": "DT_FLOAT", "tensorShape": {"dim": [{"size": "4"}]}}}, "dtype": {"type": "DT_FLOAT"}}}, {"name": "model_648/tf.compat.v1.transpose_1127/transpose/perm", "op": "Const", "attr": {"value": {"tensor": {"dtype": "DT_INT32", "tensorShape": {"dim": [{"size": "4"}]}}}, "dtype": {"type": "DT_INT32"}}}, {"name": "model_648/tf.reshape_324/Reshape/shape", "op": "Const", "attr": {"value": {"tensor": {"dtype": "DT_INT32", "tensorShape": {"dim": [{"size": "3"}]}}}, "dtype": {"type": "DT_INT32"}}}, {"name": "model_648/tf.concat_142/concat/axis", "op": "Const", "attr": {"value": {"tensor": {"dtype": "DT_INT32", "tensorShape": {}}}, "dtype": {"type": "DT_INT32"}}}, {"name": "model_648/tf.strided_slice_113/StridedSlice/begin", "op": "Const", "attr": {"value": {"tensor": {"dtype": "DT_INT32", "tensorShape": {"dim": [{"size": "3"}]}}}, "dtype": {"type": "DT_INT32"}}}, {"name": "model_648/tf.strided_slice_113/StridedSlice/end", "op": "Const", "attr": {"value": {"tensor": {"dtype": "DT_INT32", "tensorShape": {"dim": [{"size": "3"}]}}}, "dtype": {"type": "DT_INT32"}}}, {"name": "model_648/tf.strided_slice_113/ones_like", "op": "Const", "attr": {"value": {"tensor": {"dtype": "DT_INT32", "tensorShape": {"dim": [{"size": "3"}]}}}, "dtype": {"type": "DT_INT32"}}}, {"name": "model_648/tf.concat_152/concat/axis", "op": "Const", "attr": {"value": {"tensor": {"dtype": "DT_INT32", "tensorShape": {}}}, "dtype": {"type": "DT_INT32"}}}, {"name": "model_648/tf.math.multiply_1735/Mul/y", "op": "Const", "attr": {"value": {"tensor": {"dtype": "DT_FLOAT", "tensorShape": {"dim": [{"size": "1"}, {"size": "1"}, {"size": "8400"}]}}}, "dtype": {"type": "DT_FLOAT"}}}, {"name": "model_648/tf.compat.v1.nn.depthwise_conv2d_22/depthwise/filter_in", "op": "Const", "attr": {"value": {"tensor": {"dtype": "DT_FLOAT", "tensorShape": {"dim": [{"size": "3"}, {"size": "3"}, {"size": "64"}, {"size": "1"}]}}}, "dtype": {"type": "DT_FLOAT"}}}, {"name": "model_648/tf.math.add_567/Add/y", "op": "Const", "attr": {"value": {"tensor": {"dtype": "DT_FLOAT", "tensorShape": {"dim": [{"size": "64"}]}}}, "dtype": {"type": "DT_FLOAT"}}}, {"name": "model_648/tf.nn.convolution_1271/convolution/filter", "op": "Const", "attr": {"value": {"tensor": {"dtype": "DT_FLOAT", "tensorShape": {"dim": [{"size": "1"}, {"size": "1"}, {"size": "64"}, {"size": "64"}]}}}, "dtype": {"type": "DT_FLOAT"}}}, {"name": "model_648/tf.math.add_570/Add/y", "op": "Const", "attr": {"value": {"tensor": {"dtype": "DT_FLOAT", "tensorShape": {"dim": [{"size": "64"}]}}}, "dtype": {"type": "DT_FLOAT"}}}, {"name": "model_648/tf.compat.v1.nn.depthwise_conv2d_23/depthwise/filter_in", "op": "Const", "attr": {"value": {"tensor": {"dtype": "DT_FLOAT", "tensorShape": {"dim": [{"size": "3"}, {"size": "3"}, {"size": "64"}, {"size": "1"}]}}}, "dtype": {"type": "DT_FLOAT"}}}, {"name": "model_648/tf.math.add_574/Add/y", "op": "Const", "attr": {"value": {"tensor": {"dtype": "DT_FLOAT", "tensorShape": {"dim": [{"size": "64"}]}}}, "dtype": {"type": "DT_FLOAT"}}}, {"name": "model_648/tf.nn.convolution_1278/convolution/filter", "op": "Const", "attr": {"value": {"tensor": {"dtype": "DT_FLOAT", "tensorShape": {"dim": [{"size": "1"}, {"size": "1"}, {"size": "64"}, {"size": "64"}]}}}, "dtype": {"type": "DT_FLOAT"}}}, {"name": "model_648/tf.math.add_578/Add/y", "op": "Const", "attr": {"value": {"tensor": {"dtype": "DT_FLOAT", "tensorShape": {"dim": [{"size": "64"}]}}}, "dtype": {"type": "DT_FLOAT"}}}, {"name": "model_648/tf.nn.convolution_1280/convolution/filter", "op": "Const", "attr": {"value": {"tensor": {"dtype": "DT_FLOAT", "tensorShape": {"dim": [{"size": "1"}, {"size": "1"}, {"size": "64"}, {"size": "15"}]}}}, "dtype": {"type": "DT_FLOAT"}}}, {"name": "model_648/tf.math.add_580/Add/y", "op": "Const", "attr": {"value": {"tensor": {"dtype": "DT_FLOAT", "tensorShape": {"dim": [{"size": "15"}]}}}, "dtype": {"type": "DT_FLOAT"}}}, {"name": "model_648/tf.compat.v1.transpose_1058/transpose/perm", "op": "Const", "attr": {"value": {"tensor": {"dtype": "DT_INT32", "tensorShape": {"dim": [{"size": "4"}]}}}, "dtype": {"type": "DT_INT32"}}}, {"name": "model_648/tf.reshape_303/Reshape/shape", "op": "Const", "attr": {"value": {"tensor": {"dtype": "DT_INT32", "tensorShape": {"dim": [{"size": "3"}]}}}, "dtype": {"type": "DT_INT32"}}}, {"name": "model_648/tf.compat.v1.nn.depthwise_conv2d_24/depthwise/filter_in", "op": "Const", "attr": {"value": {"tensor": {"dtype": "DT_FLOAT", "tensorShape": {"dim": [{"size": "3"}, {"size": "3"}, {"size": "128"}, {"size": "1"}]}}}, "dtype": {"type": "DT_FLOAT"}}}, {"name": "model_648/tf.math.add_592/Add/y", "op": "Const", "attr": {"value": {"tensor": {"dtype": "DT_FLOAT", "tensorShape": {"dim": [{"size": "128"}]}}}, "dtype": {"type": "DT_FLOAT"}}}, {"name": "model_648/tf.nn.convolution_1290/convolution/filter", "op": "Const", "attr": {"value": {"tensor": {"dtype": "DT_FLOAT", "tensorShape": {"dim": [{"size": "1"}, {"size": "1"}, {"size": "128"}, {"size": "64"}]}}}, "dtype": {"type": "DT_FLOAT"}}}, {"name": "model_648/tf.math.add_595/Add/y", "op": "Const", "attr": {"value": {"tensor": {"dtype": "DT_FLOAT", "tensorShape": {"dim": [{"size": "64"}]}}}, "dtype": {"type": "DT_FLOAT"}}}, {"name": "model_648/tf.compat.v1.nn.depthwise_conv2d_25/depthwise/filter_in", "op": "Const", "attr": {"value": {"tensor": {"dtype": "DT_FLOAT", "tensorShape": {"dim": [{"size": "3"}, {"size": "3"}, {"size": "64"}, {"size": "1"}]}}}, "dtype": {"type": "DT_FLOAT"}}}, {"name": "model_648/tf.math.add_599/Add/y", "op": "Const", "attr": {"value": {"tensor": {"dtype": "DT_FLOAT", "tensorShape": {"dim": [{"size": "64"}]}}}, "dtype": {"type": "DT_FLOAT"}}}, {"name": "model_648/tf.nn.convolution_1296/convolution/filter", "op": "Const", "attr": {"value": {"tensor": {"dtype": "DT_FLOAT", "tensorShape": {"dim": [{"size": "1"}, {"size": "1"}, {"size": "64"}, {"size": "64"}]}}}, "dtype": {"type": "DT_FLOAT"}}}, {"name": "model_648/tf.math.add_602/Add/y", "op": "Const", "attr": {"value": {"tensor": {"dtype": "DT_FLOAT", "tensorShape": {"dim": [{"size": "64"}]}}}, "dtype": {"type": "DT_FLOAT"}}}, {"name": "model_648/tf.nn.convolution_1298/convolution/filter", "op": "Const", "attr": {"value": {"tensor": {"dtype": "DT_FLOAT", "tensorShape": {"dim": [{"size": "1"}, {"size": "1"}, {"size": "64"}, {"size": "15"}]}}}, "dtype": {"type": "DT_FLOAT"}}}, {"name": "model_648/tf.math.add_604/Add/y", "op": "Const", "attr": {"value": {"tensor": {"dtype": "DT_FLOAT", "tensorShape": {"dim": [{"size": "15"}]}}}, "dtype": {"type": "DT_FLOAT"}}}, {"name": "model_648/tf.compat.v1.transpose_1092/transpose/perm", "op": "Const", "attr": {"value": {"tensor": {"dtype": "DT_INT32", "tensorShape": {"dim": [{"size": "4"}]}}}, "dtype": {"type": "DT_INT32"}}}, {"name": "model_648/tf.reshape_312/Reshape/shape", "op": "Const", "attr": {"value": {"tensor": {"dtype": "DT_INT32", "tensorShape": {"dim": [{"size": "3"}]}}}, "dtype": {"type": "DT_INT32"}}}, {"name": "model_648/tf.compat.v1.nn.depthwise_conv2d_26/depthwise/filter_in", "op": "Const", "attr": {"value": {"tensor": {"dtype": "DT_FLOAT", "tensorShape": {"dim": [{"size": "3"}, {"size": "3"}, {"size": "256"}, {"size": "1"}]}}}, "dtype": {"type": "DT_FLOAT"}}}, {"name": "model_648/tf.math.add_620/Add/y", "op": "Const", "attr": {"value": {"tensor": {"dtype": "DT_FLOAT", "tensorShape": {"dim": [{"size": "256"}]}}}, "dtype": {"type": "DT_FLOAT"}}}, {"name": "model_648/tf.nn.convolution_1435/convolution/filter", "op": "Const", "attr": {"value": {"tensor": {"dtype": "DT_FLOAT", "tensorShape": {"dim": [{"size": "1"}, {"size": "1"}, {"size": "256"}, {"size": "64"}]}}}, "dtype": {"type": "DT_FLOAT"}}}, {"name": "model_648/tf.math.add_623/Add/y", "op": "Const", "attr": {"value": {"tensor": {"dtype": "DT_FLOAT", "tensorShape": {"dim": [{"size": "64"}]}}}, "dtype": {"type": "DT_FLOAT"}}}, {"name": "model_648/tf.compat.v1.nn.depthwise_conv2d_27/depthwise/filter_in", "op": "Const", "attr": {"value": {"tensor": {"dtype": "DT_FLOAT", "tensorShape": {"dim": [{"size": "3"}, {"size": "3"}, {"size": "64"}, {"size": "1"}]}}}, "dtype": {"type": "DT_FLOAT"}}}, {"name": "model_648/tf.math.add_626/Add/y", "op": "Const", "attr": {"value": {"tensor": {"dtype": "DT_FLOAT", "tensorShape": {"dim": [{"size": "64"}]}}}, "dtype": {"type": "DT_FLOAT"}}}, {"name": "model_648/tf.nn.convolution_1439/convolution/filter", "op": "Const", "attr": {"value": {"tensor": {"dtype": "DT_FLOAT", "tensorShape": {"dim": [{"size": "1"}, {"size": "1"}, {"size": "64"}, {"size": "64"}]}}}, "dtype": {"type": "DT_FLOAT"}}}, {"name": "model_648/tf.math.add_628/Add/y", "op": "Const", "attr": {"value": {"tensor": {"dtype": "DT_FLOAT", "tensorShape": {"dim": [{"size": "64"}]}}}, "dtype": {"type": "DT_FLOAT"}}}, {"name": "model_648/tf.nn.convolution_1440/convolution/filter", "op": "Const", "attr": {"value": {"tensor": {"dtype": "DT_FLOAT", "tensorShape": {"dim": [{"size": "1"}, {"size": "1"}, {"size": "64"}, {"size": "15"}]}}}, "dtype": {"type": "DT_FLOAT"}}}, {"name": "model_648/tf.math.add_630/Add/y", "op": "Const", "attr": {"value": {"tensor": {"dtype": "DT_FLOAT", "tensorShape": {"dim": [{"size": "15"}]}}}, "dtype": {"type": "DT_FLOAT"}}}, {"name": "model_648/tf.compat.v1.transpose_1139/transpose/perm", "op": "Const", "attr": {"value": {"tensor": {"dtype": "DT_INT32", "tensorShape": {"dim": [{"size": "4"}]}}}, "dtype": {"type": "DT_INT32"}}}, {"name": "model_648/tf.reshape_330/Reshape/shape", "op": "Const", "attr": {"value": {"tensor": {"dtype": "DT_INT32", "tensorShape": {"dim": [{"size": "3"}]}}}, "dtype": {"type": "DT_INT32"}}}, {"name": "model_648/tf.concat_144/concat/axis", "op": "Const", "attr": {"value": {"tensor": {"dtype": "DT_INT32", "tensorShape": {}}}, "dtype": {"type": "DT_INT32"}}}, {"name": "model_648/tf.nn.convolution_1269/convolution/filter", "op": "Const", "attr": {"value": {"tensor": {"dtype": "DT_FLOAT", "tensorShape": {"dim": [{"size": "3"}, {"size": "3"}, {"size": "64"}, {"size": "16"}]}}}, "dtype": {"type": "DT_FLOAT"}}}, {"name": "model_648/tf.math.add_568/Add/y", "op": "Const", "attr": {"value": {"tensor": {"dtype": "DT_FLOAT", "tensorShape": {"dim": [{"size": "16"}]}}}, "dtype": {"type": "DT_FLOAT"}}}, {"name": "model_648/tf.nn.convolution_1272/convolution/filter", "op": "Const", "attr": {"value": {"tensor": {"dtype": "DT_FLOAT", "tensorShape": {"dim": [{"size": "3"}, {"size": "3"}, {"size": "16"}, {"size": "16"}]}}}, "dtype": {"type": "DT_FLOAT"}}}, {"name": "model_648/tf.math.add_571/Add/y", "op": "Const", "attr": {"value": {"tensor": {"dtype": "DT_FLOAT", "tensorShape": {"dim": [{"size": "16"}]}}}, "dtype": {"type": "DT_FLOAT"}}}, {"name": "model_648/tf.nn.convolution_1275/convolution/filter", "op": "Const", "attr": {"value": {"tensor": {"dtype": "DT_FLOAT", "tensorShape": {"dim": [{"size": "1"}, {"size": "1"}, {"size": "16"}, {"size": "1"}]}}}, "dtype": {"type": "DT_FLOAT"}}}, {"name": "model_648/tf.math.add_575/Add/y", "op": "Const", "attr": {"value": {"tensor": {"dtype": "DT_FLOAT", "tensorShape": {"dim": [{"size": "1"}]}}}, "dtype": {"type": "DT_FLOAT"}}}, {"name": "model_648/tf.compat.v1.transpose_1048/transpose/perm", "op": "Const", "attr": {"value": {"tensor": {"dtype": "DT_INT32", "tensorShape": {"dim": [{"size": "4"}]}}}, "dtype": {"type": "DT_INT32"}}}, {"name": "model_648/tf.reshape_300/Reshape/shape", "op": "Const", "attr": {"value": {"tensor": {"dtype": "DT_INT32", "tensorShape": {"dim": [{"size": "3"}]}}}, "dtype": {"type": "DT_INT32"}}}, {"name": "model_648/tf.nn.convolution_1288/convolution/filter", "op": "Const", "attr": {"value": {"tensor": {"dtype": "DT_FLOAT", "tensorShape": {"dim": [{"size": "3"}, {"size": "3"}, {"size": "128"}, {"size": "16"}]}}}, "dtype": {"type": "DT_FLOAT"}}}, {"name": "model_648/tf.math.add_593/Add/y", "op": "Const", "attr": {"value": {"tensor": {"dtype": "DT_FLOAT", "tensorShape": {"dim": [{"size": "16"}]}}}, "dtype": {"type": "DT_FLOAT"}}}, {"name": "model_648/tf.nn.convolution_1291/convolution/filter", "op": "Const", "attr": {"value": {"tensor": {"dtype": "DT_FLOAT", "tensorShape": {"dim": [{"size": "3"}, {"size": "3"}, {"size": "16"}, {"size": "16"}]}}}, "dtype": {"type": "DT_FLOAT"}}}, {"name": "model_648/tf.math.add_596/Add/y", "op": "Const", "attr": {"value": {"tensor": {"dtype": "DT_FLOAT", "tensorShape": {"dim": [{"size": "16"}]}}}, "dtype": {"type": "DT_FLOAT"}}}, {"name": "model_648/tf.nn.convolution_1294/convolution/filter", "op": "Const", "attr": {"value": {"tensor": {"dtype": "DT_FLOAT", "tensorShape": {"dim": [{"size": "1"}, {"size": "1"}, {"size": "16"}, {"size": "1"}]}}}, "dtype": {"type": "DT_FLOAT"}}}, {"name": "model_648/tf.math.add_600/Add/y", "op": "Const", "attr": {"value": {"tensor": {"dtype": "DT_FLOAT", "tensorShape": {"dim": [{"size": "1"}]}}}, "dtype": {"type": "DT_FLOAT"}}}, {"name": "model_648/tf.compat.v1.transpose_1083/transpose/perm", "op": "Const", "attr": {"value": {"tensor": {"dtype": "DT_INT32", "tensorShape": {"dim": [{"size": "4"}]}}}, "dtype": {"type": "DT_INT32"}}}, {"name": "model_648/tf.reshape_309/Reshape/shape", "op": "Const", "attr": {"value": {"tensor": {"dtype": "DT_INT32", "tensorShape": {"dim": [{"size": "3"}]}}}, "dtype": {"type": "DT_INT32"}}}, {"name": "model_648/tf.strided_slice_107/ones_like/tensor", "op": "Const", "attr": {"value": {"tensor": {"dtype": "DT_INT64", "tensorShape": {"dim": [{"size": "4"}]}}}, "dtype": {"type": "DT_INT64"}}}, {"name": "model_648/tf.strided_slice_107/StridedSlice/end", "op": "Const", "attr": {"value": {"tensor": {"dtype": "DT_INT64", "tensorShape": {"dim": [{"size": "4"}]}}}, "dtype": {"type": "DT_INT64"}}}, {"name": "model_648/tf.strided_slice_107/ones_like", "op": "Const", "attr": {"value": {"tensor": {"dtype": "DT_INT64", "tensorShape": {"dim": [{"size": "4"}]}}}, "dtype": {"type": "DT_INT64"}}}, {"name": "model_648/tf.math.add_615/Add/y", "op": "Const", "attr": {"value": {"tensor": {"dtype": "DT_FLOAT", "tensorShape": {"dim": [{"size": "128"}]}}}, "dtype": {"type": "DT_FLOAT"}}}, {"name": "model_648/tf.math.add_611/Add/y", "op": "Const", "attr": {"value": {"tensor": {"dtype": "DT_FLOAT", "tensorShape": {"dim": [{"size": "128"}]}}}, "dtype": {"type": "DT_FLOAT"}}}, {"name": "model_648/tf.math.add_608/Add/y", "op": "Const", "attr": {"value": {"tensor": {"dtype": "DT_FLOAT", "tensorShape": {"dim": [{"size": "128"}]}}}, "dtype": {"type": "DT_FLOAT"}}}, {"name": "model_648/tf.strided_slice_109/StridedSlice/begin", "op": "Const", "attr": {"value": {"tensor": {"dtype": "DT_INT32", "tensorShape": {"dim": [{"size": "4"}]}}}, "dtype": {"type": "DT_INT32"}}}, {"name": "model_648/tf.strided_slice_109/StridedSlice/end", "op": "Const", "attr": {"value": {"tensor": {"dtype": "DT_INT32", "tensorShape": {"dim": [{"size": "4"}]}}}, "dtype": {"type": "DT_INT32"}}}, {"name": "model_648/tf.strided_slice_109/ones_like", "op": "Const", "attr": {"value": {"tensor": {"dtype": "DT_INT32", "tensorShape": {"dim": [{"size": "4"}]}}}, "dtype": {"type": "DT_INT32"}}}, {"name": "model_648/tf.strided_slice_110/StridedSlice/begin", "op": "Const", "attr": {"value": {"tensor": {"dtype": "DT_INT32", "tensorShape": {"dim": [{"size": "4"}]}}}, "dtype": {"type": "DT_INT32"}}}, {"name": "model_648/tf.strided_slice_110/StridedSlice/end", "op": "Const", "attr": {"value": {"tensor": {"dtype": "DT_INT32", "tensorShape": {"dim": [{"size": "4"}]}}}, "dtype": {"type": "DT_INT32"}}}, {"name": "model_648/tf.strided_slice_110/ones_like", "op": "Const", "attr": {"value": {"tensor": {"dtype": "DT_INT32", "tensorShape": {"dim": [{"size": "4"}]}}}, "dtype": {"type": "DT_INT32"}}}, {"name": "model_648/tf.math.multiply_1656/Mul/y", "op": "Const", "attr": {"value": {"tensor": {"dtype": "DT_FLOAT", "tensorShape": {}}}, "dtype": {"type": "DT_FLOAT"}}}, {"name": "model_648/tf.reshape_321/Reshape/shape", "op": "Const", "attr": {"value": {"tensor": {"dtype": "DT_INT32", "tensorShape": {"dim": [{"size": "4"}]}}}, "dtype": {"type": "DT_INT32"}}}, {"name": "model_648/tf.compat.v1.transpose_1113/transpose/perm", "op": "Const", "attr": {"value": {"tensor": {"dtype": "DT_INT32", "tensorShape": {"dim": [{"size": "4"}]}}}, "dtype": {"type": "DT_INT32"}}}, {"name": "model_648/tf.nn.convolution_1300/convolution/filter", "op": "Const", "attr": {"value": {"tensor": {"dtype": "DT_FLOAT", "tensorShape": {"dim": [{"size": "3"}, {"size": "3"}, {"size": "1"}, {"size": "1"}]}}}, "dtype": {"type": "DT_FLOAT"}}}, {"name": "model_648/tf.nn.convolution_1301/convolution/filter", "op": "Const", "attr": {"value": {"tensor": {"dtype": "DT_FLOAT", "tensorShape": {"dim": [{"size": "3"}, {"size": "3"}, {"size": "1"}, {"size": "1"}]}}}, "dtype": {"type": "DT_FLOAT"}}}, {"name": "model_648/tf.nn.convolution_1302/convolution/filter", "op": "Const", "attr": {"value": {"tensor": {"dtype": "DT_FLOAT", "tensorShape": {"dim": [{"size": "3"}, {"size": "3"}, {"size": "1"}, {"size": "1"}]}}}, "dtype": {"type": "DT_FLOAT"}}}, {"name": "model_648/tf.nn.convolution_1303/convolution/filter", "op": "Const", "attr": {"value": {"tensor": {"dtype": "DT_FLOAT", "tensorShape": {"dim": [{"size": "3"}, {"size": "3"}, {"size": "1"}, {"size": "1"}]}}}, "dtype": {"type": "DT_FLOAT"}}}, {"name": "model_648/tf.nn.convolution_1304/convolution/filter", "op": "Const", "attr": {"value": {"tensor": {"dtype": "DT_FLOAT", "tensorShape": {"dim": [{"size": "3"}, {"size": "3"}, {"size": "1"}, {"size": "1"}]}}}, "dtype": {"type": "DT_FLOAT"}}}, {"name": "model_648/tf.nn.convolution_1305/convolution/filter", "op": "Const", "attr": {"value": {"tensor": {"dtype": "DT_FLOAT", "tensorShape": {"dim": [{"size": "3"}, {"size": "3"}, {"size": "1"}, {"size": "1"}]}}}, "dtype": {"type": "DT_FLOAT"}}}, {"name": "model_648/tf.nn.convolution_1306/convolution/filter", "op": "Const", "attr": {"value": {"tensor": {"dtype": "DT_FLOAT", "tensorShape": {"dim": [{"size": "3"}, {"size": "3"}, {"size": "1"}, {"size": "1"}]}}}, "dtype": {"type": "DT_FLOAT"}}}, {"name": "model_648/tf.nn.convolution_1307/convolution/filter", "op": "Const", "attr": {"value": {"tensor": {"dtype": "DT_FLOAT", "tensorShape": {"dim": [{"size": "3"}, {"size": "3"}, {"size": "1"}, {"size": "1"}]}}}, "dtype": {"type": "DT_FLOAT"}}}, {"name": "model_648/tf.nn.convolution_1308/convolution/filter", "op": "Const", "attr": {"value": {"tensor": {"dtype": "DT_FLOAT", "tensorShape": {"dim": [{"size": "3"}, {"size": "3"}, {"size": "1"}, {"size": "1"}]}}}, "dtype": {"type": "DT_FLOAT"}}}, {"name": "model_648/tf.nn.convolution_1309/convolution/filter", "op": "Const", "attr": {"value": {"tensor": {"dtype": "DT_FLOAT", "tensorShape": {"dim": [{"size": "3"}, {"size": "3"}, {"size": "1"}, {"size": "1"}]}}}, "dtype": {"type": "DT_FLOAT"}}}, {"name": "model_648/tf.nn.convolution_1310/convolution/filter", "op": "Const", "attr": {"value": {"tensor": {"dtype": "DT_FLOAT", "tensorShape": {"dim": [{"size": "3"}, {"size": "3"}, {"size": "1"}, {"size": "1"}]}}}, "dtype": {"type": "DT_FLOAT"}}}, {"name": "model_648/tf.nn.convolution_1311/convolution/filter", "op": "Const", "attr": {"value": {"tensor": {"dtype": "DT_FLOAT", "tensorShape": {"dim": [{"size": "3"}, {"size": "3"}, {"size": "1"}, {"size": "1"}]}}}, "dtype": {"type": "DT_FLOAT"}}}, {"name": "model_648/tf.nn.convolution_1312/convolution/filter", "op": "Const", "attr": {"value": {"tensor": {"dtype": "DT_FLOAT", "tensorShape": {"dim": [{"size": "3"}, {"size": "3"}, {"size": "1"}, {"size": "1"}]}}}, "dtype": {"type": "DT_FLOAT"}}}, {"name": "model_648/tf.nn.convolution_1313/convolution/filter", "op": "Const", "attr": {"value": {"tensor": {"dtype": "DT_FLOAT", "tensorShape": {"dim": [{"size": "3"}, {"size": "3"}, {"size": "1"}, {"size": "1"}]}}}, "dtype": {"type": "DT_FLOAT"}}}, {"name": "model_648/tf.nn.convolution_1314/convolution/filter", "op": "Const", "attr": {"value": {"tensor": {"dtype": "DT_FLOAT", "tensorShape": {"dim": [{"size": "3"}, {"size": "3"}, {"size": "1"}, {"size": "1"}]}}}, "dtype": {"type": "DT_FLOAT"}}}, {"name": "model_648/tf.nn.convolution_1315/convolution/filter", "op": "Const", "attr": {"value": {"tensor": {"dtype": "DT_FLOAT", "tensorShape": {"dim": [{"size": "3"}, {"size": "3"}, {"size": "1"}, {"size": "1"}]}}}, "dtype": {"type": "DT_FLOAT"}}}, {"name": "model_648/tf.nn.convolution_1316/convolution/filter", "op": "Const", "attr": {"value": {"tensor": {"dtype": "DT_FLOAT", "tensorShape": {"dim": [{"size": "3"}, {"size": "3"}, {"size": "1"}, {"size": "1"}]}}}, "dtype": {"type": "DT_FLOAT"}}}, {"name": "model_648/tf.nn.convolution_1317/convolution/filter", "op": "Const", "attr": {"value": {"tensor": {"dtype": "DT_FLOAT", "tensorShape": {"dim": [{"size": "3"}, {"size": "3"}, {"size": "1"}, {"size": "1"}]}}}, "dtype": {"type": "DT_FLOAT"}}}, {"name": "model_648/tf.nn.convolution_1318/convolution/filter", "op": "Const", "attr": {"value": {"tensor": {"dtype": "DT_FLOAT", "tensorShape": {"dim": [{"size": "3"}, {"size": "3"}, {"size": "1"}, {"size": "1"}]}}}, "dtype": {"type": "DT_FLOAT"}}}, {"name": "model_648/tf.nn.convolution_1319/convolution/filter", "op": "Const", "attr": {"value": {"tensor": {"dtype": "DT_FLOAT", "tensorShape": {"dim": [{"size": "3"}, {"size": "3"}, {"size": "1"}, {"size": "1"}]}}}, "dtype": {"type": "DT_FLOAT"}}}, {"name": "model_648/tf.nn.convolution_1320/convolution/filter", "op": "Const", "attr": {"value": {"tensor": {"dtype": "DT_FLOAT", "tensorShape": {"dim": [{"size": "3"}, {"size": "3"}, {"size": "1"}, {"size": "1"}]}}}, "dtype": {"type": "DT_FLOAT"}}}, {"name": "model_648/tf.nn.convolution_1321/convolution/filter", "op": "Const", "attr": {"value": {"tensor": {"dtype": "DT_FLOAT", "tensorShape": {"dim": [{"size": "3"}, {"size": "3"}, {"size": "1"}, {"size": "1"}]}}}, "dtype": {"type": "DT_FLOAT"}}}, {"name": "model_648/tf.nn.convolution_1322/convolution/filter", "op": "Const", "attr": {"value": {"tensor": {"dtype": "DT_FLOAT", "tensorShape": {"dim": [{"size": "3"}, {"size": "3"}, {"size": "1"}, {"size": "1"}]}}}, "dtype": {"type": "DT_FLOAT"}}}, {"name": "model_648/tf.nn.convolution_1323/convolution/filter", "op": "Const", "attr": {"value": {"tensor": {"dtype": "DT_FLOAT", "tensorShape": {"dim": [{"size": "3"}, {"size": "3"}, {"size": "1"}, {"size": "1"}]}}}, "dtype": {"type": "DT_FLOAT"}}}, {"name": "model_648/tf.nn.convolution_1324/convolution/filter", "op": "Const", "attr": {"value": {"tensor": {"dtype": "DT_FLOAT", "tensorShape": {"dim": [{"size": "3"}, {"size": "3"}, {"size": "1"}, {"size": "1"}]}}}, "dtype": {"type": "DT_FLOAT"}}}, {"name": "model_648/tf.nn.convolution_1325/convolution/filter", "op": "Const", "attr": {"value": {"tensor": {"dtype": "DT_FLOAT", "tensorShape": {"dim": [{"size": "3"}, {"size": "3"}, {"size": "1"}, {"size": "1"}]}}}, "dtype": {"type": "DT_FLOAT"}}}, {"name": "model_648/tf.nn.convolution_1326/convolution/filter", "op": "Const", "attr": {"value": {"tensor": {"dtype": "DT_FLOAT", "tensorShape": {"dim": [{"size": "3"}, {"size": "3"}, {"size": "1"}, {"size": "1"}]}}}, "dtype": {"type": "DT_FLOAT"}}}, {"name": "model_648/tf.nn.convolution_1327/convolution/filter", "op": "Const", "attr": {"value": {"tensor": {"dtype": "DT_FLOAT", "tensorShape": {"dim": [{"size": "3"}, {"size": "3"}, {"size": "1"}, {"size": "1"}]}}}, "dtype": {"type": "DT_FLOAT"}}}, {"name": "model_648/tf.nn.convolution_1328/convolution/filter", "op": "Const", "attr": {"value": {"tensor": {"dtype": "DT_FLOAT", "tensorShape": {"dim": [{"size": "3"}, {"size": "3"}, {"size": "1"}, {"size": "1"}]}}}, "dtype": {"type": "DT_FLOAT"}}}, {"name": "model_648/tf.nn.convolution_1329/convolution/filter", "op": "Const", "attr": {"value": {"tensor": {"dtype": "DT_FLOAT", "tensorShape": {"dim": [{"size": "3"}, {"size": "3"}, {"size": "1"}, {"size": "1"}]}}}, "dtype": {"type": "DT_FLOAT"}}}, {"name": "model_648/tf.nn.convolution_1330/convolution/filter", "op": "Const", "attr": {"value": {"tensor": {"dtype": "DT_FLOAT", "tensorShape": {"dim": [{"size": "3"}, {"size": "3"}, {"size": "1"}, {"size": "1"}]}}}, "dtype": {"type": "DT_FLOAT"}}}, {"name": "model_648/tf.nn.convolution_1331/convolution/filter", "op": "Const", "attr": {"value": {"tensor": {"dtype": "DT_FLOAT", "tensorShape": {"dim": [{"size": "3"}, {"size": "3"}, {"size": "1"}, {"size": "1"}]}}}, "dtype": {"type": "DT_FLOAT"}}}, {"name": "model_648/tf.nn.convolution_1332/convolution/filter", "op": "Const", "attr": {"value": {"tensor": {"dtype": "DT_FLOAT", "tensorShape": {"dim": [{"size": "3"}, {"size": "3"}, {"size": "1"}, {"size": "1"}]}}}, "dtype": {"type": "DT_FLOAT"}}}, {"name": "model_648/tf.nn.convolution_1333/convolution/filter", "op": "Const", "attr": {"value": {"tensor": {"dtype": "DT_FLOAT", "tensorShape": {"dim": [{"size": "3"}, {"size": "3"}, {"size": "1"}, {"size": "1"}]}}}, "dtype": {"type": "DT_FLOAT"}}}, {"name": "model_648/tf.nn.convolution_1334/convolution/filter", "op": "Const", "attr": {"value": {"tensor": {"dtype": "DT_FLOAT", "tensorShape": {"dim": [{"size": "3"}, {"size": "3"}, {"size": "1"}, {"size": "1"}]}}}, "dtype": {"type": "DT_FLOAT"}}}, {"name": "model_648/tf.nn.convolution_1335/convolution/filter", "op": "Const", "attr": {"value": {"tensor": {"dtype": "DT_FLOAT", "tensorShape": {"dim": [{"size": "3"}, {"size": "3"}, {"size": "1"}, {"size": "1"}]}}}, "dtype": {"type": "DT_FLOAT"}}}, {"name": "model_648/tf.nn.convolution_1336/convolution/filter", "op": "Const", "attr": {"value": {"tensor": {"dtype": "DT_FLOAT", "tensorShape": {"dim": [{"size": "3"}, {"size": "3"}, {"size": "1"}, {"size": "1"}]}}}, "dtype": {"type": "DT_FLOAT"}}}, {"name": "model_648/tf.nn.convolution_1337/convolution/filter", "op": "Const", "attr": {"value": {"tensor": {"dtype": "DT_FLOAT", "tensorShape": {"dim": [{"size": "3"}, {"size": "3"}, {"size": "1"}, {"size": "1"}]}}}, "dtype": {"type": "DT_FLOAT"}}}, {"name": "model_648/tf.nn.convolution_1338/convolution/filter", "op": "Const", "attr": {"value": {"tensor": {"dtype": "DT_FLOAT", "tensorShape": {"dim": [{"size": "3"}, {"size": "3"}, {"size": "1"}, {"size": "1"}]}}}, "dtype": {"type": "DT_FLOAT"}}}, {"name": "model_648/tf.nn.convolution_1339/convolution/filter", "op": "Const", "attr": {"value": {"tensor": {"dtype": "DT_FLOAT", "tensorShape": {"dim": [{"size": "3"}, {"size": "3"}, {"size": "1"}, {"size": "1"}]}}}, "dtype": {"type": "DT_FLOAT"}}}, {"name": "model_648/tf.nn.convolution_1340/convolution/filter", "op": "Const", "attr": {"value": {"tensor": {"dtype": "DT_FLOAT", "tensorShape": {"dim": [{"size": "3"}, {"size": "3"}, {"size": "1"}, {"size": "1"}]}}}, "dtype": {"type": "DT_FLOAT"}}}, {"name": "model_648/tf.nn.convolution_1341/convolution/filter", "op": "Const", "attr": {"value": {"tensor": {"dtype": "DT_FLOAT", "tensorShape": {"dim": [{"size": "3"}, {"size": "3"}, {"size": "1"}, {"size": "1"}]}}}, "dtype": {"type": "DT_FLOAT"}}}, {"name": "model_648/tf.nn.convolution_1342/convolution/filter", "op": "Const", "attr": {"value": {"tensor": {"dtype": "DT_FLOAT", "tensorShape": {"dim": [{"size": "3"}, {"size": "3"}, {"size": "1"}, {"size": "1"}]}}}, "dtype": {"type": "DT_FLOAT"}}}, {"name": "model_648/tf.nn.convolution_1343/convolution/filter", "op": "Const", "attr": {"value": {"tensor": {"dtype": "DT_FLOAT", "tensorShape": {"dim": [{"size": "3"}, {"size": "3"}, {"size": "1"}, {"size": "1"}]}}}, "dtype": {"type": "DT_FLOAT"}}}, {"name": "model_648/tf.nn.convolution_1344/convolution/filter", "op": "Const", "attr": {"value": {"tensor": {"dtype": "DT_FLOAT", "tensorShape": {"dim": [{"size": "3"}, {"size": "3"}, {"size": "1"}, {"size": "1"}]}}}, "dtype": {"type": "DT_FLOAT"}}}, {"name": "model_648/tf.nn.convolution_1345/convolution/filter", "op": "Const", "attr": {"value": {"tensor": {"dtype": "DT_FLOAT", "tensorShape": {"dim": [{"size": "3"}, {"size": "3"}, {"size": "1"}, {"size": "1"}]}}}, "dtype": {"type": "DT_FLOAT"}}}, {"name": "model_648/tf.nn.convolution_1346/convolution/filter", "op": "Const", "attr": {"value": {"tensor": {"dtype": "DT_FLOAT", "tensorShape": {"dim": [{"size": "3"}, {"size": "3"}, {"size": "1"}, {"size": "1"}]}}}, "dtype": {"type": "DT_FLOAT"}}}, {"name": "model_648/tf.nn.convolution_1347/convolution/filter", "op": "Const", "attr": {"value": {"tensor": {"dtype": "DT_FLOAT", "tensorShape": {"dim": [{"size": "3"}, {"size": "3"}, {"size": "1"}, {"size": "1"}]}}}, "dtype": {"type": "DT_FLOAT"}}}, {"name": "model_648/tf.nn.convolution_1348/convolution/filter", "op": "Const", "attr": {"value": {"tensor": {"dtype": "DT_FLOAT", "tensorShape": {"dim": [{"size": "3"}, {"size": "3"}, {"size": "1"}, {"size": "1"}]}}}, "dtype": {"type": "DT_FLOAT"}}}, {"name": "model_648/tf.nn.convolution_1349/convolution/filter", "op": "Const", "attr": {"value": {"tensor": {"dtype": "DT_FLOAT", "tensorShape": {"dim": [{"size": "3"}, {"size": "3"}, {"size": "1"}, {"size": "1"}]}}}, "dtype": {"type": "DT_FLOAT"}}}, {"name": "model_648/tf.nn.convolution_1350/convolution/filter", "op": "Const", "attr": {"value": {"tensor": {"dtype": "DT_FLOAT", "tensorShape": {"dim": [{"size": "3"}, {"size": "3"}, {"size": "1"}, {"size": "1"}]}}}, "dtype": {"type": "DT_FLOAT"}}}, {"name": "model_648/tf.nn.convolution_1351/convolution/filter", "op": "Const", "attr": {"value": {"tensor": {"dtype": "DT_FLOAT", "tensorShape": {"dim": [{"size": "3"}, {"size": "3"}, {"size": "1"}, {"size": "1"}]}}}, "dtype": {"type": "DT_FLOAT"}}}, {"name": "model_648/tf.nn.convolution_1352/convolution/filter", "op": "Const", "attr": {"value": {"tensor": {"dtype": "DT_FLOAT", "tensorShape": {"dim": [{"size": "3"}, {"size": "3"}, {"size": "1"}, {"size": "1"}]}}}, "dtype": {"type": "DT_FLOAT"}}}, {"name": "model_648/tf.nn.convolution_1353/convolution/filter", "op": "Const", "attr": {"value": {"tensor": {"dtype": "DT_FLOAT", "tensorShape": {"dim": [{"size": "3"}, {"size": "3"}, {"size": "1"}, {"size": "1"}]}}}, "dtype": {"type": "DT_FLOAT"}}}, {"name": "model_648/tf.nn.convolution_1354/convolution/filter", "op": "Const", "attr": {"value": {"tensor": {"dtype": "DT_FLOAT", "tensorShape": {"dim": [{"size": "3"}, {"size": "3"}, {"size": "1"}, {"size": "1"}]}}}, "dtype": {"type": "DT_FLOAT"}}}, {"name": "model_648/tf.nn.convolution_1355/convolution/filter", "op": "Const", "attr": {"value": {"tensor": {"dtype": "DT_FLOAT", "tensorShape": {"dim": [{"size": "3"}, {"size": "3"}, {"size": "1"}, {"size": "1"}]}}}, "dtype": {"type": "DT_FLOAT"}}}, {"name": "model_648/tf.nn.convolution_1356/convolution/filter", "op": "Const", "attr": {"value": {"tensor": {"dtype": "DT_FLOAT", "tensorShape": {"dim": [{"size": "3"}, {"size": "3"}, {"size": "1"}, {"size": "1"}]}}}, "dtype": {"type": "DT_FLOAT"}}}, {"name": "model_648/tf.nn.convolution_1357/convolution/filter", "op": "Const", "attr": {"value": {"tensor": {"dtype": "DT_FLOAT", "tensorShape": {"dim": [{"size": "3"}, {"size": "3"}, {"size": "1"}, {"size": "1"}]}}}, "dtype": {"type": "DT_FLOAT"}}}, {"name": "model_648/tf.nn.convolution_1358/convolution/filter", "op": "Const", "attr": {"value": {"tensor": {"dtype": "DT_FLOAT", "tensorShape": {"dim": [{"size": "3"}, {"size": "3"}, {"size": "1"}, {"size": "1"}]}}}, "dtype": {"type": "DT_FLOAT"}}}, {"name": "model_648/tf.nn.convolution_1359/convolution/filter", "op": "Const", "attr": {"value": {"tensor": {"dtype": "DT_FLOAT", "tensorShape": {"dim": [{"size": "3"}, {"size": "3"}, {"size": "1"}, {"size": "1"}]}}}, "dtype": {"type": "DT_FLOAT"}}}, {"name": "model_648/tf.nn.convolution_1360/convolution/filter", "op": "Const", "attr": {"value": {"tensor": {"dtype": "DT_FLOAT", "tensorShape": {"dim": [{"size": "3"}, {"size": "3"}, {"size": "1"}, {"size": "1"}]}}}, "dtype": {"type": "DT_FLOAT"}}}, {"name": "model_648/tf.nn.convolution_1361/convolution/filter", "op": "Const", "attr": {"value": {"tensor": {"dtype": "DT_FLOAT", "tensorShape": {"dim": [{"size": "3"}, {"size": "3"}, {"size": "1"}, {"size": "1"}]}}}, "dtype": {"type": "DT_FLOAT"}}}, {"name": "model_648/tf.nn.convolution_1362/convolution/filter", "op": "Const", "attr": {"value": {"tensor": {"dtype": "DT_FLOAT", "tensorShape": {"dim": [{"size": "3"}, {"size": "3"}, {"size": "1"}, {"size": "1"}]}}}, "dtype": {"type": "DT_FLOAT"}}}, {"name": "model_648/tf.nn.convolution_1363/convolution/filter", "op": "Const", "attr": {"value": {"tensor": {"dtype": "DT_FLOAT", "tensorShape": {"dim": [{"size": "3"}, {"size": "3"}, {"size": "1"}, {"size": "1"}]}}}, "dtype": {"type": "DT_FLOAT"}}}, {"name": "model_648/tf.nn.convolution_1364/convolution/filter", "op": "Const", "attr": {"value": {"tensor": {"dtype": "DT_FLOAT", "tensorShape": {"dim": [{"size": "3"}, {"size": "3"}, {"size": "1"}, {"size": "1"}]}}}, "dtype": {"type": "DT_FLOAT"}}}, {"name": "model_648/tf.nn.convolution_1365/convolution/filter", "op": "Const", "attr": {"value": {"tensor": {"dtype": "DT_FLOAT", "tensorShape": {"dim": [{"size": "3"}, {"size": "3"}, {"size": "1"}, {"size": "1"}]}}}, "dtype": {"type": "DT_FLOAT"}}}, {"name": "model_648/tf.nn.convolution_1366/convolution/filter", "op": "Const", "attr": {"value": {"tensor": {"dtype": "DT_FLOAT", "tensorShape": {"dim": [{"size": "3"}, {"size": "3"}, {"size": "1"}, {"size": "1"}]}}}, "dtype": {"type": "DT_FLOAT"}}}, {"name": "model_648/tf.nn.convolution_1367/convolution/filter", "op": "Const", "attr": {"value": {"tensor": {"dtype": "DT_FLOAT", "tensorShape": {"dim": [{"size": "3"}, {"size": "3"}, {"size": "1"}, {"size": "1"}]}}}, "dtype": {"type": "DT_FLOAT"}}}, {"name": "model_648/tf.nn.convolution_1368/convolution/filter", "op": "Const", "attr": {"value": {"tensor": {"dtype": "DT_FLOAT", "tensorShape": {"dim": [{"size": "3"}, {"size": "3"}, {"size": "1"}, {"size": "1"}]}}}, "dtype": {"type": "DT_FLOAT"}}}, {"name": "model_648/tf.nn.convolution_1369/convolution/filter", "op": "Const", "attr": {"value": {"tensor": {"dtype": "DT_FLOAT", "tensorShape": {"dim": [{"size": "3"}, {"size": "3"}, {"size": "1"}, {"size": "1"}]}}}, "dtype": {"type": "DT_FLOAT"}}}, {"name": "model_648/tf.nn.convolution_1370/convolution/filter", "op": "Const", "attr": {"value": {"tensor": {"dtype": "DT_FLOAT", "tensorShape": {"dim": [{"size": "3"}, {"size": "3"}, {"size": "1"}, {"size": "1"}]}}}, "dtype": {"type": "DT_FLOAT"}}}, {"name": "model_648/tf.nn.convolution_1371/convolution/filter", "op": "Const", "attr": {"value": {"tensor": {"dtype": "DT_FLOAT", "tensorShape": {"dim": [{"size": "3"}, {"size": "3"}, {"size": "1"}, {"size": "1"}]}}}, "dtype": {"type": "DT_FLOAT"}}}, {"name": "model_648/tf.nn.convolution_1372/convolution/filter", "op": "Const", "attr": {"value": {"tensor": {"dtype": "DT_FLOAT", "tensorShape": {"dim": [{"size": "3"}, {"size": "3"}, {"size": "1"}, {"size": "1"}]}}}, "dtype": {"type": "DT_FLOAT"}}}, {"name": "model_648/tf.nn.convolution_1373/convolution/filter", "op": "Const", "attr": {"value": {"tensor": {"dtype": "DT_FLOAT", "tensorShape": {"dim": [{"size": "3"}, {"size": "3"}, {"size": "1"}, {"size": "1"}]}}}, "dtype": {"type": "DT_FLOAT"}}}, {"name": "model_648/tf.nn.convolution_1374/convolution/filter", "op": "Const", "attr": {"value": {"tensor": {"dtype": "DT_FLOAT", "tensorShape": {"dim": [{"size": "3"}, {"size": "3"}, {"size": "1"}, {"size": "1"}]}}}, "dtype": {"type": "DT_FLOAT"}}}, {"name": "model_648/tf.nn.convolution_1375/convolution/filter", "op": "Const", "attr": {"value": {"tensor": {"dtype": "DT_FLOAT", "tensorShape": {"dim": [{"size": "3"}, {"size": "3"}, {"size": "1"}, {"size": "1"}]}}}, "dtype": {"type": "DT_FLOAT"}}}, {"name": "model_648/tf.nn.convolution_1376/convolution/filter", "op": "Const", "attr": {"value": {"tensor": {"dtype": "DT_FLOAT", "tensorShape": {"dim": [{"size": "3"}, {"size": "3"}, {"size": "1"}, {"size": "1"}]}}}, "dtype": {"type": "DT_FLOAT"}}}, {"name": "model_648/tf.nn.convolution_1377/convolution/filter", "op": "Const", "attr": {"value": {"tensor": {"dtype": "DT_FLOAT", "tensorShape": {"dim": [{"size": "3"}, {"size": "3"}, {"size": "1"}, {"size": "1"}]}}}, "dtype": {"type": "DT_FLOAT"}}}, {"name": "model_648/tf.nn.convolution_1378/convolution/filter", "op": "Const", "attr": {"value": {"tensor": {"dtype": "DT_FLOAT", "tensorShape": {"dim": [{"size": "3"}, {"size": "3"}, {"size": "1"}, {"size": "1"}]}}}, "dtype": {"type": "DT_FLOAT"}}}, {"name": "model_648/tf.nn.convolution_1379/convolution/filter", "op": "Const", "attr": {"value": {"tensor": {"dtype": "DT_FLOAT", "tensorShape": {"dim": [{"size": "3"}, {"size": "3"}, {"size": "1"}, {"size": "1"}]}}}, "dtype": {"type": "DT_FLOAT"}}}, {"name": "model_648/tf.nn.convolution_1380/convolution/filter", "op": "Const", "attr": {"value": {"tensor": {"dtype": "DT_FLOAT", "tensorShape": {"dim": [{"size": "3"}, {"size": "3"}, {"size": "1"}, {"size": "1"}]}}}, "dtype": {"type": "DT_FLOAT"}}}, {"name": "model_648/tf.nn.convolution_1381/convolution/filter", "op": "Const", "attr": {"value": {"tensor": {"dtype": "DT_FLOAT", "tensorShape": {"dim": [{"size": "3"}, {"size": "3"}, {"size": "1"}, {"size": "1"}]}}}, "dtype": {"type": "DT_FLOAT"}}}, {"name": "model_648/tf.nn.convolution_1382/convolution/filter", "op": "Const", "attr": {"value": {"tensor": {"dtype": "DT_FLOAT", "tensorShape": {"dim": [{"size": "3"}, {"size": "3"}, {"size": "1"}, {"size": "1"}]}}}, "dtype": {"type": "DT_FLOAT"}}}, {"name": "model_648/tf.nn.convolution_1383/convolution/filter", "op": "Const", "attr": {"value": {"tensor": {"dtype": "DT_FLOAT", "tensorShape": {"dim": [{"size": "3"}, {"size": "3"}, {"size": "1"}, {"size": "1"}]}}}, "dtype": {"type": "DT_FLOAT"}}}, {"name": "model_648/tf.nn.convolution_1384/convolution/filter", "op": "Const", "attr": {"value": {"tensor": {"dtype": "DT_FLOAT", "tensorShape": {"dim": [{"size": "3"}, {"size": "3"}, {"size": "1"}, {"size": "1"}]}}}, "dtype": {"type": "DT_FLOAT"}}}, {"name": "model_648/tf.nn.convolution_1385/convolution/filter", "op": "Const", "attr": {"value": {"tensor": {"dtype": "DT_FLOAT", "tensorShape": {"dim": [{"size": "3"}, {"size": "3"}, {"size": "1"}, {"size": "1"}]}}}, "dtype": {"type": "DT_FLOAT"}}}, {"name": "model_648/tf.nn.convolution_1386/convolution/filter", "op": "Const", "attr": {"value": {"tensor": {"dtype": "DT_FLOAT", "tensorShape": {"dim": [{"size": "3"}, {"size": "3"}, {"size": "1"}, {"size": "1"}]}}}, "dtype": {"type": "DT_FLOAT"}}}, {"name": "model_648/tf.nn.convolution_1387/convolution/filter", "op": "Const", "attr": {"value": {"tensor": {"dtype": "DT_FLOAT", "tensorShape": {"dim": [{"size": "3"}, {"size": "3"}, {"size": "1"}, {"size": "1"}]}}}, "dtype": {"type": "DT_FLOAT"}}}, {"name": "model_648/tf.nn.convolution_1388/convolution/filter", "op": "Const", "attr": {"value": {"tensor": {"dtype": "DT_FLOAT", "tensorShape": {"dim": [{"size": "3"}, {"size": "3"}, {"size": "1"}, {"size": "1"}]}}}, "dtype": {"type": "DT_FLOAT"}}}, {"name": "model_648/tf.nn.convolution_1389/convolution/filter", "op": "Const", "attr": {"value": {"tensor": {"dtype": "DT_FLOAT", "tensorShape": {"dim": [{"size": "3"}, {"size": "3"}, {"size": "1"}, {"size": "1"}]}}}, "dtype": {"type": "DT_FLOAT"}}}, {"name": "model_648/tf.nn.convolution_1390/convolution/filter", "op": "Const", "attr": {"value": {"tensor": {"dtype": "DT_FLOAT", "tensorShape": {"dim": [{"size": "3"}, {"size": "3"}, {"size": "1"}, {"size": "1"}]}}}, "dtype": {"type": "DT_FLOAT"}}}, {"name": "model_648/tf.nn.convolution_1391/convolution/filter", "op": "Const", "attr": {"value": {"tensor": {"dtype": "DT_FLOAT", "tensorShape": {"dim": [{"size": "3"}, {"size": "3"}, {"size": "1"}, {"size": "1"}]}}}, "dtype": {"type": "DT_FLOAT"}}}, {"name": "model_648/tf.nn.convolution_1392/convolution/filter", "op": "Const", "attr": {"value": {"tensor": {"dtype": "DT_FLOAT", "tensorShape": {"dim": [{"size": "3"}, {"size": "3"}, {"size": "1"}, {"size": "1"}]}}}, "dtype": {"type": "DT_FLOAT"}}}, {"name": "model_648/tf.nn.convolution_1393/convolution/filter", "op": "Const", "attr": {"value": {"tensor": {"dtype": "DT_FLOAT", "tensorShape": {"dim": [{"size": "3"}, {"size": "3"}, {"size": "1"}, {"size": "1"}]}}}, "dtype": {"type": "DT_FLOAT"}}}, {"name": "model_648/tf.nn.convolution_1394/convolution/filter", "op": "Const", "attr": {"value": {"tensor": {"dtype": "DT_FLOAT", "tensorShape": {"dim": [{"size": "3"}, {"size": "3"}, {"size": "1"}, {"size": "1"}]}}}, "dtype": {"type": "DT_FLOAT"}}}, {"name": "model_648/tf.nn.convolution_1395/convolution/filter", "op": "Const", "attr": {"value": {"tensor": {"dtype": "DT_FLOAT", "tensorShape": {"dim": [{"size": "3"}, {"size": "3"}, {"size": "1"}, {"size": "1"}]}}}, "dtype": {"type": "DT_FLOAT"}}}, {"name": "model_648/tf.nn.convolution_1396/convolution/filter", "op": "Const", "attr": {"value": {"tensor": {"dtype": "DT_FLOAT", "tensorShape": {"dim": [{"size": "3"}, {"size": "3"}, {"size": "1"}, {"size": "1"}]}}}, "dtype": {"type": "DT_FLOAT"}}}, {"name": "model_648/tf.nn.convolution_1397/convolution/filter", "op": "Const", "attr": {"value": {"tensor": {"dtype": "DT_FLOAT", "tensorShape": {"dim": [{"size": "3"}, {"size": "3"}, {"size": "1"}, {"size": "1"}]}}}, "dtype": {"type": "DT_FLOAT"}}}, {"name": "model_648/tf.nn.convolution_1398/convolution/filter", "op": "Const", "attr": {"value": {"tensor": {"dtype": "DT_FLOAT", "tensorShape": {"dim": [{"size": "3"}, {"size": "3"}, {"size": "1"}, {"size": "1"}]}}}, "dtype": {"type": "DT_FLOAT"}}}, {"name": "model_648/tf.nn.convolution_1399/convolution/filter", "op": "Const", "attr": {"value": {"tensor": {"dtype": "DT_FLOAT", "tensorShape": {"dim": [{"size": "3"}, {"size": "3"}, {"size": "1"}, {"size": "1"}]}}}, "dtype": {"type": "DT_FLOAT"}}}, {"name": "model_648/tf.nn.convolution_1400/convolution/filter", "op": "Const", "attr": {"value": {"tensor": {"dtype": "DT_FLOAT", "tensorShape": {"dim": [{"size": "3"}, {"size": "3"}, {"size": "1"}, {"size": "1"}]}}}, "dtype": {"type": "DT_FLOAT"}}}, {"name": "model_648/tf.nn.convolution_1401/convolution/filter", "op": "Const", "attr": {"value": {"tensor": {"dtype": "DT_FLOAT", "tensorShape": {"dim": [{"size": "3"}, {"size": "3"}, {"size": "1"}, {"size": "1"}]}}}, "dtype": {"type": "DT_FLOAT"}}}, {"name": "model_648/tf.nn.convolution_1402/convolution/filter", "op": "Const", "attr": {"value": {"tensor": {"dtype": "DT_FLOAT", "tensorShape": {"dim": [{"size": "3"}, {"size": "3"}, {"size": "1"}, {"size": "1"}]}}}, "dtype": {"type": "DT_FLOAT"}}}, {"name": "model_648/tf.nn.convolution_1403/convolution/filter", "op": "Const", "attr": {"value": {"tensor": {"dtype": "DT_FLOAT", "tensorShape": {"dim": [{"size": "3"}, {"size": "3"}, {"size": "1"}, {"size": "1"}]}}}, "dtype": {"type": "DT_FLOAT"}}}, {"name": "model_648/tf.nn.convolution_1404/convolution/filter", "op": "Const", "attr": {"value": {"tensor": {"dtype": "DT_FLOAT", "tensorShape": {"dim": [{"size": "3"}, {"size": "3"}, {"size": "1"}, {"size": "1"}]}}}, "dtype": {"type": "DT_FLOAT"}}}, {"name": "model_648/tf.nn.convolution_1405/convolution/filter", "op": "Const", "attr": {"value": {"tensor": {"dtype": "DT_FLOAT", "tensorShape": {"dim": [{"size": "3"}, {"size": "3"}, {"size": "1"}, {"size": "1"}]}}}, "dtype": {"type": "DT_FLOAT"}}}, {"name": "model_648/tf.nn.convolution_1406/convolution/filter", "op": "Const", "attr": {"value": {"tensor": {"dtype": "DT_FLOAT", "tensorShape": {"dim": [{"size": "3"}, {"size": "3"}, {"size": "1"}, {"size": "1"}]}}}, "dtype": {"type": "DT_FLOAT"}}}, {"name": "model_648/tf.nn.convolution_1407/convolution/filter", "op": "Const", "attr": {"value": {"tensor": {"dtype": "DT_FLOAT", "tensorShape": {"dim": [{"size": "3"}, {"size": "3"}, {"size": "1"}, {"size": "1"}]}}}, "dtype": {"type": "DT_FLOAT"}}}, {"name": "model_648/tf.nn.convolution_1408/convolution/filter", "op": "Const", "attr": {"value": {"tensor": {"dtype": "DT_FLOAT", "tensorShape": {"dim": [{"size": "3"}, {"size": "3"}, {"size": "1"}, {"size": "1"}]}}}, "dtype": {"type": "DT_FLOAT"}}}, {"name": "model_648/tf.nn.convolution_1409/convolution/filter", "op": "Const", "attr": {"value": {"tensor": {"dtype": "DT_FLOAT", "tensorShape": {"dim": [{"size": "3"}, {"size": "3"}, {"size": "1"}, {"size": "1"}]}}}, "dtype": {"type": "DT_FLOAT"}}}, {"name": "model_648/tf.nn.convolution_1410/convolution/filter", "op": "Const", "attr": {"value": {"tensor": {"dtype": "DT_FLOAT", "tensorShape": {"dim": [{"size": "3"}, {"size": "3"}, {"size": "1"}, {"size": "1"}]}}}, "dtype": {"type": "DT_FLOAT"}}}, {"name": "model_648/tf.nn.convolution_1411/convolution/filter", "op": "Const", "attr": {"value": {"tensor": {"dtype": "DT_FLOAT", "tensorShape": {"dim": [{"size": "3"}, {"size": "3"}, {"size": "1"}, {"size": "1"}]}}}, "dtype": {"type": "DT_FLOAT"}}}, {"name": "model_648/tf.nn.convolution_1412/convolution/filter", "op": "Const", "attr": {"value": {"tensor": {"dtype": "DT_FLOAT", "tensorShape": {"dim": [{"size": "3"}, {"size": "3"}, {"size": "1"}, {"size": "1"}]}}}, "dtype": {"type": "DT_FLOAT"}}}, {"name": "model_648/tf.nn.convolution_1413/convolution/filter", "op": "Const", "attr": {"value": {"tensor": {"dtype": "DT_FLOAT", "tensorShape": {"dim": [{"size": "3"}, {"size": "3"}, {"size": "1"}, {"size": "1"}]}}}, "dtype": {"type": "DT_FLOAT"}}}, {"name": "model_648/tf.nn.convolution_1414/convolution/filter", "op": "Const", "attr": {"value": {"tensor": {"dtype": "DT_FLOAT", "tensorShape": {"dim": [{"size": "3"}, {"size": "3"}, {"size": "1"}, {"size": "1"}]}}}, "dtype": {"type": "DT_FLOAT"}}}, {"name": "model_648/tf.nn.convolution_1415/convolution/filter", "op": "Const", "attr": {"value": {"tensor": {"dtype": "DT_FLOAT", "tensorShape": {"dim": [{"size": "3"}, {"size": "3"}, {"size": "1"}, {"size": "1"}]}}}, "dtype": {"type": "DT_FLOAT"}}}, {"name": "model_648/tf.nn.convolution_1416/convolution/filter", "op": "Const", "attr": {"value": {"tensor": {"dtype": "DT_FLOAT", "tensorShape": {"dim": [{"size": "3"}, {"size": "3"}, {"size": "1"}, {"size": "1"}]}}}, "dtype": {"type": "DT_FLOAT"}}}, {"name": "model_648/tf.nn.convolution_1417/convolution/filter", "op": "Const", "attr": {"value": {"tensor": {"dtype": "DT_FLOAT", "tensorShape": {"dim": [{"size": "3"}, {"size": "3"}, {"size": "1"}, {"size": "1"}]}}}, "dtype": {"type": "DT_FLOAT"}}}, {"name": "model_648/tf.nn.convolution_1418/convolution/filter", "op": "Const", "attr": {"value": {"tensor": {"dtype": "DT_FLOAT", "tensorShape": {"dim": [{"size": "3"}, {"size": "3"}, {"size": "1"}, {"size": "1"}]}}}, "dtype": {"type": "DT_FLOAT"}}}, {"name": "model_648/tf.nn.convolution_1419/convolution/filter", "op": "Const", "attr": {"value": {"tensor": {"dtype": "DT_FLOAT", "tensorShape": {"dim": [{"size": "3"}, {"size": "3"}, {"size": "1"}, {"size": "1"}]}}}, "dtype": {"type": "DT_FLOAT"}}}, {"name": "model_648/tf.nn.convolution_1420/convolution/filter", "op": "Const", "attr": {"value": {"tensor": {"dtype": "DT_FLOAT", "tensorShape": {"dim": [{"size": "3"}, {"size": "3"}, {"size": "1"}, {"size": "1"}]}}}, "dtype": {"type": "DT_FLOAT"}}}, {"name": "model_648/tf.nn.convolution_1421/convolution/filter", "op": "Const", "attr": {"value": {"tensor": {"dtype": "DT_FLOAT", "tensorShape": {"dim": [{"size": "3"}, {"size": "3"}, {"size": "1"}, {"size": "1"}]}}}, "dtype": {"type": "DT_FLOAT"}}}, {"name": "model_648/tf.nn.convolution_1422/convolution/filter", "op": "Const", "attr": {"value": {"tensor": {"dtype": "DT_FLOAT", "tensorShape": {"dim": [{"size": "3"}, {"size": "3"}, {"size": "1"}, {"size": "1"}]}}}, "dtype": {"type": "DT_FLOAT"}}}, {"name": "model_648/tf.nn.convolution_1423/convolution/filter", "op": "Const", "attr": {"value": {"tensor": {"dtype": "DT_FLOAT", "tensorShape": {"dim": [{"size": "3"}, {"size": "3"}, {"size": "1"}, {"size": "1"}]}}}, "dtype": {"type": "DT_FLOAT"}}}, {"name": "model_648/tf.nn.convolution_1424/convolution/filter", "op": "Const", "attr": {"value": {"tensor": {"dtype": "DT_FLOAT", "tensorShape": {"dim": [{"size": "3"}, {"size": "3"}, {"size": "1"}, {"size": "1"}]}}}, "dtype": {"type": "DT_FLOAT"}}}, {"name": "model_648/tf.nn.convolution_1425/convolution/filter", "op": "Const", "attr": {"value": {"tensor": {"dtype": "DT_FLOAT", "tensorShape": {"dim": [{"size": "3"}, {"size": "3"}, {"size": "1"}, {"size": "1"}]}}}, "dtype": {"type": "DT_FLOAT"}}}, {"name": "model_648/tf.nn.convolution_1426/convolution/filter", "op": "Const", "attr": {"value": {"tensor": {"dtype": "DT_FLOAT", "tensorShape": {"dim": [{"size": "3"}, {"size": "3"}, {"size": "1"}, {"size": "1"}]}}}, "dtype": {"type": "DT_FLOAT"}}}, {"name": "model_648/tf.split_7/split/split_dim", "op": "Const", "attr": {"value": {"tensor": {"dtype": "DT_INT32", "tensorShape": {}}}, "dtype": {"type": "DT_INT32"}}}, {"name": "model_648/tf.strided_slice_105/ones_like/tensor", "op": "Const", "attr": {"value": {"tensor": {"dtype": "DT_INT64", "tensorShape": {"dim": [{"size": "4"}]}}}, "dtype": {"type": "DT_INT64"}}}, {"name": "model_648/tf.strided_slice_105/StridedSlice/end", "op": "Const", "attr": {"value": {"tensor": {"dtype": "DT_INT64", "tensorShape": {"dim": [{"size": "4"}]}}}, "dtype": {"type": "DT_INT64"}}}, {"name": "model_648/tf.strided_slice_105/ones_like", "op": "Const", "attr": {"value": {"tensor": {"dtype": "DT_INT64", "tensorShape": {"dim": [{"size": "4"}]}}}, "dtype": {"type": "DT_INT64"}}}, {"name": "model_648/tf.nn.convolution_1276/convolution/filter", "op": "Const", "attr": {"value": {"tensor": {"dtype": "DT_FLOAT", "tensorShape": {"dim": [{"size": "1"}, {"size": "1"}, {"size": "64"}, {"size": "32"}]}}}, "dtype": {"type": "DT_FLOAT"}}}, {"name": "model_648/tf.math.add_576/Add/y", "op": "Const", "attr": {"value": {"tensor": {"dtype": "DT_FLOAT", "tensorShape": {"dim": [{"size": "32"}]}}}, "dtype": {"type": "DT_FLOAT"}}}, {"name": "model_648/tf.nn.convolution_1279/convolution/filter", "op": "Const", "attr": {"value": {"tensor": {"dtype": "DT_FLOAT", "tensorShape": {"dim": [{"size": "3"}, {"size": "3"}, {"size": "32"}, {"size": "32"}]}}}, "dtype": {"type": "DT_FLOAT"}}}, {"name": "model_648/tf.math.add_579/Add/y", "op": "Const", "attr": {"value": {"tensor": {"dtype": "DT_FLOAT", "tensorShape": {"dim": [{"size": "32"}]}}}, "dtype": {"type": "DT_FLOAT"}}}, {"name": "model_648/tf.nn.convolution_1281/convolution/filter", "op": "Const", "attr": {"value": {"tensor": {"dtype": "DT_FLOAT", "tensorShape": {"dim": [{"size": "3"}, {"size": "3"}, {"size": "32"}, {"size": "32"}]}}}, "dtype": {"type": "DT_FLOAT"}}}, {"name": "model_648/tf.math.add_581/Add/y", "op": "Const", "attr": {"value": {"tensor": {"dtype": "DT_FLOAT", "tensorShape": {"dim": [{"size": "32"}]}}}, "dtype": {"type": "DT_FLOAT"}}}, {"name": "model_648/tf.nn.convolution_1282/convolution/filter", "op": "Const", "attr": {"value": {"tensor": {"dtype": "DT_FLOAT", "tensorShape": {"dim": [{"size": "3"}, {"size": "3"}, {"size": "32"}, {"size": "32"}]}}}, "dtype": {"type": "DT_FLOAT"}}}, {"name": "model_648/tf.math.add_584/Add/y", "op": "Const", "attr": {"value": {"tensor": {"dtype": "DT_FLOAT", "tensorShape": {"dim": [{"size": "32"}]}}}, "dtype": {"type": "DT_FLOAT"}}}, {"name": "model_648/tf.nn.convolution_1283/convolution/filter", "op": "Const", "attr": {"value": {"tensor": {"dtype": "DT_FLOAT", "tensorShape": {"dim": [{"size": "3"}, {"size": "3"}, {"size": "32"}, {"size": "32"}]}}}, "dtype": {"type": "DT_FLOAT"}}}, {"name": "model_648/tf.math.add_585/Add/y", "op": "Const", "attr": {"value": {"tensor": {"dtype": "DT_FLOAT", "tensorShape": {"dim": [{"size": "32"}]}}}, "dtype": {"type": "DT_FLOAT"}}}, {"name": "model_648/tf.strided_slice_103/ones_like/tensor", "op": "Const", "attr": {"value": {"tensor": {"dtype": "DT_INT64", "tensorShape": {"dim": [{"size": "4"}]}}}, "dtype": {"type": "DT_INT64"}}}, {"name": "model_648/tf.strided_slice_103/StridedSlice/end", "op": "Const", "attr": {"value": {"tensor": {"dtype": "DT_INT64", "tensorShape": {"dim": [{"size": "4"}]}}}, "dtype": {"type": "DT_INT64"}}}, {"name": "model_648/tf.strided_slice_103/ones_like", "op": "Const", "attr": {"value": {"tensor": {"dtype": "DT_INT64", "tensorShape": {"dim": [{"size": "4"}]}}}, "dtype": {"type": "DT_INT64"}}}, {"name": "model_648/tf.nn.convolution_1259/convolution/filter", "op": "Const", "attr": {"value": {"tensor": {"dtype": "DT_FLOAT", "tensorShape": {"dim": [{"size": "1"}, {"size": "1"}, {"size": "32"}, {"size": "16"}]}}}, "dtype": {"type": "DT_FLOAT"}}}, {"name": "model_648/tf.math.add_553/Add/y", "op": "Const", "attr": {"value": {"tensor": {"dtype": "DT_FLOAT", "tensorShape": {"dim": [{"size": "16"}]}}}, "dtype": {"type": "DT_FLOAT"}}}, {"name": "model_648/tf.nn.convolution_1261/convolution/filter", "op": "Const", "attr": {"value": {"tensor": {"dtype": "DT_FLOAT", "tensorShape": {"dim": [{"size": "3"}, {"size": "3"}, {"size": "16"}, {"size": "16"}]}}}, "dtype": {"type": "DT_FLOAT"}}}, {"name": "model_648/tf.math.add_555/Add/y", "op": "Const", "attr": {"value": {"tensor": {"dtype": "DT_FLOAT", "tensorShape": {"dim": [{"size": "16"}]}}}, "dtype": {"type": "DT_FLOAT"}}}, {"name": "model_648/tf.nn.convolution_1262/convolution/filter", "op": "Const", "attr": {"value": {"tensor": {"dtype": "DT_FLOAT", "tensorShape": {"dim": [{"size": "3"}, {"size": "3"}, {"size": "16"}, {"size": "16"}]}}}, "dtype": {"type": "DT_FLOAT"}}}, {"name": "model_648/tf.math.add_556/Add/y", "op": "Const", "attr": {"value": {"tensor": {"dtype": "DT_FLOAT", "tensorShape": {"dim": [{"size": "16"}]}}}, "dtype": {"type": "DT_FLOAT"}}}, {"name": "model_648/tf.nn.convolution_1263/convolution/filter", "op": "Const", "attr": {"value": {"tensor": {"dtype": "DT_FLOAT", "tensorShape": {"dim": [{"size": "3"}, {"size": "3"}, {"size": "16"}, {"size": "16"}]}}}, "dtype": {"type": "DT_FLOAT"}}}, {"name": "model_648/tf.math.add_559/Add/y", "op": "Const", "attr": {"value": {"tensor": {"dtype": "DT_FLOAT", "tensorShape": {"dim": [{"size": "16"}]}}}, "dtype": {"type": "DT_FLOAT"}}}, {"name": "model_648/tf.nn.convolution_1264/convolution/filter", "op": "Const", "attr": {"value": {"tensor": {"dtype": "DT_FLOAT", "tensorShape": {"dim": [{"size": "3"}, {"size": "3"}, {"size": "16"}, {"size": "16"}]}}}, "dtype": {"type": "DT_FLOAT"}}}, {"name": "model_648/tf.math.add_560/Add/y", "op": "Const", "attr": {"value": {"tensor": {"dtype": "DT_FLOAT", "tensorShape": {"dim": [{"size": "16"}]}}}, "dtype": {"type": "DT_FLOAT"}}}, {"name": "model_648/tf.image.resize_9/resize/size", "op": "Const", "attr": {"value": {"tensor": {"dtype": "DT_INT32", "tensorShape": {"dim": [{"size": "2"}]}}}, "dtype": {"type": "DT_INT32"}}}, {"name": "model_648/tf.concat_133/concat/axis", "op": "Const", "attr": {"value": {"tensor": {"dtype": "DT_INT32", "tensorShape": {}}}, "dtype": {"type": "DT_INT32"}}}, {"name": "model_648/tf.nn.convolution_1258/convolution/filter", "op": "Const", "attr": {"value": {"tensor": {"dtype": "DT_FLOAT", "tensorShape": {"dim": [{"size": "1"}, {"size": "1"}, {"size": "256"}, {"size": "64"}]}}}, "dtype": {"type": "DT_FLOAT"}}}, {"name": "model_648/tf.math.add_552/Add/y", "op": "Const", "attr": {"value": {"tensor": {"dtype": "DT_FLOAT", "tensorShape": {"dim": [{"size": "64"}]}}}, "dtype": {"type": "DT_FLOAT"}}}, {"name": "model_648/tf.strided_slice_104/ones_like/tensor", "op": "Const", "attr": {"value": {"tensor": {"dtype": "DT_INT64", "tensorShape": {"dim": [{"size": "4"}]}}}, "dtype": {"type": "DT_INT64"}}}, {"name": "model_648/tf.strided_slice_104/StridedSlice/end", "op": "Const", "attr": {"value": {"tensor": {"dtype": "DT_INT64", "tensorShape": {"dim": [{"size": "4"}]}}}, "dtype": {"type": "DT_INT64"}}}, {"name": "model_648/tf.strided_slice_104/ones_like", "op": "Const", "attr": {"value": {"tensor": {"dtype": "DT_INT64", "tensorShape": {"dim": [{"size": "4"}]}}}, "dtype": {"type": "DT_INT64"}}}, {"name": "model_648/tf.nn.convolution_1260/convolution/filter", "op": "Const", "attr": {"value": {"tensor": {"dtype": "DT_FLOAT", "tensorShape": {"dim": [{"size": "1"}, {"size": "1"}, {"size": "32"}, {"size": "16"}]}}}, "dtype": {"type": "DT_FLOAT"}}}, {"name": "model_648/tf.math.add_554/Add/y", "op": "Const", "attr": {"value": {"tensor": {"dtype": "DT_FLOAT", "tensorShape": {"dim": [{"size": "16"}]}}}, "dtype": {"type": "DT_FLOAT"}}}, {"name": "model_648/tf.concat_134/concat/axis", "op": "Const", "attr": {"value": {"tensor": {"dtype": "DT_INT32", "tensorShape": {}}}, "dtype": {"type": "DT_INT32"}}}, {"name": "model_648/tf.nn.convolution_1265/convolution/filter", "op": "Const", "attr": {"value": {"tensor": {"dtype": "DT_FLOAT", "tensorShape": {"dim": [{"size": "1"}, {"size": "1"}, {"size": "32"}, {"size": "32"}]}}}, "dtype": {"type": "DT_FLOAT"}}}, {"name": "model_648/tf.math.add_563/Add/y", "op": "Const", "attr": {"value": {"tensor": {"dtype": "DT_FLOAT", "tensorShape": {"dim": [{"size": "32"}]}}}, "dtype": {"type": "DT_FLOAT"}}}, {"name": "model_648/tf.concat_135/concat/axis", "op": "Const", "attr": {"value": {"tensor": {"dtype": "DT_INT32", "tensorShape": {}}}, "dtype": {"type": "DT_INT32"}}}, {"name": "model_648/tf.nn.convolution_1266/convolution/filter", "op": "Const", "attr": {"value": {"tensor": {"dtype": "DT_FLOAT", "tensorShape": {"dim": [{"size": "1"}, {"size": "1"}, {"size": "96"}, {"size": "64"}]}}}, "dtype": {"type": "DT_FLOAT"}}}, {"name": "model_648/tf.math.add_564/Add/y", "op": "Const", "attr": {"value": {"tensor": {"dtype": "DT_FLOAT", "tensorShape": {"dim": [{"size": "64"}]}}}, "dtype": {"type": "DT_FLOAT"}}}, {"name": "model_648/tf.compat.v1.pad_26/Pad/paddings", "op": "Const", "attr": {"value": {"tensor": {"dtype": "DT_INT32", "tensorShape": {"dim": [{"size": "4"}, {"size": "2"}]}}}, "dtype": {"type": "DT_INT32"}}}, {"name": "model_648/tf.nn.convolution_1267/convolution/filter", "op": "Const", "attr": {"value": {"tensor": {"dtype": "DT_FLOAT", "tensorShape": {"dim": [{"size": "3"}, {"size": "3"}, {"size": "64"}, {"size": "64"}]}}}, "dtype": {"type": "DT_FLOAT"}}}, {"name": "model_648/tf.math.add_565/Add/y", "op": "Const", "attr": {"value": {"tensor": {"dtype": "DT_FLOAT", "tensorShape": {"dim": [{"size": "64"}]}}}, "dtype": {"type": "DT_FLOAT"}}}, {"name": "model_648/tf.strided_slice_101/ones_like/tensor", "op": "Const", "attr": {"value": {"tensor": {"dtype": "DT_INT64", "tensorShape": {"dim": [{"size": "4"}]}}}, "dtype": {"type": "DT_INT64"}}}, {"name": "model_648/tf.strided_slice_101/StridedSlice/end", "op": "Const", "attr": {"value": {"tensor": {"dtype": "DT_INT64", "tensorShape": {"dim": [{"size": "4"}]}}}, "dtype": {"type": "DT_INT64"}}}, {"name": "model_648/tf.strided_slice_101/ones_like", "op": "Const", "attr": {"value": {"tensor": {"dtype": "DT_INT64", "tensorShape": {"dim": [{"size": "4"}]}}}, "dtype": {"type": "DT_INT64"}}}, {"name": "model_648/tf.nn.convolution_1250/convolution/filter", "op": "Const", "attr": {"value": {"tensor": {"dtype": "DT_FLOAT", "tensorShape": {"dim": [{"size": "1"}, {"size": "1"}, {"size": "64"}, {"size": "32"}]}}}, "dtype": {"type": "DT_FLOAT"}}}, {"name": "model_648/tf.math.add_540/Add/y", "op": "Const", "attr": {"value": {"tensor": {"dtype": "DT_FLOAT", "tensorShape": {"dim": [{"size": "32"}]}}}, "dtype": {"type": "DT_FLOAT"}}}, {"name": "model_648/tf.nn.convolution_1252/convolution/filter", "op": "Const", "attr": {"value": {"tensor": {"dtype": "DT_FLOAT", "tensorShape": {"dim": [{"size": "3"}, {"size": "3"}, {"size": "32"}, {"size": "32"}]}}}, "dtype": {"type": "DT_FLOAT"}}}, {"name": "model_648/tf.math.add_542/Add/y", "op": "Const", "attr": {"value": {"tensor": {"dtype": "DT_FLOAT", "tensorShape": {"dim": [{"size": "32"}]}}}, "dtype": {"type": "DT_FLOAT"}}}, {"name": "model_648/tf.nn.convolution_1253/convolution/filter", "op": "Const", "attr": {"value": {"tensor": {"dtype": "DT_FLOAT", "tensorShape": {"dim": [{"size": "3"}, {"size": "3"}, {"size": "32"}, {"size": "32"}]}}}, "dtype": {"type": "DT_FLOAT"}}}, {"name": "model_648/tf.math.add_543/Add/y", "op": "Const", "attr": {"value": {"tensor": {"dtype": "DT_FLOAT", "tensorShape": {"dim": [{"size": "32"}]}}}, "dtype": {"type": "DT_FLOAT"}}}, {"name": "model_648/tf.nn.convolution_1254/convolution/filter", "op": "Const", "attr": {"value": {"tensor": {"dtype": "DT_FLOAT", "tensorShape": {"dim": [{"size": "3"}, {"size": "3"}, {"size": "32"}, {"size": "32"}]}}}, "dtype": {"type": "DT_FLOAT"}}}, {"name": "model_648/tf.math.add_546/Add/y", "op": "Const", "attr": {"value": {"tensor": {"dtype": "DT_FLOAT", "tensorShape": {"dim": [{"size": "32"}]}}}, "dtype": {"type": "DT_FLOAT"}}}, {"name": "model_648/tf.nn.convolution_1255/convolution/filter", "op": "Const", "attr": {"value": {"tensor": {"dtype": "DT_FLOAT", "tensorShape": {"dim": [{"size": "3"}, {"size": "3"}, {"size": "32"}, {"size": "32"}]}}}, "dtype": {"type": "DT_FLOAT"}}}, {"name": "model_648/tf.math.add_547/Add/y", "op": "Const", "attr": {"value": {"tensor": {"dtype": "DT_FLOAT", "tensorShape": {"dim": [{"size": "32"}]}}}, "dtype": {"type": "DT_FLOAT"}}}, {"name": "model_648/tf.image.resize_8/resize/size", "op": "Const", "attr": {"value": {"tensor": {"dtype": "DT_INT32", "tensorShape": {"dim": [{"size": "2"}]}}}, "dtype": {"type": "DT_INT32"}}}, {"name": "model_648/tf.concat_130/concat/axis", "op": "Const", "attr": {"value": {"tensor": {"dtype": "DT_INT32", "tensorShape": {}}}, "dtype": {"type": "DT_INT32"}}}, {"name": "model_648/tf.nn.convolution_1249/convolution/filter", "op": "Const", "attr": {"value": {"tensor": {"dtype": "DT_FLOAT", "tensorShape": {"dim": [{"size": "1"}, {"size": "1"}, {"size": "384"}, {"size": "128"}]}}}, "dtype": {"type": "DT_FLOAT"}}}, {"name": "model_648/tf.math.add_539/Add/y", "op": "Const", "attr": {"value": {"tensor": {"dtype": "DT_FLOAT", "tensorShape": {"dim": [{"size": "128"}]}}}, "dtype": {"type": "DT_FLOAT"}}}, {"name": "model_648/tf.strided_slice_102/ones_like/tensor", "op": "Const", "attr": {"value": {"tensor": {"dtype": "DT_INT64", "tensorShape": {"dim": [{"size": "4"}]}}}, "dtype": {"type": "DT_INT64"}}}, {"name": "model_648/tf.strided_slice_102/StridedSlice/end", "op": "Const", "attr": {"value": {"tensor": {"dtype": "DT_INT64", "tensorShape": {"dim": [{"size": "4"}]}}}, "dtype": {"type": "DT_INT64"}}}, {"name": "model_648/tf.strided_slice_102/ones_like", "op": "Const", "attr": {"value": {"tensor": {"dtype": "DT_INT64", "tensorShape": {"dim": [{"size": "4"}]}}}, "dtype": {"type": "DT_INT64"}}}, {"name": "model_648/tf.nn.convolution_1251/convolution/filter", "op": "Const", "attr": {"value": {"tensor": {"dtype": "DT_FLOAT", "tensorShape": {"dim": [{"size": "1"}, {"size": "1"}, {"size": "64"}, {"size": "32"}]}}}, "dtype": {"type": "DT_FLOAT"}}}, {"name": "model_648/tf.math.add_541/Add/y", "op": "Const", "attr": {"value": {"tensor": {"dtype": "DT_FLOAT", "tensorShape": {"dim": [{"size": "32"}]}}}, "dtype": {"type": "DT_FLOAT"}}}, {"name": "model_648/tf.concat_131/concat/axis", "op": "Const", "attr": {"value": {"tensor": {"dtype": "DT_INT32", "tensorShape": {}}}, "dtype": {"type": "DT_INT32"}}}, {"name": "model_648/tf.nn.convolution_1256/convolution/filter", "op": "Const", "attr": {"value": {"tensor": {"dtype": "DT_FLOAT", "tensorShape": {"dim": [{"size": "1"}, {"size": "1"}, {"size": "64"}, {"size": "64"}]}}}, "dtype": {"type": "DT_FLOAT"}}}, {"name": "model_648/tf.math.add_550/Add/y", "op": "Const", "attr": {"value": {"tensor": {"dtype": "DT_FLOAT", "tensorShape": {"dim": [{"size": "64"}]}}}, "dtype": {"type": "DT_FLOAT"}}}, {"name": "model_648/tf.concat_132/concat/axis", "op": "Const", "attr": {"value": {"tensor": {"dtype": "DT_INT32", "tensorShape": {}}}, "dtype": {"type": "DT_INT32"}}}, {"name": "model_648/tf.nn.convolution_1257/convolution/filter", "op": "Const", "attr": {"value": {"tensor": {"dtype": "DT_FLOAT", "tensorShape": {"dim": [{"size": "1"}, {"size": "1"}, {"size": "192"}, {"size": "128"}]}}}, "dtype": {"type": "DT_FLOAT"}}}, {"name": "model_648/tf.math.add_551/Add/y", "op": "Const", "attr": {"value": {"tensor": {"dtype": "DT_FLOAT", "tensorShape": {"dim": [{"size": "128"}]}}}, "dtype": {"type": "DT_FLOAT"}}}, {"name": "model_648/tf.concat_136/concat/axis", "op": "Const", "attr": {"value": {"tensor": {"dtype": "DT_INT32", "tensorShape": {}}}, "dtype": {"type": "DT_INT32"}}}, {"name": "model_648/tf.nn.convolution_1273/convolution/filter", "op": "Const", "attr": {"value": {"tensor": {"dtype": "DT_FLOAT", "tensorShape": {"dim": [{"size": "1"}, {"size": "1"}, {"size": "192"}, {"size": "128"}]}}}, "dtype": {"type": "DT_FLOAT"}}}, {"name": "model_648/tf.math.add_572/Add/y", "op": "Const", "attr": {"value": {"tensor": {"dtype": "DT_FLOAT", "tensorShape": {"dim": [{"size": "128"}]}}}, "dtype": {"type": "DT_FLOAT"}}}, {"name": "model_648/tf.strided_slice_106/ones_like/tensor", "op": "Const", "attr": {"value": {"tensor": {"dtype": "DT_INT64", "tensorShape": {"dim": [{"size": "4"}]}}}, "dtype": {"type": "DT_INT64"}}}, {"name": "model_648/tf.strided_slice_106/StridedSlice/end", "op": "Const", "attr": {"value": {"tensor": {"dtype": "DT_INT64", "tensorShape": {"dim": [{"size": "4"}]}}}, "dtype": {"type": "DT_INT64"}}}, {"name": "model_648/tf.strided_slice_106/ones_like", "op": "Const", "attr": {"value": {"tensor": {"dtype": "DT_INT64", "tensorShape": {"dim": [{"size": "4"}]}}}, "dtype": {"type": "DT_INT64"}}}, {"name": "model_648/tf.nn.convolution_1277/convolution/filter", "op": "Const", "attr": {"value": {"tensor": {"dtype": "DT_FLOAT", "tensorShape": {"dim": [{"size": "1"}, {"size": "1"}, {"size": "64"}, {"size": "32"}]}}}, "dtype": {"type": "DT_FLOAT"}}}, {"name": "model_648/tf.math.add_577/Add/y", "op": "Const", "attr": {"value": {"tensor": {"dtype": "DT_FLOAT", "tensorShape": {"dim": [{"size": "32"}]}}}, "dtype": {"type": "DT_FLOAT"}}}, {"name": "model_648/tf.concat_137/concat/axis", "op": "Const", "attr": {"value": {"tensor": {"dtype": "DT_INT32", "tensorShape": {}}}, "dtype": {"type": "DT_INT32"}}}, {"name": "model_648/tf.nn.convolution_1284/convolution/filter", "op": "Const", "attr": {"value": {"tensor": {"dtype": "DT_FLOAT", "tensorShape": {"dim": [{"size": "1"}, {"size": "1"}, {"size": "64"}, {"size": "64"}]}}}, "dtype": {"type": "DT_FLOAT"}}}, {"name": "model_648/tf.math.add_588/Add/y", "op": "Const", "attr": {"value": {"tensor": {"dtype": "DT_FLOAT", "tensorShape": {"dim": [{"size": "64"}]}}}, "dtype": {"type": "DT_FLOAT"}}}, {"name": "model_648/tf.concat_138/concat/axis", "op": "Const", "attr": {"value": {"tensor": {"dtype": "DT_INT32", "tensorShape": {}}}, "dtype": {"type": "DT_INT32"}}}, {"name": "model_648/tf.nn.convolution_1285/convolution/filter", "op": "Const", "attr": {"value": {"tensor": {"dtype": "DT_FLOAT", "tensorShape": {"dim": [{"size": "1"}, {"size": "1"}, {"size": "192"}, {"size": "128"}]}}}, "dtype": {"type": "DT_FLOAT"}}}, {"name": "model_648/tf.math.add_589/Add/y", "op": "Const", "attr": {"value": {"tensor": {"dtype": "DT_FLOAT", "tensorShape": {"dim": [{"size": "128"}]}}}, "dtype": {"type": "DT_FLOAT"}}}, {"name": "model_648/tf.compat.v1.pad_27/Pad/paddings", "op": "Const", "attr": {"value": {"tensor": {"dtype": "DT_INT32", "tensorShape": {"dim": [{"size": "4"}, {"size": "2"}]}}}, "dtype": {"type": "DT_INT32"}}}, {"name": "model_648/tf.nn.convolution_1286/convolution/filter", "op": "Const", "attr": {"value": {"tensor": {"dtype": "DT_FLOAT", "tensorShape": {"dim": [{"size": "3"}, {"size": "3"}, {"size": "128"}, {"size": "128"}]}}}, "dtype": {"type": "DT_FLOAT"}}}, {"name": "model_648/tf.math.add_590/Add/y", "op": "Const", "attr": {"value": {"tensor": {"dtype": "DT_FLOAT", "tensorShape": {"dim": [{"size": "128"}]}}}, "dtype": {"type": "DT_FLOAT"}}}, {"name": "model_648/tf.strided_slice_96/StridedSlice/begin", "op": "Const", "attr": {"value": {"tensor": {"dtype": "DT_INT32", "tensorShape": {"dim": [{"size": "4"}]}}}, "dtype": {"type": "DT_INT32"}}}, {"name": "model_648/tf.strided_slice_96/StridedSlice/end", "op": "Const", "attr": {"value": {"tensor": {"dtype": "DT_INT32", "tensorShape": {"dim": [{"size": "4"}]}}}, "dtype": {"type": "DT_INT32"}}}, {"name": "model_648/tf.strided_slice_96/ones_like", "op": "Const", "attr": {"value": {"tensor": {"dtype": "DT_INT32", "tensorShape": {"dim": [{"size": "4"}]}}}, "dtype": {"type": "DT_INT32"}}}, {"name": "model_648/tf.math.add_535/Add/y", "op": "Const", "attr": {"value": {"tensor": {"dtype": "DT_FLOAT", "tensorShape": {"dim": [{"size": "128"}]}}}, "dtype": {"type": "DT_FLOAT"}}}, {"name": "model_648/tf.math.add_528/Add/y", "op": "Const", "attr": {"value": {"tensor": {"dtype": "DT_FLOAT", "tensorShape": {"dim": [{"size": "128"}]}}}, "dtype": {"type": "DT_FLOAT"}}}, {"name": "model_648/tf.strided_slice_98/StridedSlice/begin", "op": "Const", "attr": {"value": {"tensor": {"dtype": "DT_INT32", "tensorShape": {"dim": [{"size": "4"}]}}}, "dtype": {"type": "DT_INT32"}}}, {"name": "model_648/tf.strided_slice_98/StridedSlice/end", "op": "Const", "attr": {"value": {"tensor": {"dtype": "DT_INT32", "tensorShape": {"dim": [{"size": "4"}]}}}, "dtype": {"type": "DT_INT32"}}}, {"name": "model_648/tf.strided_slice_98/ones_like", "op": "Const", "attr": {"value": {"tensor": {"dtype": "DT_INT32", "tensorShape": {"dim": [{"size": "4"}]}}}, "dtype": {"type": "DT_INT32"}}}, {"name": "model_648/tf.strided_slice_99/StridedSlice/begin", "op": "Const", "attr": {"value": {"tensor": {"dtype": "DT_INT32", "tensorShape": {"dim": [{"size": "4"}]}}}, "dtype": {"type": "DT_INT32"}}}, {"name": "model_648/tf.strided_slice_99/StridedSlice/end", "op": "Const", "attr": {"value": {"tensor": {"dtype": "DT_INT32", "tensorShape": {"dim": [{"size": "4"}]}}}, "dtype": {"type": "DT_INT32"}}}, {"name": "model_648/tf.strided_slice_99/ones_like", "op": "Const", "attr": {"value": {"tensor": {"dtype": "DT_INT32", "tensorShape": {"dim": [{"size": "4"}]}}}, "dtype": {"type": "DT_INT32"}}}, {"name": "model_648/tf.math.multiply_1433/Mul/y", "op": "Const", "attr": {"value": {"tensor": {"dtype": "DT_FLOAT", "tensorShape": {}}}, "dtype": {"type": "DT_FLOAT"}}}, {"name": "model_648/tf.reshape_294/Reshape/shape", "op": "Const", "attr": {"value": {"tensor": {"dtype": "DT_INT32", "tensorShape": {"dim": [{"size": "4"}]}}}, "dtype": {"type": "DT_INT32"}}}, {"name": "model_648/tf.compat.v1.transpose_1005/transpose/perm", "op": "Const", "attr": {"value": {"tensor": {"dtype": "DT_INT32", "tensorShape": {"dim": [{"size": "4"}]}}}, "dtype": {"type": "DT_INT32"}}}, {"name": "model_648/tf.nn.convolution_1117/convolution/filter", "op": "Const", "attr": {"value": {"tensor": {"dtype": "DT_FLOAT", "tensorShape": {"dim": [{"size": "3"}, {"size": "3"}, {"size": "1"}, {"size": "1"}]}}}, "dtype": {"type": "DT_FLOAT"}}}, {"name": "model_648/tf.nn.convolution_1118/convolution/filter", "op": "Const", "attr": {"value": {"tensor": {"dtype": "DT_FLOAT", "tensorShape": {"dim": [{"size": "3"}, {"size": "3"}, {"size": "1"}, {"size": "1"}]}}}, "dtype": {"type": "DT_FLOAT"}}}, {"name": "model_648/tf.nn.convolution_1119/convolution/filter", "op": "Const", "attr": {"value": {"tensor": {"dtype": "DT_FLOAT", "tensorShape": {"dim": [{"size": "3"}, {"size": "3"}, {"size": "1"}, {"size": "1"}]}}}, "dtype": {"type": "DT_FLOAT"}}}, {"name": "model_648/tf.nn.convolution_1120/convolution/filter", "op": "Const", "attr": {"value": {"tensor": {"dtype": "DT_FLOAT", "tensorShape": {"dim": [{"size": "3"}, {"size": "3"}, {"size": "1"}, {"size": "1"}]}}}, "dtype": {"type": "DT_FLOAT"}}}, {"name": "model_648/tf.nn.convolution_1121/convolution/filter", "op": "Const", "attr": {"value": {"tensor": {"dtype": "DT_FLOAT", "tensorShape": {"dim": [{"size": "3"}, {"size": "3"}, {"size": "1"}, {"size": "1"}]}}}, "dtype": {"type": "DT_FLOAT"}}}, {"name": "model_648/tf.nn.convolution_1122/convolution/filter", "op": "Const", "attr": {"value": {"tensor": {"dtype": "DT_FLOAT", "tensorShape": {"dim": [{"size": "3"}, {"size": "3"}, {"size": "1"}, {"size": "1"}]}}}, "dtype": {"type": "DT_FLOAT"}}}, {"name": "model_648/tf.nn.convolution_1123/convolution/filter", "op": "Const", "attr": {"value": {"tensor": {"dtype": "DT_FLOAT", "tensorShape": {"dim": [{"size": "3"}, {"size": "3"}, {"size": "1"}, {"size": "1"}]}}}, "dtype": {"type": "DT_FLOAT"}}}, {"name": "model_648/tf.nn.convolution_1124/convolution/filter", "op": "Const", "attr": {"value": {"tensor": {"dtype": "DT_FLOAT", "tensorShape": {"dim": [{"size": "3"}, {"size": "3"}, {"size": "1"}, {"size": "1"}]}}}, "dtype": {"type": "DT_FLOAT"}}}, {"name": "model_648/tf.nn.convolution_1125/convolution/filter", "op": "Const", "attr": {"value": {"tensor": {"dtype": "DT_FLOAT", "tensorShape": {"dim": [{"size": "3"}, {"size": "3"}, {"size": "1"}, {"size": "1"}]}}}, "dtype": {"type": "DT_FLOAT"}}}, {"name": "model_648/tf.nn.convolution_1126/convolution/filter", "op": "Const", "attr": {"value": {"tensor": {"dtype": "DT_FLOAT", "tensorShape": {"dim": [{"size": "3"}, {"size": "3"}, {"size": "1"}, {"size": "1"}]}}}, "dtype": {"type": "DT_FLOAT"}}}, {"name": "model_648/tf.nn.convolution_1127/convolution/filter", "op": "Const", "attr": {"value": {"tensor": {"dtype": "DT_FLOAT", "tensorShape": {"dim": [{"size": "3"}, {"size": "3"}, {"size": "1"}, {"size": "1"}]}}}, "dtype": {"type": "DT_FLOAT"}}}, {"name": "model_648/tf.nn.convolution_1128/convolution/filter", "op": "Const", "attr": {"value": {"tensor": {"dtype": "DT_FLOAT", "tensorShape": {"dim": [{"size": "3"}, {"size": "3"}, {"size": "1"}, {"size": "1"}]}}}, "dtype": {"type": "DT_FLOAT"}}}, {"name": "model_648/tf.nn.convolution_1129/convolution/filter", "op": "Const", "attr": {"value": {"tensor": {"dtype": "DT_FLOAT", "tensorShape": {"dim": [{"size": "3"}, {"size": "3"}, {"size": "1"}, {"size": "1"}]}}}, "dtype": {"type": "DT_FLOAT"}}}, {"name": "model_648/tf.nn.convolution_1130/convolution/filter", "op": "Const", "attr": {"value": {"tensor": {"dtype": "DT_FLOAT", "tensorShape": {"dim": [{"size": "3"}, {"size": "3"}, {"size": "1"}, {"size": "1"}]}}}, "dtype": {"type": "DT_FLOAT"}}}, {"name": "model_648/tf.nn.convolution_1131/convolution/filter", "op": "Const", "attr": {"value": {"tensor": {"dtype": "DT_FLOAT", "tensorShape": {"dim": [{"size": "3"}, {"size": "3"}, {"size": "1"}, {"size": "1"}]}}}, "dtype": {"type": "DT_FLOAT"}}}, {"name": "model_648/tf.nn.convolution_1132/convolution/filter", "op": "Const", "attr": {"value": {"tensor": {"dtype": "DT_FLOAT", "tensorShape": {"dim": [{"size": "3"}, {"size": "3"}, {"size": "1"}, {"size": "1"}]}}}, "dtype": {"type": "DT_FLOAT"}}}, {"name": "model_648/tf.nn.convolution_1133/convolution/filter", "op": "Const", "attr": {"value": {"tensor": {"dtype": "DT_FLOAT", "tensorShape": {"dim": [{"size": "3"}, {"size": "3"}, {"size": "1"}, {"size": "1"}]}}}, "dtype": {"type": "DT_FLOAT"}}}, {"name": "model_648/tf.nn.convolution_1134/convolution/filter", "op": "Const", "attr": {"value": {"tensor": {"dtype": "DT_FLOAT", "tensorShape": {"dim": [{"size": "3"}, {"size": "3"}, {"size": "1"}, {"size": "1"}]}}}, "dtype": {"type": "DT_FLOAT"}}}, {"name": "model_648/tf.nn.convolution_1135/convolution/filter", "op": "Const", "attr": {"value": {"tensor": {"dtype": "DT_FLOAT", "tensorShape": {"dim": [{"size": "3"}, {"size": "3"}, {"size": "1"}, {"size": "1"}]}}}, "dtype": {"type": "DT_FLOAT"}}}, {"name": "model_648/tf.nn.convolution_1136/convolution/filter", "op": "Const", "attr": {"value": {"tensor": {"dtype": "DT_FLOAT", "tensorShape": {"dim": [{"size": "3"}, {"size": "3"}, {"size": "1"}, {"size": "1"}]}}}, "dtype": {"type": "DT_FLOAT"}}}, {"name": "model_648/tf.nn.convolution_1137/convolution/filter", "op": "Const", "attr": {"value": {"tensor": {"dtype": "DT_FLOAT", "tensorShape": {"dim": [{"size": "3"}, {"size": "3"}, {"size": "1"}, {"size": "1"}]}}}, "dtype": {"type": "DT_FLOAT"}}}, {"name": "model_648/tf.nn.convolution_1138/convolution/filter", "op": "Const", "attr": {"value": {"tensor": {"dtype": "DT_FLOAT", "tensorShape": {"dim": [{"size": "3"}, {"size": "3"}, {"size": "1"}, {"size": "1"}]}}}, "dtype": {"type": "DT_FLOAT"}}}, {"name": "model_648/tf.nn.convolution_1139/convolution/filter", "op": "Const", "attr": {"value": {"tensor": {"dtype": "DT_FLOAT", "tensorShape": {"dim": [{"size": "3"}, {"size": "3"}, {"size": "1"}, {"size": "1"}]}}}, "dtype": {"type": "DT_FLOAT"}}}, {"name": "model_648/tf.nn.convolution_1140/convolution/filter", "op": "Const", "attr": {"value": {"tensor": {"dtype": "DT_FLOAT", "tensorShape": {"dim": [{"size": "3"}, {"size": "3"}, {"size": "1"}, {"size": "1"}]}}}, "dtype": {"type": "DT_FLOAT"}}}, {"name": "model_648/tf.nn.convolution_1141/convolution/filter", "op": "Const", "attr": {"value": {"tensor": {"dtype": "DT_FLOAT", "tensorShape": {"dim": [{"size": "3"}, {"size": "3"}, {"size": "1"}, {"size": "1"}]}}}, "dtype": {"type": "DT_FLOAT"}}}, {"name": "model_648/tf.nn.convolution_1142/convolution/filter", "op": "Const", "attr": {"value": {"tensor": {"dtype": "DT_FLOAT", "tensorShape": {"dim": [{"size": "3"}, {"size": "3"}, {"size": "1"}, {"size": "1"}]}}}, "dtype": {"type": "DT_FLOAT"}}}, {"name": "model_648/tf.nn.convolution_1143/convolution/filter", "op": "Const", "attr": {"value": {"tensor": {"dtype": "DT_FLOAT", "tensorShape": {"dim": [{"size": "3"}, {"size": "3"}, {"size": "1"}, {"size": "1"}]}}}, "dtype": {"type": "DT_FLOAT"}}}, {"name": "model_648/tf.nn.convolution_1144/convolution/filter", "op": "Const", "attr": {"value": {"tensor": {"dtype": "DT_FLOAT", "tensorShape": {"dim": [{"size": "3"}, {"size": "3"}, {"size": "1"}, {"size": "1"}]}}}, "dtype": {"type": "DT_FLOAT"}}}, {"name": "model_648/tf.nn.convolution_1145/convolution/filter", "op": "Const", "attr": {"value": {"tensor": {"dtype": "DT_FLOAT", "tensorShape": {"dim": [{"size": "3"}, {"size": "3"}, {"size": "1"}, {"size": "1"}]}}}, "dtype": {"type": "DT_FLOAT"}}}, {"name": "model_648/tf.nn.convolution_1146/convolution/filter", "op": "Const", "attr": {"value": {"tensor": {"dtype": "DT_FLOAT", "tensorShape": {"dim": [{"size": "3"}, {"size": "3"}, {"size": "1"}, {"size": "1"}]}}}, "dtype": {"type": "DT_FLOAT"}}}, {"name": "model_648/tf.nn.convolution_1147/convolution/filter", "op": "Const", "attr": {"value": {"tensor": {"dtype": "DT_FLOAT", "tensorShape": {"dim": [{"size": "3"}, {"size": "3"}, {"size": "1"}, {"size": "1"}]}}}, "dtype": {"type": "DT_FLOAT"}}}, {"name": "model_648/tf.nn.convolution_1148/convolution/filter", "op": "Const", "attr": {"value": {"tensor": {"dtype": "DT_FLOAT", "tensorShape": {"dim": [{"size": "3"}, {"size": "3"}, {"size": "1"}, {"size": "1"}]}}}, "dtype": {"type": "DT_FLOAT"}}}, {"name": "model_648/tf.nn.convolution_1149/convolution/filter", "op": "Const", "attr": {"value": {"tensor": {"dtype": "DT_FLOAT", "tensorShape": {"dim": [{"size": "3"}, {"size": "3"}, {"size": "1"}, {"size": "1"}]}}}, "dtype": {"type": "DT_FLOAT"}}}, {"name": "model_648/tf.nn.convolution_1150/convolution/filter", "op": "Const", "attr": {"value": {"tensor": {"dtype": "DT_FLOAT", "tensorShape": {"dim": [{"size": "3"}, {"size": "3"}, {"size": "1"}, {"size": "1"}]}}}, "dtype": {"type": "DT_FLOAT"}}}, {"name": "model_648/tf.nn.convolution_1151/convolution/filter", "op": "Const", "attr": {"value": {"tensor": {"dtype": "DT_FLOAT", "tensorShape": {"dim": [{"size": "3"}, {"size": "3"}, {"size": "1"}, {"size": "1"}]}}}, "dtype": {"type": "DT_FLOAT"}}}, {"name": "model_648/tf.nn.convolution_1152/convolution/filter", "op": "Const", "attr": {"value": {"tensor": {"dtype": "DT_FLOAT", "tensorShape": {"dim": [{"size": "3"}, {"size": "3"}, {"size": "1"}, {"size": "1"}]}}}, "dtype": {"type": "DT_FLOAT"}}}, {"name": "model_648/tf.nn.convolution_1153/convolution/filter", "op": "Const", "attr": {"value": {"tensor": {"dtype": "DT_FLOAT", "tensorShape": {"dim": [{"size": "3"}, {"size": "3"}, {"size": "1"}, {"size": "1"}]}}}, "dtype": {"type": "DT_FLOAT"}}}, {"name": "model_648/tf.nn.convolution_1154/convolution/filter", "op": "Const", "attr": {"value": {"tensor": {"dtype": "DT_FLOAT", "tensorShape": {"dim": [{"size": "3"}, {"size": "3"}, {"size": "1"}, {"size": "1"}]}}}, "dtype": {"type": "DT_FLOAT"}}}, {"name": "model_648/tf.nn.convolution_1155/convolution/filter", "op": "Const", "attr": {"value": {"tensor": {"dtype": "DT_FLOAT", "tensorShape": {"dim": [{"size": "3"}, {"size": "3"}, {"size": "1"}, {"size": "1"}]}}}, "dtype": {"type": "DT_FLOAT"}}}, {"name": "model_648/tf.nn.convolution_1156/convolution/filter", "op": "Const", "attr": {"value": {"tensor": {"dtype": "DT_FLOAT", "tensorShape": {"dim": [{"size": "3"}, {"size": "3"}, {"size": "1"}, {"size": "1"}]}}}, "dtype": {"type": "DT_FLOAT"}}}, {"name": "model_648/tf.nn.convolution_1157/convolution/filter", "op": "Const", "attr": {"value": {"tensor": {"dtype": "DT_FLOAT", "tensorShape": {"dim": [{"size": "3"}, {"size": "3"}, {"size": "1"}, {"size": "1"}]}}}, "dtype": {"type": "DT_FLOAT"}}}, {"name": "model_648/tf.nn.convolution_1158/convolution/filter", "op": "Const", "attr": {"value": {"tensor": {"dtype": "DT_FLOAT", "tensorShape": {"dim": [{"size": "3"}, {"size": "3"}, {"size": "1"}, {"size": "1"}]}}}, "dtype": {"type": "DT_FLOAT"}}}, {"name": "model_648/tf.nn.convolution_1159/convolution/filter", "op": "Const", "attr": {"value": {"tensor": {"dtype": "DT_FLOAT", "tensorShape": {"dim": [{"size": "3"}, {"size": "3"}, {"size": "1"}, {"size": "1"}]}}}, "dtype": {"type": "DT_FLOAT"}}}, {"name": "model_648/tf.nn.convolution_1160/convolution/filter", "op": "Const", "attr": {"value": {"tensor": {"dtype": "DT_FLOAT", "tensorShape": {"dim": [{"size": "3"}, {"size": "3"}, {"size": "1"}, {"size": "1"}]}}}, "dtype": {"type": "DT_FLOAT"}}}, {"name": "model_648/tf.nn.convolution_1161/convolution/filter", "op": "Const", "attr": {"value": {"tensor": {"dtype": "DT_FLOAT", "tensorShape": {"dim": [{"size": "3"}, {"size": "3"}, {"size": "1"}, {"size": "1"}]}}}, "dtype": {"type": "DT_FLOAT"}}}, {"name": "model_648/tf.nn.convolution_1162/convolution/filter", "op": "Const", "attr": {"value": {"tensor": {"dtype": "DT_FLOAT", "tensorShape": {"dim": [{"size": "3"}, {"size": "3"}, {"size": "1"}, {"size": "1"}]}}}, "dtype": {"type": "DT_FLOAT"}}}, {"name": "model_648/tf.nn.convolution_1163/convolution/filter", "op": "Const", "attr": {"value": {"tensor": {"dtype": "DT_FLOAT", "tensorShape": {"dim": [{"size": "3"}, {"size": "3"}, {"size": "1"}, {"size": "1"}]}}}, "dtype": {"type": "DT_FLOAT"}}}, {"name": "model_648/tf.nn.convolution_1164/convolution/filter", "op": "Const", "attr": {"value": {"tensor": {"dtype": "DT_FLOAT", "tensorShape": {"dim": [{"size": "3"}, {"size": "3"}, {"size": "1"}, {"size": "1"}]}}}, "dtype": {"type": "DT_FLOAT"}}}, {"name": "model_648/tf.nn.convolution_1165/convolution/filter", "op": "Const", "attr": {"value": {"tensor": {"dtype": "DT_FLOAT", "tensorShape": {"dim": [{"size": "3"}, {"size": "3"}, {"size": "1"}, {"size": "1"}]}}}, "dtype": {"type": "DT_FLOAT"}}}, {"name": "model_648/tf.nn.convolution_1166/convolution/filter", "op": "Const", "attr": {"value": {"tensor": {"dtype": "DT_FLOAT", "tensorShape": {"dim": [{"size": "3"}, {"size": "3"}, {"size": "1"}, {"size": "1"}]}}}, "dtype": {"type": "DT_FLOAT"}}}, {"name": "model_648/tf.nn.convolution_1167/convolution/filter", "op": "Const", "attr": {"value": {"tensor": {"dtype": "DT_FLOAT", "tensorShape": {"dim": [{"size": "3"}, {"size": "3"}, {"size": "1"}, {"size": "1"}]}}}, "dtype": {"type": "DT_FLOAT"}}}, {"name": "model_648/tf.nn.convolution_1168/convolution/filter", "op": "Const", "attr": {"value": {"tensor": {"dtype": "DT_FLOAT", "tensorShape": {"dim": [{"size": "3"}, {"size": "3"}, {"size": "1"}, {"size": "1"}]}}}, "dtype": {"type": "DT_FLOAT"}}}, {"name": "model_648/tf.nn.convolution_1169/convolution/filter", "op": "Const", "attr": {"value": {"tensor": {"dtype": "DT_FLOAT", "tensorShape": {"dim": [{"size": "3"}, {"size": "3"}, {"size": "1"}, {"size": "1"}]}}}, "dtype": {"type": "DT_FLOAT"}}}, {"name": "model_648/tf.nn.convolution_1170/convolution/filter", "op": "Const", "attr": {"value": {"tensor": {"dtype": "DT_FLOAT", "tensorShape": {"dim": [{"size": "3"}, {"size": "3"}, {"size": "1"}, {"size": "1"}]}}}, "dtype": {"type": "DT_FLOAT"}}}, {"name": "model_648/tf.nn.convolution_1171/convolution/filter", "op": "Const", "attr": {"value": {"tensor": {"dtype": "DT_FLOAT", "tensorShape": {"dim": [{"size": "3"}, {"size": "3"}, {"size": "1"}, {"size": "1"}]}}}, "dtype": {"type": "DT_FLOAT"}}}, {"name": "model_648/tf.nn.convolution_1172/convolution/filter", "op": "Const", "attr": {"value": {"tensor": {"dtype": "DT_FLOAT", "tensorShape": {"dim": [{"size": "3"}, {"size": "3"}, {"size": "1"}, {"size": "1"}]}}}, "dtype": {"type": "DT_FLOAT"}}}, {"name": "model_648/tf.nn.convolution_1173/convolution/filter", "op": "Const", "attr": {"value": {"tensor": {"dtype": "DT_FLOAT", "tensorShape": {"dim": [{"size": "3"}, {"size": "3"}, {"size": "1"}, {"size": "1"}]}}}, "dtype": {"type": "DT_FLOAT"}}}, {"name": "model_648/tf.nn.convolution_1174/convolution/filter", "op": "Const", "attr": {"value": {"tensor": {"dtype": "DT_FLOAT", "tensorShape": {"dim": [{"size": "3"}, {"size": "3"}, {"size": "1"}, {"size": "1"}]}}}, "dtype": {"type": "DT_FLOAT"}}}, {"name": "model_648/tf.nn.convolution_1175/convolution/filter", "op": "Const", "attr": {"value": {"tensor": {"dtype": "DT_FLOAT", "tensorShape": {"dim": [{"size": "3"}, {"size": "3"}, {"size": "1"}, {"size": "1"}]}}}, "dtype": {"type": "DT_FLOAT"}}}, {"name": "model_648/tf.nn.convolution_1176/convolution/filter", "op": "Const", "attr": {"value": {"tensor": {"dtype": "DT_FLOAT", "tensorShape": {"dim": [{"size": "3"}, {"size": "3"}, {"size": "1"}, {"size": "1"}]}}}, "dtype": {"type": "DT_FLOAT"}}}, {"name": "model_648/tf.nn.convolution_1177/convolution/filter", "op": "Const", "attr": {"value": {"tensor": {"dtype": "DT_FLOAT", "tensorShape": {"dim": [{"size": "3"}, {"size": "3"}, {"size": "1"}, {"size": "1"}]}}}, "dtype": {"type": "DT_FLOAT"}}}, {"name": "model_648/tf.nn.convolution_1178/convolution/filter", "op": "Const", "attr": {"value": {"tensor": {"dtype": "DT_FLOAT", "tensorShape": {"dim": [{"size": "3"}, {"size": "3"}, {"size": "1"}, {"size": "1"}]}}}, "dtype": {"type": "DT_FLOAT"}}}, {"name": "model_648/tf.nn.convolution_1179/convolution/filter", "op": "Const", "attr": {"value": {"tensor": {"dtype": "DT_FLOAT", "tensorShape": {"dim": [{"size": "3"}, {"size": "3"}, {"size": "1"}, {"size": "1"}]}}}, "dtype": {"type": "DT_FLOAT"}}}, {"name": "model_648/tf.nn.convolution_1180/convolution/filter", "op": "Const", "attr": {"value": {"tensor": {"dtype": "DT_FLOAT", "tensorShape": {"dim": [{"size": "3"}, {"size": "3"}, {"size": "1"}, {"size": "1"}]}}}, "dtype": {"type": "DT_FLOAT"}}}, {"name": "model_648/tf.nn.convolution_1181/convolution/filter", "op": "Const", "attr": {"value": {"tensor": {"dtype": "DT_FLOAT", "tensorShape": {"dim": [{"size": "3"}, {"size": "3"}, {"size": "1"}, {"size": "1"}]}}}, "dtype": {"type": "DT_FLOAT"}}}, {"name": "model_648/tf.nn.convolution_1182/convolution/filter", "op": "Const", "attr": {"value": {"tensor": {"dtype": "DT_FLOAT", "tensorShape": {"dim": [{"size": "3"}, {"size": "3"}, {"size": "1"}, {"size": "1"}]}}}, "dtype": {"type": "DT_FLOAT"}}}, {"name": "model_648/tf.nn.convolution_1183/convolution/filter", "op": "Const", "attr": {"value": {"tensor": {"dtype": "DT_FLOAT", "tensorShape": {"dim": [{"size": "3"}, {"size": "3"}, {"size": "1"}, {"size": "1"}]}}}, "dtype": {"type": "DT_FLOAT"}}}, {"name": "model_648/tf.nn.convolution_1184/convolution/filter", "op": "Const", "attr": {"value": {"tensor": {"dtype": "DT_FLOAT", "tensorShape": {"dim": [{"size": "3"}, {"size": "3"}, {"size": "1"}, {"size": "1"}]}}}, "dtype": {"type": "DT_FLOAT"}}}, {"name": "model_648/tf.nn.convolution_1185/convolution/filter", "op": "Const", "attr": {"value": {"tensor": {"dtype": "DT_FLOAT", "tensorShape": {"dim": [{"size": "3"}, {"size": "3"}, {"size": "1"}, {"size": "1"}]}}}, "dtype": {"type": "DT_FLOAT"}}}, {"name": "model_648/tf.nn.convolution_1186/convolution/filter", "op": "Const", "attr": {"value": {"tensor": {"dtype": "DT_FLOAT", "tensorShape": {"dim": [{"size": "3"}, {"size": "3"}, {"size": "1"}, {"size": "1"}]}}}, "dtype": {"type": "DT_FLOAT"}}}, {"name": "model_648/tf.nn.convolution_1187/convolution/filter", "op": "Const", "attr": {"value": {"tensor": {"dtype": "DT_FLOAT", "tensorShape": {"dim": [{"size": "3"}, {"size": "3"}, {"size": "1"}, {"size": "1"}]}}}, "dtype": {"type": "DT_FLOAT"}}}, {"name": "model_648/tf.nn.convolution_1188/convolution/filter", "op": "Const", "attr": {"value": {"tensor": {"dtype": "DT_FLOAT", "tensorShape": {"dim": [{"size": "3"}, {"size": "3"}, {"size": "1"}, {"size": "1"}]}}}, "dtype": {"type": "DT_FLOAT"}}}, {"name": "model_648/tf.nn.convolution_1189/convolution/filter", "op": "Const", "attr": {"value": {"tensor": {"dtype": "DT_FLOAT", "tensorShape": {"dim": [{"size": "3"}, {"size": "3"}, {"size": "1"}, {"size": "1"}]}}}, "dtype": {"type": "DT_FLOAT"}}}, {"name": "model_648/tf.nn.convolution_1190/convolution/filter", "op": "Const", "attr": {"value": {"tensor": {"dtype": "DT_FLOAT", "tensorShape": {"dim": [{"size": "3"}, {"size": "3"}, {"size": "1"}, {"size": "1"}]}}}, "dtype": {"type": "DT_FLOAT"}}}, {"name": "model_648/tf.nn.convolution_1191/convolution/filter", "op": "Const", "attr": {"value": {"tensor": {"dtype": "DT_FLOAT", "tensorShape": {"dim": [{"size": "3"}, {"size": "3"}, {"size": "1"}, {"size": "1"}]}}}, "dtype": {"type": "DT_FLOAT"}}}, {"name": "model_648/tf.nn.convolution_1192/convolution/filter", "op": "Const", "attr": {"value": {"tensor": {"dtype": "DT_FLOAT", "tensorShape": {"dim": [{"size": "3"}, {"size": "3"}, {"size": "1"}, {"size": "1"}]}}}, "dtype": {"type": "DT_FLOAT"}}}, {"name": "model_648/tf.nn.convolution_1193/convolution/filter", "op": "Const", "attr": {"value": {"tensor": {"dtype": "DT_FLOAT", "tensorShape": {"dim": [{"size": "3"}, {"size": "3"}, {"size": "1"}, {"size": "1"}]}}}, "dtype": {"type": "DT_FLOAT"}}}, {"name": "model_648/tf.nn.convolution_1194/convolution/filter", "op": "Const", "attr": {"value": {"tensor": {"dtype": "DT_FLOAT", "tensorShape": {"dim": [{"size": "3"}, {"size": "3"}, {"size": "1"}, {"size": "1"}]}}}, "dtype": {"type": "DT_FLOAT"}}}, {"name": "model_648/tf.nn.convolution_1195/convolution/filter", "op": "Const", "attr": {"value": {"tensor": {"dtype": "DT_FLOAT", "tensorShape": {"dim": [{"size": "3"}, {"size": "3"}, {"size": "1"}, {"size": "1"}]}}}, "dtype": {"type": "DT_FLOAT"}}}, {"name": "model_648/tf.nn.convolution_1196/convolution/filter", "op": "Const", "attr": {"value": {"tensor": {"dtype": "DT_FLOAT", "tensorShape": {"dim": [{"size": "3"}, {"size": "3"}, {"size": "1"}, {"size": "1"}]}}}, "dtype": {"type": "DT_FLOAT"}}}, {"name": "model_648/tf.nn.convolution_1197/convolution/filter", "op": "Const", "attr": {"value": {"tensor": {"dtype": "DT_FLOAT", "tensorShape": {"dim": [{"size": "3"}, {"size": "3"}, {"size": "1"}, {"size": "1"}]}}}, "dtype": {"type": "DT_FLOAT"}}}, {"name": "model_648/tf.nn.convolution_1198/convolution/filter", "op": "Const", "attr": {"value": {"tensor": {"dtype": "DT_FLOAT", "tensorShape": {"dim": [{"size": "3"}, {"size": "3"}, {"size": "1"}, {"size": "1"}]}}}, "dtype": {"type": "DT_FLOAT"}}}, {"name": "model_648/tf.nn.convolution_1199/convolution/filter", "op": "Const", "attr": {"value": {"tensor": {"dtype": "DT_FLOAT", "tensorShape": {"dim": [{"size": "3"}, {"size": "3"}, {"size": "1"}, {"size": "1"}]}}}, "dtype": {"type": "DT_FLOAT"}}}, {"name": "model_648/tf.nn.convolution_1200/convolution/filter", "op": "Const", "attr": {"value": {"tensor": {"dtype": "DT_FLOAT", "tensorShape": {"dim": [{"size": "3"}, {"size": "3"}, {"size": "1"}, {"size": "1"}]}}}, "dtype": {"type": "DT_FLOAT"}}}, {"name": "model_648/tf.nn.convolution_1201/convolution/filter", "op": "Const", "attr": {"value": {"tensor": {"dtype": "DT_FLOAT", "tensorShape": {"dim": [{"size": "3"}, {"size": "3"}, {"size": "1"}, {"size": "1"}]}}}, "dtype": {"type": "DT_FLOAT"}}}, {"name": "model_648/tf.nn.convolution_1202/convolution/filter", "op": "Const", "attr": {"value": {"tensor": {"dtype": "DT_FLOAT", "tensorShape": {"dim": [{"size": "3"}, {"size": "3"}, {"size": "1"}, {"size": "1"}]}}}, "dtype": {"type": "DT_FLOAT"}}}, {"name": "model_648/tf.nn.convolution_1203/convolution/filter", "op": "Const", "attr": {"value": {"tensor": {"dtype": "DT_FLOAT", "tensorShape": {"dim": [{"size": "3"}, {"size": "3"}, {"size": "1"}, {"size": "1"}]}}}, "dtype": {"type": "DT_FLOAT"}}}, {"name": "model_648/tf.nn.convolution_1204/convolution/filter", "op": "Const", "attr": {"value": {"tensor": {"dtype": "DT_FLOAT", "tensorShape": {"dim": [{"size": "3"}, {"size": "3"}, {"size": "1"}, {"size": "1"}]}}}, "dtype": {"type": "DT_FLOAT"}}}, {"name": "model_648/tf.nn.convolution_1205/convolution/filter", "op": "Const", "attr": {"value": {"tensor": {"dtype": "DT_FLOAT", "tensorShape": {"dim": [{"size": "3"}, {"size": "3"}, {"size": "1"}, {"size": "1"}]}}}, "dtype": {"type": "DT_FLOAT"}}}, {"name": "model_648/tf.nn.convolution_1206/convolution/filter", "op": "Const", "attr": {"value": {"tensor": {"dtype": "DT_FLOAT", "tensorShape": {"dim": [{"size": "3"}, {"size": "3"}, {"size": "1"}, {"size": "1"}]}}}, "dtype": {"type": "DT_FLOAT"}}}, {"name": "model_648/tf.nn.convolution_1207/convolution/filter", "op": "Const", "attr": {"value": {"tensor": {"dtype": "DT_FLOAT", "tensorShape": {"dim": [{"size": "3"}, {"size": "3"}, {"size": "1"}, {"size": "1"}]}}}, "dtype": {"type": "DT_FLOAT"}}}, {"name": "model_648/tf.nn.convolution_1208/convolution/filter", "op": "Const", "attr": {"value": {"tensor": {"dtype": "DT_FLOAT", "tensorShape": {"dim": [{"size": "3"}, {"size": "3"}, {"size": "1"}, {"size": "1"}]}}}, "dtype": {"type": "DT_FLOAT"}}}, {"name": "model_648/tf.nn.convolution_1209/convolution/filter", "op": "Const", "attr": {"value": {"tensor": {"dtype": "DT_FLOAT", "tensorShape": {"dim": [{"size": "3"}, {"size": "3"}, {"size": "1"}, {"size": "1"}]}}}, "dtype": {"type": "DT_FLOAT"}}}, {"name": "model_648/tf.nn.convolution_1210/convolution/filter", "op": "Const", "attr": {"value": {"tensor": {"dtype": "DT_FLOAT", "tensorShape": {"dim": [{"size": "3"}, {"size": "3"}, {"size": "1"}, {"size": "1"}]}}}, "dtype": {"type": "DT_FLOAT"}}}, {"name": "model_648/tf.nn.convolution_1211/convolution/filter", "op": "Const", "attr": {"value": {"tensor": {"dtype": "DT_FLOAT", "tensorShape": {"dim": [{"size": "3"}, {"size": "3"}, {"size": "1"}, {"size": "1"}]}}}, "dtype": {"type": "DT_FLOAT"}}}, {"name": "model_648/tf.nn.convolution_1212/convolution/filter", "op": "Const", "attr": {"value": {"tensor": {"dtype": "DT_FLOAT", "tensorShape": {"dim": [{"size": "3"}, {"size": "3"}, {"size": "1"}, {"size": "1"}]}}}, "dtype": {"type": "DT_FLOAT"}}}, {"name": "model_648/tf.nn.convolution_1213/convolution/filter", "op": "Const", "attr": {"value": {"tensor": {"dtype": "DT_FLOAT", "tensorShape": {"dim": [{"size": "3"}, {"size": "3"}, {"size": "1"}, {"size": "1"}]}}}, "dtype": {"type": "DT_FLOAT"}}}, {"name": "model_648/tf.nn.convolution_1214/convolution/filter", "op": "Const", "attr": {"value": {"tensor": {"dtype": "DT_FLOAT", "tensorShape": {"dim": [{"size": "3"}, {"size": "3"}, {"size": "1"}, {"size": "1"}]}}}, "dtype": {"type": "DT_FLOAT"}}}, {"name": "model_648/tf.nn.convolution_1215/convolution/filter", "op": "Const", "attr": {"value": {"tensor": {"dtype": "DT_FLOAT", "tensorShape": {"dim": [{"size": "3"}, {"size": "3"}, {"size": "1"}, {"size": "1"}]}}}, "dtype": {"type": "DT_FLOAT"}}}, {"name": "model_648/tf.nn.convolution_1216/convolution/filter", "op": "Const", "attr": {"value": {"tensor": {"dtype": "DT_FLOAT", "tensorShape": {"dim": [{"size": "3"}, {"size": "3"}, {"size": "1"}, {"size": "1"}]}}}, "dtype": {"type": "DT_FLOAT"}}}, {"name": "model_648/tf.nn.convolution_1217/convolution/filter", "op": "Const", "attr": {"value": {"tensor": {"dtype": "DT_FLOAT", "tensorShape": {"dim": [{"size": "3"}, {"size": "3"}, {"size": "1"}, {"size": "1"}]}}}, "dtype": {"type": "DT_FLOAT"}}}, {"name": "model_648/tf.nn.convolution_1218/convolution/filter", "op": "Const", "attr": {"value": {"tensor": {"dtype": "DT_FLOAT", "tensorShape": {"dim": [{"size": "3"}, {"size": "3"}, {"size": "1"}, {"size": "1"}]}}}, "dtype": {"type": "DT_FLOAT"}}}, {"name": "model_648/tf.nn.convolution_1219/convolution/filter", "op": "Const", "attr": {"value": {"tensor": {"dtype": "DT_FLOAT", "tensorShape": {"dim": [{"size": "3"}, {"size": "3"}, {"size": "1"}, {"size": "1"}]}}}, "dtype": {"type": "DT_FLOAT"}}}, {"name": "model_648/tf.nn.convolution_1220/convolution/filter", "op": "Const", "attr": {"value": {"tensor": {"dtype": "DT_FLOAT", "tensorShape": {"dim": [{"size": "3"}, {"size": "3"}, {"size": "1"}, {"size": "1"}]}}}, "dtype": {"type": "DT_FLOAT"}}}, {"name": "model_648/tf.nn.convolution_1221/convolution/filter", "op": "Const", "attr": {"value": {"tensor": {"dtype": "DT_FLOAT", "tensorShape": {"dim": [{"size": "3"}, {"size": "3"}, {"size": "1"}, {"size": "1"}]}}}, "dtype": {"type": "DT_FLOAT"}}}, {"name": "model_648/tf.nn.convolution_1222/convolution/filter", "op": "Const", "attr": {"value": {"tensor": {"dtype": "DT_FLOAT", "tensorShape": {"dim": [{"size": "3"}, {"size": "3"}, {"size": "1"}, {"size": "1"}]}}}, "dtype": {"type": "DT_FLOAT"}}}, {"name": "model_648/tf.nn.convolution_1223/convolution/filter", "op": "Const", "attr": {"value": {"tensor": {"dtype": "DT_FLOAT", "tensorShape": {"dim": [{"size": "3"}, {"size": "3"}, {"size": "1"}, {"size": "1"}]}}}, "dtype": {"type": "DT_FLOAT"}}}, {"name": "model_648/tf.nn.convolution_1224/convolution/filter", "op": "Const", "attr": {"value": {"tensor": {"dtype": "DT_FLOAT", "tensorShape": {"dim": [{"size": "3"}, {"size": "3"}, {"size": "1"}, {"size": "1"}]}}}, "dtype": {"type": "DT_FLOAT"}}}, {"name": "model_648/tf.nn.convolution_1225/convolution/filter", "op": "Const", "attr": {"value": {"tensor": {"dtype": "DT_FLOAT", "tensorShape": {"dim": [{"size": "3"}, {"size": "3"}, {"size": "1"}, {"size": "1"}]}}}, "dtype": {"type": "DT_FLOAT"}}}, {"name": "model_648/tf.nn.convolution_1226/convolution/filter", "op": "Const", "attr": {"value": {"tensor": {"dtype": "DT_FLOAT", "tensorShape": {"dim": [{"size": "3"}, {"size": "3"}, {"size": "1"}, {"size": "1"}]}}}, "dtype": {"type": "DT_FLOAT"}}}, {"name": "model_648/tf.nn.convolution_1227/convolution/filter", "op": "Const", "attr": {"value": {"tensor": {"dtype": "DT_FLOAT", "tensorShape": {"dim": [{"size": "3"}, {"size": "3"}, {"size": "1"}, {"size": "1"}]}}}, "dtype": {"type": "DT_FLOAT"}}}, {"name": "model_648/tf.nn.convolution_1228/convolution/filter", "op": "Const", "attr": {"value": {"tensor": {"dtype": "DT_FLOAT", "tensorShape": {"dim": [{"size": "3"}, {"size": "3"}, {"size": "1"}, {"size": "1"}]}}}, "dtype": {"type": "DT_FLOAT"}}}, {"name": "model_648/tf.nn.convolution_1229/convolution/filter", "op": "Const", "attr": {"value": {"tensor": {"dtype": "DT_FLOAT", "tensorShape": {"dim": [{"size": "3"}, {"size": "3"}, {"size": "1"}, {"size": "1"}]}}}, "dtype": {"type": "DT_FLOAT"}}}, {"name": "model_648/tf.nn.convolution_1230/convolution/filter", "op": "Const", "attr": {"value": {"tensor": {"dtype": "DT_FLOAT", "tensorShape": {"dim": [{"size": "3"}, {"size": "3"}, {"size": "1"}, {"size": "1"}]}}}, "dtype": {"type": "DT_FLOAT"}}}, {"name": "model_648/tf.nn.convolution_1231/convolution/filter", "op": "Const", "attr": {"value": {"tensor": {"dtype": "DT_FLOAT", "tensorShape": {"dim": [{"size": "3"}, {"size": "3"}, {"size": "1"}, {"size": "1"}]}}}, "dtype": {"type": "DT_FLOAT"}}}, {"name": "model_648/tf.nn.convolution_1232/convolution/filter", "op": "Const", "attr": {"value": {"tensor": {"dtype": "DT_FLOAT", "tensorShape": {"dim": [{"size": "3"}, {"size": "3"}, {"size": "1"}, {"size": "1"}]}}}, "dtype": {"type": "DT_FLOAT"}}}, {"name": "model_648/tf.nn.convolution_1233/convolution/filter", "op": "Const", "attr": {"value": {"tensor": {"dtype": "DT_FLOAT", "tensorShape": {"dim": [{"size": "3"}, {"size": "3"}, {"size": "1"}, {"size": "1"}]}}}, "dtype": {"type": "DT_FLOAT"}}}, {"name": "model_648/tf.nn.convolution_1234/convolution/filter", "op": "Const", "attr": {"value": {"tensor": {"dtype": "DT_FLOAT", "tensorShape": {"dim": [{"size": "3"}, {"size": "3"}, {"size": "1"}, {"size": "1"}]}}}, "dtype": {"type": "DT_FLOAT"}}}, {"name": "model_648/tf.nn.convolution_1235/convolution/filter", "op": "Const", "attr": {"value": {"tensor": {"dtype": "DT_FLOAT", "tensorShape": {"dim": [{"size": "3"}, {"size": "3"}, {"size": "1"}, {"size": "1"}]}}}, "dtype": {"type": "DT_FLOAT"}}}, {"name": "model_648/tf.nn.convolution_1236/convolution/filter", "op": "Const", "attr": {"value": {"tensor": {"dtype": "DT_FLOAT", "tensorShape": {"dim": [{"size": "3"}, {"size": "3"}, {"size": "1"}, {"size": "1"}]}}}, "dtype": {"type": "DT_FLOAT"}}}, {"name": "model_648/tf.nn.convolution_1237/convolution/filter", "op": "Const", "attr": {"value": {"tensor": {"dtype": "DT_FLOAT", "tensorShape": {"dim": [{"size": "3"}, {"size": "3"}, {"size": "1"}, {"size": "1"}]}}}, "dtype": {"type": "DT_FLOAT"}}}, {"name": "model_648/tf.nn.convolution_1238/convolution/filter", "op": "Const", "attr": {"value": {"tensor": {"dtype": "DT_FLOAT", "tensorShape": {"dim": [{"size": "3"}, {"size": "3"}, {"size": "1"}, {"size": "1"}]}}}, "dtype": {"type": "DT_FLOAT"}}}, {"name": "model_648/tf.nn.convolution_1239/convolution/filter", "op": "Const", "attr": {"value": {"tensor": {"dtype": "DT_FLOAT", "tensorShape": {"dim": [{"size": "3"}, {"size": "3"}, {"size": "1"}, {"size": "1"}]}}}, "dtype": {"type": "DT_FLOAT"}}}, {"name": "model_648/tf.nn.convolution_1240/convolution/filter", "op": "Const", "attr": {"value": {"tensor": {"dtype": "DT_FLOAT", "tensorShape": {"dim": [{"size": "3"}, {"size": "3"}, {"size": "1"}, {"size": "1"}]}}}, "dtype": {"type": "DT_FLOAT"}}}, {"name": "model_648/tf.nn.convolution_1241/convolution/filter", "op": "Const", "attr": {"value": {"tensor": {"dtype": "DT_FLOAT", "tensorShape": {"dim": [{"size": "3"}, {"size": "3"}, {"size": "1"}, {"size": "1"}]}}}, "dtype": {"type": "DT_FLOAT"}}}, {"name": "model_648/tf.nn.convolution_1242/convolution/filter", "op": "Const", "attr": {"value": {"tensor": {"dtype": "DT_FLOAT", "tensorShape": {"dim": [{"size": "3"}, {"size": "3"}, {"size": "1"}, {"size": "1"}]}}}, "dtype": {"type": "DT_FLOAT"}}}, {"name": "model_648/tf.nn.convolution_1243/convolution/filter", "op": "Const", "attr": {"value": {"tensor": {"dtype": "DT_FLOAT", "tensorShape": {"dim": [{"size": "3"}, {"size": "3"}, {"size": "1"}, {"size": "1"}]}}}, "dtype": {"type": "DT_FLOAT"}}}, {"name": "model_648/tf.split_6/split/split_dim", "op": "Const", "attr": {"value": {"tensor": {"dtype": "DT_INT32", "tensorShape": {}}}, "dtype": {"type": "DT_INT32"}}}, {"name": "model_648/tf.nn.convolution_1113/convolution/filter", "op": "Const", "attr": {"value": {"tensor": {"dtype": "DT_FLOAT", "tensorShape": {"dim": [{"size": "1"}, {"size": "1"}, {"size": "256"}, {"size": "128"}]}}}, "dtype": {"type": "DT_FLOAT"}}}, {"name": "model_648/tf.math.add_522/Add/y", "op": "Const", "attr": {"value": {"tensor": {"dtype": "DT_FLOAT", "tensorShape": {"dim": [{"size": "128"}]}}}, "dtype": {"type": "DT_FLOAT"}}}, {"name": "model_648/tf.concat_127/concat/axis", "op": "Const", "attr": {"value": {"tensor": {"dtype": "DT_INT32", "tensorShape": {}}}, "dtype": {"type": "DT_INT32"}}}, {"name": "model_648/tf.nn.convolution_1114/convolution/filter", "op": "Const", "attr": {"value": {"tensor": {"dtype": "DT_FLOAT", "tensorShape": {"dim": [{"size": "1"}, {"size": "1"}, {"size": "512"}, {"size": "256"}]}}}, "dtype": {"type": "DT_FLOAT"}}}, {"name": "model_648/tf.math.add_523/Add/y", "op": "Const", "attr": {"value": {"tensor": {"dtype": "DT_FLOAT", "tensorShape": {"dim": [{"size": "256"}]}}}, "dtype": {"type": "DT_FLOAT"}}}, {"name": "model_648/tf.strided_slice_94/ones_like/tensor", "op": "Const", "attr": {"value": {"tensor": {"dtype": "DT_INT64", "tensorShape": {"dim": [{"size": "4"}]}}}, "dtype": {"type": "DT_INT64"}}}, {"name": "model_648/tf.strided_slice_94/StridedSlice/end", "op": "Const", "attr": {"value": {"tensor": {"dtype": "DT_INT64", "tensorShape": {"dim": [{"size": "4"}]}}}, "dtype": {"type": "DT_INT64"}}}, {"name": "model_648/tf.strided_slice_94/ones_like", "op": "Const", "attr": {"value": {"tensor": {"dtype": "DT_INT64", "tensorShape": {"dim": [{"size": "4"}]}}}, "dtype": {"type": "DT_INT64"}}}, {"name": "model_648/tf.nn.convolution_1105/convolution/filter", "op": "Const", "attr": {"value": {"tensor": {"dtype": "DT_FLOAT", "tensorShape": {"dim": [{"size": "1"}, {"size": "1"}, {"size": "128"}, {"size": "64"}]}}}, "dtype": {"type": "DT_FLOAT"}}}, {"name": "model_648/tf.math.add_510/Add/y", "op": "Const", "attr": {"value": {"tensor": {"dtype": "DT_FLOAT", "tensorShape": {"dim": [{"size": "64"}]}}}, "dtype": {"type": "DT_FLOAT"}}}, {"name": "model_648/tf.nn.convolution_1107/convolution/filter", "op": "Const", "attr": {"value": {"tensor": {"dtype": "DT_FLOAT", "tensorShape": {"dim": [{"size": "3"}, {"size": "3"}, {"size": "64"}, {"size": "64"}]}}}, "dtype": {"type": "DT_FLOAT"}}}, {"name": "model_648/tf.math.add_512/Add/y", "op": "Const", "attr": {"value": {"tensor": {"dtype": "DT_FLOAT", "tensorShape": {"dim": [{"size": "64"}]}}}, "dtype": {"type": "DT_FLOAT"}}}, {"name": "model_648/tf.nn.convolution_1108/convolution/filter", "op": "Const", "attr": {"value": {"tensor": {"dtype": "DT_FLOAT", "tensorShape": {"dim": [{"size": "3"}, {"size": "3"}, {"size": "64"}, {"size": "64"}]}}}, "dtype": {"type": "DT_FLOAT"}}}, {"name": "model_648/tf.math.add_513/Add/y", "op": "Const", "attr": {"value": {"tensor": {"dtype": "DT_FLOAT", "tensorShape": {"dim": [{"size": "64"}]}}}, "dtype": {"type": "DT_FLOAT"}}}, {"name": "model_648/tf.nn.convolution_1109/convolution/filter", "op": "Const", "attr": {"value": {"tensor": {"dtype": "DT_FLOAT", "tensorShape": {"dim": [{"size": "3"}, {"size": "3"}, {"size": "64"}, {"size": "64"}]}}}, "dtype": {"type": "DT_FLOAT"}}}, {"name": "model_648/tf.math.add_516/Add/y", "op": "Const", "attr": {"value": {"tensor": {"dtype": "DT_FLOAT", "tensorShape": {"dim": [{"size": "64"}]}}}, "dtype": {"type": "DT_FLOAT"}}}, {"name": "model_648/tf.nn.convolution_1110/convolution/filter", "op": "Const", "attr": {"value": {"tensor": {"dtype": "DT_FLOAT", "tensorShape": {"dim": [{"size": "3"}, {"size": "3"}, {"size": "64"}, {"size": "64"}]}}}, "dtype": {"type": "DT_FLOAT"}}}, {"name": "model_648/tf.math.add_517/Add/y", "op": "Const", "attr": {"value": {"tensor": {"dtype": "DT_FLOAT", "tensorShape": {"dim": [{"size": "64"}]}}}, "dtype": {"type": "DT_FLOAT"}}}, {"name": "model_648/tf.strided_slice_92/ones_like/tensor", "op": "Const", "attr": {"value": {"tensor": {"dtype": "DT_INT64", "tensorShape": {"dim": [{"size": "4"}]}}}, "dtype": {"type": "DT_INT64"}}}, {"name": "model_648/tf.strided_slice_92/StridedSlice/end", "op": "Const", "attr": {"value": {"tensor": {"dtype": "DT_INT64", "tensorShape": {"dim": [{"size": "4"}]}}}, "dtype": {"type": "DT_INT64"}}}, {"name": "model_648/tf.strided_slice_92/ones_like", "op": "Const", "attr": {"value": {"tensor": {"dtype": "DT_INT64", "tensorShape": {"dim": [{"size": "4"}]}}}, "dtype": {"type": "DT_INT64"}}}, {"name": "model_648/tf.nn.convolution_1095/convolution/filter", "op": "Const", "attr": {"value": {"tensor": {"dtype": "DT_FLOAT", "tensorShape": {"dim": [{"size": "1"}, {"size": "1"}, {"size": "64"}, {"size": "32"}]}}}, "dtype": {"type": "DT_FLOAT"}}}, {"name": "model_648/tf.math.add_496/Add/y", "op": "Const", "attr": {"value": {"tensor": {"dtype": "DT_FLOAT", "tensorShape": {"dim": [{"size": "32"}]}}}, "dtype": {"type": "DT_FLOAT"}}}, {"name": "model_648/tf.nn.convolution_1097/convolution/filter", "op": "Const", "attr": {"value": {"tensor": {"dtype": "DT_FLOAT", "tensorShape": {"dim": [{"size": "3"}, {"size": "3"}, {"size": "32"}, {"size": "32"}]}}}, "dtype": {"type": "DT_FLOAT"}}}, {"name": "model_648/tf.math.add_498/Add/y", "op": "Const", "attr": {"value": {"tensor": {"dtype": "DT_FLOAT", "tensorShape": {"dim": [{"size": "32"}]}}}, "dtype": {"type": "DT_FLOAT"}}}, {"name": "model_648/tf.nn.convolution_1098/convolution/filter", "op": "Const", "attr": {"value": {"tensor": {"dtype": "DT_FLOAT", "tensorShape": {"dim": [{"size": "3"}, {"size": "3"}, {"size": "32"}, {"size": "32"}]}}}, "dtype": {"type": "DT_FLOAT"}}}, {"name": "model_648/tf.math.add_499/Add/y", "op": "Const", "attr": {"value": {"tensor": {"dtype": "DT_FLOAT", "tensorShape": {"dim": [{"size": "32"}]}}}, "dtype": {"type": "DT_FLOAT"}}}, {"name": "model_648/tf.nn.convolution_1099/convolution/filter", "op": "Const", "attr": {"value": {"tensor": {"dtype": "DT_FLOAT", "tensorShape": {"dim": [{"size": "3"}, {"size": "3"}, {"size": "32"}, {"size": "32"}]}}}, "dtype": {"type": "DT_FLOAT"}}}, {"name": "model_648/tf.math.add_502/Add/y", "op": "Const", "attr": {"value": {"tensor": {"dtype": "DT_FLOAT", "tensorShape": {"dim": [{"size": "32"}]}}}, "dtype": {"type": "DT_FLOAT"}}}, {"name": "model_648/tf.nn.convolution_1100/convolution/filter", "op": "Const", "attr": {"value": {"tensor": {"dtype": "DT_FLOAT", "tensorShape": {"dim": [{"size": "3"}, {"size": "3"}, {"size": "32"}, {"size": "32"}]}}}, "dtype": {"type": "DT_FLOAT"}}}, {"name": "model_648/tf.math.add_503/Add/y", "op": "Const", "attr": {"value": {"tensor": {"dtype": "DT_FLOAT", "tensorShape": {"dim": [{"size": "32"}]}}}, "dtype": {"type": "DT_FLOAT"}}}, {"name": "model_648/tf.strided_slice_90/ones_like/tensor", "op": "Const", "attr": {"value": {"tensor": {"dtype": "DT_INT64", "tensorShape": {"dim": [{"size": "4"}]}}}, "dtype": {"type": "DT_INT64"}}}, {"name": "model_648/tf.strided_slice_90/StridedSlice/end", "op": "Const", "attr": {"value": {"tensor": {"dtype": "DT_INT64", "tensorShape": {"dim": [{"size": "4"}]}}}, "dtype": {"type": "DT_INT64"}}}, {"name": "model_648/tf.strided_slice_90/ones_like", "op": "Const", "attr": {"value": {"tensor": {"dtype": "DT_INT64", "tensorShape": {"dim": [{"size": "4"}]}}}, "dtype": {"type": "DT_INT64"}}}, {"name": "model_648/tf.strided_slice_88/ones_like/tensor", "op": "Const", "attr": {"value": {"tensor": {"dtype": "DT_INT64", "tensorShape": {"dim": [{"size": "4"}]}}}, "dtype": {"type": "DT_INT64"}}}, {"name": "model_648/tf.strided_slice_88/StridedSlice/end", "op": "Const", "attr": {"value": {"tensor": {"dtype": "DT_INT64", "tensorShape": {"dim": [{"size": "4"}]}}}, "dtype": {"type": "DT_INT64"}}}, {"name": "model_648/tf.strided_slice_88/ones_like", "op": "Const", "attr": {"value": {"tensor": {"dtype": "DT_INT64", "tensorShape": {"dim": [{"size": "4"}]}}}, "dtype": {"type": "DT_INT64"}}}, {"name": "model_648/tf.compat.v1.pad_21/Pad/paddings", "op": "Const", "attr": {"value": {"tensor": {"dtype": "DT_INT32", "tensorShape": {"dim": [{"size": "4"}, {"size": "2"}]}}}, "dtype": {"type": "DT_INT32"}}}, {"name": "model_648/tf.nn.convolution_1082/convolution/filter", "op": "Const", "attr": {"value": {"tensor": {"dtype": "DT_FLOAT", "tensorShape": {"dim": [{"size": "3"}, {"size": "3"}, {"size": "3"}, {"size": "16"}]}}}, "dtype": {"type": "DT_FLOAT"}}}, {"name": "model_648/tf.math.add_479/Add/y", "op": "Const", "attr": {"value": {"tensor": {"dtype": "DT_FLOAT", "tensorShape": {"dim": [{"size": "16"}]}}}, "dtype": {"type": "DT_FLOAT"}}}, {"name": "model_648/tf.compat.v1.pad_22/Pad/paddings", "op": "Const", "attr": {"value": {"tensor": {"dtype": "DT_INT32", "tensorShape": {"dim": [{"size": "4"}, {"size": "2"}]}}}, "dtype": {"type": "DT_INT32"}}}, {"name": "model_648/tf.nn.convolution_1083/convolution/filter", "op": "Const", "attr": {"value": {"tensor": {"dtype": "DT_FLOAT", "tensorShape": {"dim": [{"size": "3"}, {"size": "3"}, {"size": "16"}, {"size": "32"}]}}}, "dtype": {"type": "DT_FLOAT"}}}, {"name": "model_648/tf.math.add_480/Add/y", "op": "Const", "attr": {"value": {"tensor": {"dtype": "DT_FLOAT", "tensorShape": {"dim": [{"size": "32"}]}}}, "dtype": {"type": "DT_FLOAT"}}}, {"name": "model_648/tf.nn.convolution_1084/convolution/filter", "op": "Const", "attr": {"value": {"tensor": {"dtype": "DT_FLOAT", "tensorShape": {"dim": [{"size": "1"}, {"size": "1"}, {"size": "32"}, {"size": "32"}]}}}, "dtype": {"type": "DT_FLOAT"}}}, {"name": "model_648/tf.math.add_481/Add/y", "op": "Const", "attr": {"value": {"tensor": {"dtype": "DT_FLOAT", "tensorShape": {"dim": [{"size": "32"}]}}}, "dtype": {"type": "DT_FLOAT"}}}, {"name": "model_648/tf.strided_slice_89/ones_like/tensor", "op": "Const", "attr": {"value": {"tensor": {"dtype": "DT_INT64", "tensorShape": {"dim": [{"size": "4"}]}}}, "dtype": {"type": "DT_INT64"}}}, {"name": "model_648/tf.strided_slice_89/StridedSlice/end", "op": "Const", "attr": {"value": {"tensor": {"dtype": "DT_INT64", "tensorShape": {"dim": [{"size": "4"}]}}}, "dtype": {"type": "DT_INT64"}}}, {"name": "model_648/tf.strided_slice_89/ones_like", "op": "Const", "attr": {"value": {"tensor": {"dtype": "DT_INT64", "tensorShape": {"dim": [{"size": "4"}]}}}, "dtype": {"type": "DT_INT64"}}}, {"name": "model_648/tf.nn.convolution_1085/convolution/filter", "op": "Const", "attr": {"value": {"tensor": {"dtype": "DT_FLOAT", "tensorShape": {"dim": [{"size": "3"}, {"size": "3"}, {"size": "16"}, {"size": "8"}]}}}, "dtype": {"type": "DT_FLOAT"}}}, {"name": "model_648/tf.math.add_482/Add/y", "op": "Const", "attr": {"value": {"tensor": {"dtype": "DT_FLOAT", "tensorShape": {"dim": [{"size": "8"}]}}}, "dtype": {"type": "DT_FLOAT"}}}, {"name": "model_648/tf.nn.convolution_1086/convolution/filter", "op": "Const", "attr": {"value": {"tensor": {"dtype": "DT_FLOAT", "tensorShape": {"dim": [{"size": "3"}, {"size": "3"}, {"size": "8"}, {"size": "16"}]}}}, "dtype": {"type": "DT_FLOAT"}}}, {"name": "model_648/tf.math.add_483/Add/y", "op": "Const", "attr": {"value": {"tensor": {"dtype": "DT_FLOAT", "tensorShape": {"dim": [{"size": "16"}]}}}, "dtype": {"type": "DT_FLOAT"}}}, {"name": "model_648/tf.concat_121/concat/axis", "op": "Const", "attr": {"value": {"tensor": {"dtype": "DT_INT32", "tensorShape": {}}}, "dtype": {"type": "DT_INT32"}}}, {"name": "model_648/tf.nn.convolution_1087/convolution/filter", "op": "Const", "attr": {"value": {"tensor": {"dtype": "DT_FLOAT", "tensorShape": {"dim": [{"size": "1"}, {"size": "1"}, {"size": "48"}, {"size": "64"}]}}}, "dtype": {"type": "DT_FLOAT"}}}, {"name": "model_648/tf.math.add_486/Add/y", "op": "Const", "attr": {"value": {"tensor": {"dtype": "DT_FLOAT", "tensorShape": {"dim": [{"size": "64"}]}}}, "dtype": {"type": "DT_FLOAT"}}}, {"name": "model_648/tf.compat.v1.pad_23/Pad/paddings", "op": "Const", "attr": {"value": {"tensor": {"dtype": "DT_INT32", "tensorShape": {"dim": [{"size": "4"}, {"size": "2"}]}}}, "dtype": {"type": "DT_INT32"}}}, {"name": "model_648/tf.nn.convolution_1088/convolution/filter", "op": "Const", "attr": {"value": {"tensor": {"dtype": "DT_FLOAT", "tensorShape": {"dim": [{"size": "3"}, {"size": "3"}, {"size": "64"}, {"size": "64"}]}}}, "dtype": {"type": "DT_FLOAT"}}}, {"name": "model_648/tf.math.add_487/Add/y", "op": "Const", "attr": {"value": {"tensor": {"dtype": "DT_FLOAT", "tensorShape": {"dim": [{"size": "64"}]}}}, "dtype": {"type": "DT_FLOAT"}}}, {"name": "model_648/tf.nn.convolution_1089/convolution/filter", "op": "Const", "attr": {"value": {"tensor": {"dtype": "DT_FLOAT", "tensorShape": {"dim": [{"size": "1"}, {"size": "1"}, {"size": "64"}, {"size": "64"}]}}}, "dtype": {"type": "DT_FLOAT"}}}, {"name": "model_648/tf.math.add_488/Add/y", "op": "Const", "attr": {"value": {"tensor": {"dtype": "DT_FLOAT", "tensorShape": {"dim": [{"size": "64"}]}}}, "dtype": {"type": "DT_FLOAT"}}}, {"name": "model_648/tf.strided_slice_91/ones_like/tensor", "op": "Const", "attr": {"value": {"tensor": {"dtype": "DT_INT64", "tensorShape": {"dim": [{"size": "4"}]}}}, "dtype": {"type": "DT_INT64"}}}, {"name": "model_648/tf.strided_slice_91/StridedSlice/end", "op": "Const", "attr": {"value": {"tensor": {"dtype": "DT_INT64", "tensorShape": {"dim": [{"size": "4"}]}}}, "dtype": {"type": "DT_INT64"}}}, {"name": "model_648/tf.strided_slice_91/ones_like", "op": "Const", "attr": {"value": {"tensor": {"dtype": "DT_INT64", "tensorShape": {"dim": [{"size": "4"}]}}}, "dtype": {"type": "DT_INT64"}}}, {"name": "model_648/tf.nn.convolution_1090/convolution/filter", "op": "Const", "attr": {"value": {"tensor": {"dtype": "DT_FLOAT", "tensorShape": {"dim": [{"size": "3"}, {"size": "3"}, {"size": "32"}, {"size": "16"}]}}}, "dtype": {"type": "DT_FLOAT"}}}, {"name": "model_648/tf.math.add_489/Add/y", "op": "Const", "attr": {"value": {"tensor": {"dtype": "DT_FLOAT", "tensorShape": {"dim": [{"size": "16"}]}}}, "dtype": {"type": "DT_FLOAT"}}}, {"name": "model_648/tf.nn.convolution_1091/convolution/filter", "op": "Const", "attr": {"value": {"tensor": {"dtype": "DT_FLOAT", "tensorShape": {"dim": [{"size": "3"}, {"size": "3"}, {"size": "16"}, {"size": "32"}]}}}, "dtype": {"type": "DT_FLOAT"}}}, {"name": "model_648/tf.math.add_490/Add/y", "op": "Const", "attr": {"value": {"tensor": {"dtype": "DT_FLOAT", "tensorShape": {"dim": [{"size": "32"}]}}}, "dtype": {"type": "DT_FLOAT"}}}, {"name": "model_648/tf.concat_122/concat/axis", "op": "Const", "attr": {"value": {"tensor": {"dtype": "DT_INT32", "tensorShape": {}}}, "dtype": {"type": "DT_INT32"}}}, {"name": "model_648/tf.nn.convolution_1092/convolution/filter", "op": "Const", "attr": {"value": {"tensor": {"dtype": "DT_FLOAT", "tensorShape": {"dim": [{"size": "1"}, {"size": "1"}, {"size": "96"}, {"size": "128"}]}}}, "dtype": {"type": "DT_FLOAT"}}}, {"name": "model_648/tf.math.add_493/Add/y", "op": "Const", "attr": {"value": {"tensor": {"dtype": "DT_FLOAT", "tensorShape": {"dim": [{"size": "128"}]}}}, "dtype": {"type": "DT_FLOAT"}}}, {"name": "model_648/tf.compat.v1.pad_24/Pad/paddings", "op": "Const", "attr": {"value": {"tensor": {"dtype": "DT_INT32", "tensorShape": {"dim": [{"size": "4"}, {"size": "2"}]}}}, "dtype": {"type": "DT_INT32"}}}, {"name": "model_648/tf.nn.convolution_1093/convolution/filter", "op": "Const", "attr": {"value": {"tensor": {"dtype": "DT_FLOAT", "tensorShape": {"dim": [{"size": "3"}, {"size": "3"}, {"size": "128"}, {"size": "128"}]}}}, "dtype": {"type": "DT_FLOAT"}}}, {"name": "model_648/tf.math.add_494/Add/y", "op": "Const", "attr": {"value": {"tensor": {"dtype": "DT_FLOAT", "tensorShape": {"dim": [{"size": "128"}]}}}, "dtype": {"type": "DT_FLOAT"}}}, {"name": "model_648/tf.nn.convolution_1094/convolution/filter", "op": "Const", "attr": {"value": {"tensor": {"dtype": "DT_FLOAT", "tensorShape": {"dim": [{"size": "1"}, {"size": "1"}, {"size": "128"}, {"size": "128"}]}}}, "dtype": {"type": "DT_FLOAT"}}}, {"name": "model_648/tf.math.add_495/Add/y", "op": "Const", "attr": {"value": {"tensor": {"dtype": "DT_FLOAT", "tensorShape": {"dim": [{"size": "128"}]}}}, "dtype": {"type": "DT_FLOAT"}}}, {"name": "model_648/tf.strided_slice_93/ones_like/tensor", "op": "Const", "attr": {"value": {"tensor": {"dtype": "DT_INT64", "tensorShape": {"dim": [{"size": "4"}]}}}, "dtype": {"type": "DT_INT64"}}}, {"name": "model_648/tf.strided_slice_93/StridedSlice/end", "op": "Const", "attr": {"value": {"tensor": {"dtype": "DT_INT64", "tensorShape": {"dim": [{"size": "4"}]}}}, "dtype": {"type": "DT_INT64"}}}, {"name": "model_648/tf.strided_slice_93/ones_like", "op": "Const", "attr": {"value": {"tensor": {"dtype": "DT_INT64", "tensorShape": {"dim": [{"size": "4"}]}}}, "dtype": {"type": "DT_INT64"}}}, {"name": "model_648/tf.nn.convolution_1096/convolution/filter", "op": "Const", "attr": {"value": {"tensor": {"dtype": "DT_FLOAT", "tensorShape": {"dim": [{"size": "1"}, {"size": "1"}, {"size": "64"}, {"size": "32"}]}}}, "dtype": {"type": "DT_FLOAT"}}}, {"name": "model_648/tf.math.add_497/Add/y", "op": "Const", "attr": {"value": {"tensor": {"dtype": "DT_FLOAT", "tensorShape": {"dim": [{"size": "32"}]}}}, "dtype": {"type": "DT_FLOAT"}}}, {"name": "model_648/tf.concat_123/concat/axis", "op": "Const", "attr": {"value": {"tensor": {"dtype": "DT_INT32", "tensorShape": {}}}, "dtype": {"type": "DT_INT32"}}}, {"name": "model_648/tf.nn.convolution_1101/convolution/filter", "op": "Const", "attr": {"value": {"tensor": {"dtype": "DT_FLOAT", "tensorShape": {"dim": [{"size": "1"}, {"size": "1"}, {"size": "64"}, {"size": "64"}]}}}, "dtype": {"type": "DT_FLOAT"}}}, {"name": "model_648/tf.math.add_506/Add/y", "op": "Const", "attr": {"value": {"tensor": {"dtype": "DT_FLOAT", "tensorShape": {"dim": [{"size": "64"}]}}}, "dtype": {"type": "DT_FLOAT"}}}, {"name": "model_648/tf.concat_124/concat/axis", "op": "Const", "attr": {"value": {"tensor": {"dtype": "DT_INT32", "tensorShape": {}}}, "dtype": {"type": "DT_INT32"}}}, {"name": "model_648/tf.nn.convolution_1102/convolution/filter", "op": "Const", "attr": {"value": {"tensor": {"dtype": "DT_FLOAT", "tensorShape": {"dim": [{"size": "1"}, {"size": "1"}, {"size": "192"}, {"size": "128"}]}}}, "dtype": {"type": "DT_FLOAT"}}}, {"name": "model_648/tf.math.add_507/Add/y", "op": "Const", "attr": {"value": {"tensor": {"dtype": "DT_FLOAT", "tensorShape": {"dim": [{"size": "128"}]}}}, "dtype": {"type": "DT_FLOAT"}}}, {"name": "model_648/tf.compat.v1.pad_25/Pad/paddings", "op": "Const", "attr": {"value": {"tensor": {"dtype": "DT_INT32", "tensorShape": {"dim": [{"size": "4"}, {"size": "2"}]}}}, "dtype": {"type": "DT_INT32"}}}, {"name": "model_648/tf.nn.convolution_1103/convolution/filter", "op": "Const", "attr": {"value": {"tensor": {"dtype": "DT_FLOAT", "tensorShape": {"dim": [{"size": "3"}, {"size": "3"}, {"size": "128"}, {"size": "256"}]}}}, "dtype": {"type": "DT_FLOAT"}}}, {"name": "model_648/tf.math.add_508/Add/y", "op": "Const", "attr": {"value": {"tensor": {"dtype": "DT_FLOAT", "tensorShape": {"dim": [{"size": "256"}]}}}, "dtype": {"type": "DT_FLOAT"}}}, {"name": "model_648/tf.nn.convolution_1104/convolution/filter", "op": "Const", "attr": {"value": {"tensor": {"dtype": "DT_FLOAT", "tensorShape": {"dim": [{"size": "1"}, {"size": "1"}, {"size": "256"}, {"size": "256"}]}}}, "dtype": {"type": "DT_FLOAT"}}}, {"name": "model_648/tf.math.add_509/Add/y", "op": "Const", "attr": {"value": {"tensor": {"dtype": "DT_FLOAT", "tensorShape": {"dim": [{"size": "256"}]}}}, "dtype": {"type": "DT_FLOAT"}}}, {"name": "model_648/tf.strided_slice_95/ones_like/tensor", "op": "Const", "attr": {"value": {"tensor": {"dtype": "DT_INT64", "tensorShape": {"dim": [{"size": "4"}]}}}, "dtype": {"type": "DT_INT64"}}}, {"name": "model_648/tf.strided_slice_95/StridedSlice/end", "op": "Const", "attr": {"value": {"tensor": {"dtype": "DT_INT64", "tensorShape": {"dim": [{"size": "4"}]}}}, "dtype": {"type": "DT_INT64"}}}, {"name": "model_648/tf.strided_slice_95/ones_like", "op": "Const", "attr": {"value": {"tensor": {"dtype": "DT_INT64", "tensorShape": {"dim": [{"size": "4"}]}}}, "dtype": {"type": "DT_INT64"}}}, {"name": "model_648/tf.nn.convolution_1106/convolution/filter", "op": "Const", "attr": {"value": {"tensor": {"dtype": "DT_FLOAT", "tensorShape": {"dim": [{"size": "1"}, {"size": "1"}, {"size": "128"}, {"size": "64"}]}}}, "dtype": {"type": "DT_FLOAT"}}}, {"name": "model_648/tf.math.add_511/Add/y", "op": "Const", "attr": {"value": {"tensor": {"dtype": "DT_FLOAT", "tensorShape": {"dim": [{"size": "64"}]}}}, "dtype": {"type": "DT_FLOAT"}}}, {"name": "model_648/tf.concat_125/concat/axis", "op": "Const", "attr": {"value": {"tensor": {"dtype": "DT_INT32", "tensorShape": {}}}, "dtype": {"type": "DT_INT32"}}}, {"name": "model_648/tf.nn.convolution_1111/convolution/filter", "op": "Const", "attr": {"value": {"tensor": {"dtype": "DT_FLOAT", "tensorShape": {"dim": [{"size": "1"}, {"size": "1"}, {"size": "128"}, {"size": "128"}]}}}, "dtype": {"type": "DT_FLOAT"}}}, {"name": "model_648/tf.math.add_520/Add/y", "op": "Const", "attr": {"value": {"tensor": {"dtype": "DT_FLOAT", "tensorShape": {"dim": [{"size": "128"}]}}}, "dtype": {"type": "DT_FLOAT"}}}, {"name": "model_648/tf.concat_126/concat/axis", "op": "Const", "attr": {"value": {"tensor": {"dtype": "DT_INT32", "tensorShape": {}}}, "dtype": {"type": "DT_INT32"}}}, {"name": "model_648/tf.nn.convolution_1112/convolution/filter", "op": "Const", "attr": {"value": {"tensor": {"dtype": "DT_FLOAT", "tensorShape": {"dim": [{"size": "1"}, {"size": "1"}, {"size": "384"}, {"size": "256"}]}}}, "dtype": {"type": "DT_FLOAT"}}}, {"name": "model_648/tf.math.add_521/Add/y", "op": "Const", "attr": {"value": {"tensor": {"dtype": "DT_FLOAT", "tensorShape": {"dim": [{"size": "256"}]}}}, "dtype": {"type": "DT_FLOAT"}}}, {"name": "model_648/tf.nn.convolution_1115/convolution/filter", "op": "Const", "attr": {"value": {"tensor": {"dtype": "DT_FLOAT", "tensorShape": {"dim": [{"size": "1"}, {"size": "1"}, {"size": "256"}, {"size": "256"}]}}}, "dtype": {"type": "DT_FLOAT"}}}, {"name": "model_648/tf.math.add_526/Add/y", "op": "Const", "attr": {"value": {"tensor": {"dtype": "DT_FLOAT", "tensorShape": {"dim": [{"size": "256"}]}}}, "dtype": {"type": "DT_FLOAT"}}}, {"name": "model_648/tf.strided_slice_97/StridedSlice/begin", "op": "Const", "attr": {"value": {"tensor": {"dtype": "DT_INT32", "tensorShape": {"dim": [{"size": "4"}]}}}, "dtype": {"type": "DT_INT32"}}}, {"name": "model_648/tf.strided_slice_97/StridedSlice/end", "op": "Const", "attr": {"value": {"tensor": {"dtype": "DT_INT32", "tensorShape": {"dim": [{"size": "4"}]}}}, "dtype": {"type": "DT_INT32"}}}, {"name": "model_648/tf.strided_slice_97/ones_like", "op": "Const", "attr": {"value": {"tensor": {"dtype": "DT_INT32", "tensorShape": {"dim": [{"size": "4"}]}}}, "dtype": {"type": "DT_INT32"}}}, {"name": "model_648/tf.nn.convolution_1116/convolution/filter", "op": "Const", "attr": {"value": {"tensor": {"dtype": "DT_FLOAT", "tensorShape": {"dim": [{"size": "1"}, {"size": "1"}, {"size": "128"}, {"size": "256"}]}}}, "dtype": {"type": "DT_FLOAT"}}}, {"name": "model_648/tf.math.add_527/Add/y", "op": "Const", "attr": {"value": {"tensor": {"dtype": "DT_FLOAT", "tensorShape": {"dim": [{"size": "256"}]}}}, "dtype": {"type": "DT_FLOAT"}}}, {"name": "model_648/tf.compat.v1.transpose_990/transpose/perm", "op": "Const", "attr": {"value": {"tensor": {"dtype": "DT_INT32", "tensorShape": {"dim": [{"size": "4"}]}}}, "dtype": {"type": "DT_INT32"}}}, {"name": "model_648/tf.reshape_288/Reshape/shape", "op": "Const", "attr": {"value": {"tensor": {"dtype": "DT_INT32", "tensorShape": {"dim": [{"size": "4"}]}}}, "dtype": {"type": "DT_INT32"}}}, {"name": "model_648/tf.strided_slice_100/StridedSlice/begin", "op": "Const", "attr": {"value": {"tensor": {"dtype": "DT_INT32", "tensorShape": {"dim": [{"size": "4"}]}}}, "dtype": {"type": "DT_INT32"}}}, {"name": "model_648/tf.strided_slice_100/StridedSlice/end", "op": "Const", "attr": {"value": {"tensor": {"dtype": "DT_INT32", "tensorShape": {"dim": [{"size": "4"}]}}}, "dtype": {"type": "DT_INT32"}}}, {"name": "model_648/tf.strided_slice_100/ones_like", "op": "Const", "attr": {"value": {"tensor": {"dtype": "DT_INT32", "tensorShape": {"dim": [{"size": "4"}]}}}, "dtype": {"type": "DT_INT32"}}}, {"name": "model_648/tf.reshape_291/Reshape/shape", "op": "Const", "attr": {"value": {"tensor": {"dtype": "DT_INT32", "tensorShape": {"dim": [{"size": "4"}]}}}, "dtype": {"type": "DT_INT32"}}}, {"name": "model_648/tf.compat.v1.transpose_998/transpose/perm", "op": "Const", "attr": {"value": {"tensor": {"dtype": "DT_INT32", "tensorShape": {"dim": [{"size": "4"}]}}}, "dtype": {"type": "DT_INT32"}}}, {"name": "model_648/tf.nn.convolution_1244/convolution/filter", "op": "Const", "attr": {"value": {"tensor": {"dtype": "DT_FLOAT", "tensorShape": {"dim": [{"size": "3"}, {"size": "3"}, {"size": "1"}, {"size": "1"}]}}}, "dtype": {"type": "DT_FLOAT"}}}, {"name": "model_648/tf.concat_128/concat/axis", "op": "Const", "attr": {"value": {"tensor": {"dtype": "DT_INT32", "tensorShape": {}}}, "dtype": {"type": "DT_INT32"}}}, {"name": "model_648/tf.nn.convolution_1245/convolution/filter", "op": "Const", "attr": {"value": {"tensor": {"dtype": "DT_FLOAT", "tensorShape": {"dim": [{"size": "1"}, {"size": "1"}, {"size": "128"}, {"size": "128"}]}}}, "dtype": {"type": "DT_FLOAT"}}}, {"name": "model_648/tf.math.add_531/Add/y", "op": "Const", "attr": {"value": {"tensor": {"dtype": "DT_FLOAT", "tensorShape": {"dim": [{"size": "128"}]}}}, "dtype": {"type": "DT_FLOAT"}}}, {"name": "model_648/tf.nn.convolution_1246/convolution/filter", "op": "Const", "attr": {"value": {"tensor": {"dtype": "DT_FLOAT", "tensorShape": {"dim": [{"size": "1"}, {"size": "1"}, {"size": "128"}, {"size": "256"}]}}}, "dtype": {"type": "DT_FLOAT"}}}, {"name": "model_648/tf.math.add_534/Add/y", "op": "Const", "attr": {"value": {"tensor": {"dtype": "DT_FLOAT", "tensorShape": {"dim": [{"size": "256"}]}}}, "dtype": {"type": "DT_FLOAT"}}}, {"name": "model_648/tf.nn.convolution_1247/convolution/filter", "op": "Const", "attr": {"value": {"tensor": {"dtype": "DT_FLOAT", "tensorShape": {"dim": [{"size": "1"}, {"size": "1"}, {"size": "256"}, {"size": "128"}]}}}, "dtype": {"type": "DT_FLOAT"}}}, {"name": "model_648/tf.concat_129/concat/axis", "op": "Const", "attr": {"value": {"tensor": {"dtype": "DT_INT32", "tensorShape": {}}}, "dtype": {"type": "DT_INT32"}}}, {"name": "model_648/tf.nn.convolution_1248/convolution/filter", "op": "Const", "attr": {"value": {"tensor": {"dtype": "DT_FLOAT", "tensorShape": {"dim": [{"size": "1"}, {"size": "1"}, {"size": "256"}, {"size": "256"}]}}}, "dtype": {"type": "DT_FLOAT"}}}, {"name": "model_648/tf.math.add_538/Add/y", "op": "Const", "attr": {"value": {"tensor": {"dtype": "DT_FLOAT", "tensorShape": {"dim": [{"size": "256"}]}}}, "dtype": {"type": "DT_FLOAT"}}}, {"name": "model_648/tf.concat_139/concat/axis", "op": "Const", "attr": {"value": {"tensor": {"dtype": "DT_INT32", "tensorShape": {}}}, "dtype": {"type": "DT_INT32"}}}, {"name": "model_648/tf.nn.convolution_1292/convolution/filter", "op": "Const", "attr": {"value": {"tensor": {"dtype": "DT_FLOAT", "tensorShape": {"dim": [{"size": "1"}, {"size": "1"}, {"size": "384"}, {"size": "256"}]}}}, "dtype": {"type": "DT_FLOAT"}}}, {"name": "model_648/tf.math.add_597/Add/y", "op": "Const", "attr": {"value": {"tensor": {"dtype": "DT_FLOAT", "tensorShape": {"dim": [{"size": "256"}]}}}, "dtype": {"type": "DT_FLOAT"}}}, {"name": "model_648/tf.strided_slice_108/ones_like/tensor", "op": "Const", "attr": {"value": {"tensor": {"dtype": "DT_INT64", "tensorShape": {"dim": [{"size": "4"}]}}}, "dtype": {"type": "DT_INT64"}}}, {"name": "model_648/tf.strided_slice_108/StridedSlice/end", "op": "Const", "attr": {"value": {"tensor": {"dtype": "DT_INT64", "tensorShape": {"dim": [{"size": "4"}]}}}, "dtype": {"type": "DT_INT64"}}}, {"name": "model_648/tf.strided_slice_108/ones_like", "op": "Const", "attr": {"value": {"tensor": {"dtype": "DT_INT64", "tensorShape": {"dim": [{"size": "4"}]}}}, "dtype": {"type": "DT_INT64"}}}, {"name": "model_648/tf.nn.convolution_1295/convolution/filter", "op": "Const", "attr": {"value": {"tensor": {"dtype": "DT_FLOAT", "tensorShape": {"dim": [{"size": "3"}, {"size": "3"}, {"size": "128"}, {"size": "64"}]}}}, "dtype": {"type": "DT_FLOAT"}}}, {"name": "model_648/tf.math.add_601/Add/y", "op": "Const", "attr": {"value": {"tensor": {"dtype": "DT_FLOAT", "tensorShape": {"dim": [{"size": "64"}]}}}, "dtype": {"type": "DT_FLOAT"}}}, {"name": "model_648/tf.nn.convolution_1297/convolution/filter", "op": "Const", "attr": {"value": {"tensor": {"dtype": "DT_FLOAT", "tensorShape": {"dim": [{"size": "3"}, {"size": "3"}, {"size": "64"}, {"size": "128"}]}}}, "dtype": {"type": "DT_FLOAT"}}}, {"name": "model_648/tf.math.add_603/Add/y", "op": "Const", "attr": {"value": {"tensor": {"dtype": "DT_FLOAT", "tensorShape": {"dim": [{"size": "128"}]}}}, "dtype": {"type": "DT_FLOAT"}}}, {"name": "model_648/tf.nn.convolution_1299/convolution/filter", "op": "Const", "attr": {"value": {"tensor": {"dtype": "DT_FLOAT", "tensorShape": {"dim": [{"size": "1"}, {"size": "1"}, {"size": "128"}, {"size": "256"}]}}}, "dtype": {"type": "DT_FLOAT"}}}, {"name": "model_648/tf.math.add_607/Add/y", "op": "Const", "attr": {"value": {"tensor": {"dtype": "DT_FLOAT", "tensorShape": {"dim": [{"size": "256"}]}}}, "dtype": {"type": "DT_FLOAT"}}}, {"name": "model_648/tf.compat.v1.transpose_1098/transpose/perm", "op": "Const", "attr": {"value": {"tensor": {"dtype": "DT_INT32", "tensorShape": {"dim": [{"size": "4"}]}}}, "dtype": {"type": "DT_INT32"}}}, {"name": "model_648/tf.reshape_315/Reshape/shape", "op": "Const", "attr": {"value": {"tensor": {"dtype": "DT_INT32", "tensorShape": {"dim": [{"size": "4"}]}}}, "dtype": {"type": "DT_INT32"}}}, {"name": "model_648/tf.strided_slice_111/StridedSlice/begin", "op": "Const", "attr": {"value": {"tensor": {"dtype": "DT_INT32", "tensorShape": {"dim": [{"size": "4"}]}}}, "dtype": {"type": "DT_INT32"}}}, {"name": "model_648/tf.strided_slice_111/StridedSlice/end", "op": "Const", "attr": {"value": {"tensor": {"dtype": "DT_INT32", "tensorShape": {"dim": [{"size": "4"}]}}}, "dtype": {"type": "DT_INT32"}}}, {"name": "model_648/tf.strided_slice_111/ones_like", "op": "Const", "attr": {"value": {"tensor": {"dtype": "DT_INT32", "tensorShape": {"dim": [{"size": "4"}]}}}, "dtype": {"type": "DT_INT32"}}}, {"name": "model_648/tf.reshape_318/Reshape/shape", "op": "Const", "attr": {"value": {"tensor": {"dtype": "DT_INT32", "tensorShape": {"dim": [{"size": "4"}]}}}, "dtype": {"type": "DT_INT32"}}}, {"name": "model_648/tf.compat.v1.transpose_1106/transpose/perm", "op": "Const", "attr": {"value": {"tensor": {"dtype": "DT_INT32", "tensorShape": {"dim": [{"size": "4"}]}}}, "dtype": {"type": "DT_INT32"}}}, {"name": "model_648/tf.nn.convolution_1427/convolution/filter", "op": "Const", "attr": {"value": {"tensor": {"dtype": "DT_FLOAT", "tensorShape": {"dim": [{"size": "3"}, {"size": "3"}, {"size": "1"}, {"size": "1"}]}}}, "dtype": {"type": "DT_FLOAT"}}}, {"name": "model_648/tf.concat_140/concat/axis", "op": "Const", "attr": {"value": {"tensor": {"dtype": "DT_INT32", "tensorShape": {}}}, "dtype": {"type": "DT_INT32"}}}, {"name": "model_648/tf.nn.convolution_1428/convolution/filter", "op": "Const", "attr": {"value": {"tensor": {"dtype": "DT_FLOAT", "tensorShape": {"dim": [{"size": "1"}, {"size": "1"}, {"size": "128"}, {"size": "128"}]}}}, "dtype": {"type": "DT_FLOAT"}}}, {"name": "model_648/tf.nn.convolution_1429/convolution/filter", "op": "Const", "attr": {"value": {"tensor": {"dtype": "DT_FLOAT", "tensorShape": {"dim": [{"size": "1"}, {"size": "1"}, {"size": "128"}, {"size": "256"}]}}}, "dtype": {"type": "DT_FLOAT"}}}, {"name": "model_648/tf.math.add_614/Add/y", "op": "Const", "attr": {"value": {"tensor": {"dtype": "DT_FLOAT", "tensorShape": {"dim": [{"size": "256"}]}}}, "dtype": {"type": "DT_FLOAT"}}}, {"name": "model_648/tf.nn.convolution_1430/convolution/filter", "op": "Const", "attr": {"value": {"tensor": {"dtype": "DT_FLOAT", "tensorShape": {"dim": [{"size": "1"}, {"size": "1"}, {"size": "256"}, {"size": "128"}]}}}, "dtype": {"type": "DT_FLOAT"}}}, {"name": "model_648/tf.concat_141/concat/axis", "op": "Const", "attr": {"value": {"tensor": {"dtype": "DT_INT32", "tensorShape": {}}}, "dtype": {"type": "DT_INT32"}}}, {"name": "model_648/tf.nn.convolution_1431/convolution/filter", "op": "Const", "attr": {"value": {"tensor": {"dtype": "DT_FLOAT", "tensorShape": {"dim": [{"size": "1"}, {"size": "1"}, {"size": "384"}, {"size": "256"}]}}}, "dtype": {"type": "DT_FLOAT"}}}, {"name": "model_648/tf.math.add_618/Add/y", "op": "Const", "attr": {"value": {"tensor": {"dtype": "DT_FLOAT", "tensorShape": {"dim": [{"size": "256"}]}}}, "dtype": {"type": "DT_FLOAT"}}}, {"name": "model_648/tf.nn.convolution_1433/convolution/filter", "op": "Const", "attr": {"value": {"tensor": {"dtype": "DT_FLOAT", "tensorShape": {"dim": [{"size": "3"}, {"size": "3"}, {"size": "256"}, {"size": "16"}]}}}, "dtype": {"type": "DT_FLOAT"}}}, {"name": "model_648/tf.math.add_621/Add/y", "op": "Const", "attr": {"value": {"tensor": {"dtype": "DT_FLOAT", "tensorShape": {"dim": [{"size": "16"}]}}}, "dtype": {"type": "DT_FLOAT"}}}, {"name": "model_648/tf.nn.convolution_1436/convolution/filter", "op": "Const", "attr": {"value": {"tensor": {"dtype": "DT_FLOAT", "tensorShape": {"dim": [{"size": "3"}, {"size": "3"}, {"size": "16"}, {"size": "16"}]}}}, "dtype": {"type": "DT_FLOAT"}}}, {"name": "model_648/tf.math.add_624/Add/y", "op": "Const", "attr": {"value": {"tensor": {"dtype": "DT_FLOAT", "tensorShape": {"dim": [{"size": "16"}]}}}, "dtype": {"type": "DT_FLOAT"}}}, {"name": "model_648/tf.nn.convolution_1438/convolution/filter", "op": "Const", "attr": {"value": {"tensor": {"dtype": "DT_FLOAT", "tensorShape": {"dim": [{"size": "1"}, {"size": "1"}, {"size": "16"}, {"size": "1"}]}}}, "dtype": {"type": "DT_FLOAT"}}}, {"name": "model_648/tf.math.add_627/Add/y", "op": "Const", "attr": {"value": {"tensor": {"dtype": "DT_FLOAT", "tensorShape": {"dim": [{"size": "1"}]}}}, "dtype": {"type": "DT_FLOAT"}}}, {"name": "model_648/tf.compat.v1.transpose_1132/transpose/perm", "op": "Const", "attr": {"value": {"tensor": {"dtype": "DT_INT32", "tensorShape": {"dim": [{"size": "4"}]}}}, "dtype": {"type": "DT_INT32"}}}, {"name": "model_648/tf.reshape_327/Reshape/shape", "op": "Const", "attr": {"value": {"tensor": {"dtype": "DT_INT32", "tensorShape": {"dim": [{"size": "3"}]}}}, "dtype": {"type": "DT_INT32"}}}, {"name": "model_648/tf.concat_143/concat/axis", "op": "Const", "attr": {"value": {"tensor": {"dtype": "DT_INT32", "tensorShape": {}}}, "dtype": {"type": "DT_INT32"}}}, {"name": "model_648/tf.concat_153/concat/axis", "op": "Const", "attr": {"value": {"tensor": {"dtype": "DT_INT32", "tensorShape": {}}}, "dtype": {"type": "DT_INT32"}}}, {"name": "model_648/tf.compat.v1.transpose_1142/transpose/perm", "op": "Const", "attr": {"value": {"tensor": {"dtype": "DT_INT32", "tensorShape": {"dim": [{"size": "3"}]}}}, "dtype": {"type": "DT_INT32"}}}, {"name": "model_648/tf.strided_slice_117/StridedSlice/begin", "op": "Const", "attr": {"value": {"tensor": {"dtype": "DT_INT32", "tensorShape": {"dim": [{"size": "3"}]}}}, "dtype": {"type": "DT_INT32"}}}, {"name": "model_648/tf.strided_slice_117/StridedSlice/end", "op": "Const", "attr": {"value": {"tensor": {"dtype": "DT_INT32", "tensorShape": {"dim": [{"size": "3"}]}}}, "dtype": {"type": "DT_INT32"}}}, {"name": "model_648/tf.strided_slice_117/ones_like", "op": "Const", "attr": {"value": {"tensor": {"dtype": "DT_INT32", "tensorShape": {"dim": [{"size": "3"}]}}}, "dtype": {"type": "DT_INT32"}}}, {"name": "model_648/tf.math.reduce_max_7/Max/reduction_indices", "op": "Const", "attr": {"value": {"tensor": {"dtype": "DT_INT32", "tensorShape": {"dim": [{"size": "1"}]}}}, "dtype": {"type": "DT_INT32"}}}, {"name": "model_648/tf.math.top_k_6/TopKV2/k", "op": "Const", "attr": {"value": {"tensor": {"dtype": "DT_INT32", "tensorShape": {}}}, "dtype": {"type": "DT_INT32"}}}, {"name": "model_648/tf.reshape_331/Reshape/shape", "op": "Const", "attr": {"value": {"tensor": {"dtype": "DT_INT32", "tensorShape": {"dim": [{"size": "3"}]}}}, "dtype": {"type": "DT_INT32"}}}, {"name": "model_648/tf.tile_262/Tile/multiples", "op": "Const", "attr": {"value": {"tensor": {"dtype": "DT_INT64", "tensorShape": {"dim": [{"size": "3"}]}}}, "dtype": {"type": "DT_INT64"}}}, {"name": "model_648/tf.math.add_633/Add/y", "op": "Const", "attr": {"value": {"tensor": {"dtype": "DT_INT64", "tensorShape": {}}}, "dtype": {"type": "DT_INT64"}}}, {"name": "model_648/tf.expand_dims_96/ExpandDims/dim", "op": "Const", "attr": {"value": {"tensor": {"dtype": "DT_INT32", "tensorShape": {}}}, "dtype": {"type": "DT_INT32"}}}, {"name": "ConstantFolding/model_648/tf.concat_155/concat_partial_split_1", "op": "Const", "attr": {"value": {"tensor": {"dtype": "DT_INT64", "tensorShape": {"dim": [{"size": "300"}, {"size": "1"}, {"size": "15"}, {"size": "2"}]}}}, "dtype": {"type": "DT_INT64"}}}, {"name": "model_648/tf.concat_155/concat/axis", "op": "Const", "attr": {"value": {"tensor": {"dtype": "DT_INT32", "tensorShape": {}}}, "dtype": {"type": "DT_INT32"}}}, {"name": "model_648/tf.tensor_scatter_nd_update_32/TensorScatterUpdate", "op": "Const", "attr": {"value": {"tensor": {"dtype": "DT_INT32", "tensorShape": {"dim": [{"size": "3"}]}}}, "dtype": {"type": "DT_INT32"}}}, {"name": "model_648/tf.reshape_339/Reshape/shape", "op": "Const", "attr": {"value": {"tensor": {"dtype": "DT_INT32", "tensorShape": {"dim": [{"size": "2"}]}}}, "dtype": {"type": "DT_INT32"}}}, {"name": "model_648/tf.math.top_k_7/TopKV2/k", "op": "Const", "attr": {"value": {"tensor": {"dtype": "DT_INT32", "tensorShape": {}}}, "dtype": {"type": "DT_INT32"}}}, {"name": "ConstantFolding/model_648/tf.math.divide_3/truediv_recip", "op": "Const", "attr": {"value": {"tensor": {"dtype": "DT_FLOAT", "tensorShape": {}}}, "dtype": {"type": "DT_FLOAT"}}}, {"name": "model_648/tf.math.less_3/Less/y", "op": "Const", "attr": {"value": {"tensor": {"dtype": "DT_INT64", "tensorShape": {}}}, "dtype": {"type": "DT_INT64"}}}, {"name": "model_648/tf.__operators__.getitem_201/strided_slice", "op": "Const", "attr": {"value": {"tensor": {"dtype": "DT_INT64", "tensorShape": {}}}, "dtype": {"type": "DT_INT64"}}}, …
ion/filter", "shape": [3, 3, 1, 1], "dtype": "float32"}, {"name": "model_648/tf.nn.convolution_1343/convolution/filter", "shape": [3, 3, 1, 1], "dtype": "float32"}, {"name": "model_648/tf.nn.convolution_1344/convolution/filter", "shape": [3, 3, 1, 1], "dtype": "float32"}, {"name": "model_648/tf.nn.convolution_1345/convolution/filter", "shape": [3, 3, 1, 1], "dtype": "float32"}, {"name": "model_648/tf.nn.convolution_1346/convolution/filter", "shape": [3, 3, 1, 1], "dtype": "float32"}, {"name": "model_648/tf.nn.convolution_1347/convolution/filter", "shape": [3, 3, 1, 1], "dtype": "float32"}, {"name": "model_648/tf.nn.convolution_1348/convolution/filter", "shape": [3, 3, 1, 1], "dtype": "float32"}, {"name": "model_648/tf.nn.convolution_1349/convolution/filter", "shape": [3, 3, 1, 1], "dtype": "float32"}, {"name": "model_648/tf.nn.convolution_1350/convolution/filter", "shape": [3, 3, 1, 1], "dtype": "float32"}, {"name": "model_648/tf.nn.convolution_1351/convolution/filter", "shape": [3, 3, 1, 1], "dtype": "float32"}, {"name": "model_648/tf.nn.convolution_1352/convolution/filter", "shape": [3, 3, 1, 1], "dtype": "float32"}, {"name": "model_648/tf.nn.convolution_1353/convolution/filter", "shape": [3, 3, 1, 1], "dtype": "float32"}, {"name": "model_648/tf.nn.convolution_1354/convolution/filter", "shape": [3, 3, 1, 1], "dtype": "float32"}, {"name": "model_648/tf.nn.convolution_1355/convolution/filter", "shape": [3, 3, 1, 1], "dtype": "float32"}, {"name": "model_648/tf.nn.convolution_1356/convolution/filter", "shape": [3, 3, 1, 1], "dtype": "float32"}, {"name": "model_648/tf.nn.convolution_1357/convolution/filter", "shape": [3, 3, 1, 1], "dtype": "float32"}, {"name": "model_648/tf.nn.convolution_1358/convolution/filter", "shape": [3, 3, 1, 1], "dtype": "float32"}, {"name": "model_648/tf.nn.convolution_1359/convolution/filter", "shape": [3, 3, 1, 1], "dtype": "float32"}, {"name": "model_648/tf.nn.convolution_1360/convolution/filter", "shape": [3, 3, 1, 1], "dtype": "float32"}, {"name": "model_648/tf.nn.convolution_1361/convolution/filter", "shape": [3, 3, 1, 1], "dtype": "float32"}, {"name": "model_648/tf.nn.convolution_1362/convolution/filter", "shape": [3, 3, 1, 1], "dtype": "float32"}, {"name": "model_648/tf.nn.convolution_1363/convolution/filter", "shape": [3, 3, 1, 1], "dtype": "float32"}, {"name": "model_648/tf.nn.convolution_1364/convolution/filter", "shape": [3, 3, 1, 1], "dtype": "float32"}, {"name": "model_648/tf.nn.convolution_1365/convolution/filter", "shape": [3, 3, 1, 1], "dtype": "float32"}, {"name": "model_648/tf.nn.convolution_1366/convolution/filter", "shape": [3, 3, 1, 1], "dtype": "float32"}, {"name": "model_648/tf.nn.convolution_1367/convolution/filter", "shape": [3, 3, 1, 1], "dtype": "float32"}, {"name": "model_648/tf.nn.convolution_1368/convolution/filter", "shape": [3, 3, 1, 1], "dtype": "float32"}, {"name": "model_648/tf.nn.convolution_1369/convolution/filter", "shape": [3, 3, 1, 1], "dtype": "float32"}, {"name": "model_648/tf.nn.convolution_1370/convolution/filter", "shape": [3, 3, 1, 1], "dtype": "float32"}, {"name": "model_648/tf.nn.convolution_1371/convolution/filter", "shape": [3, 3, 1, 1], "dtype": "float32"}, {"name": "model_648/tf.nn.convolution_1372/convolution/filter", "shape": [3, 3, 1, 1], "dtype": "float32"}, {"name": "model_648/tf.nn.convolution_1373/convolution/filter", "shape": [3, 3, 1, 1], "dtype": "float32"}, {"name": "model_648/tf.nn.convolution_1374/convolution/filter", "shape": [3, 3, 1, 1], "dtype": "float32"}, {"name": "model_648/tf.nn.convolution_1375/convolution/filter", "shape": [3, 3, 1, 1], "dtype": "float32"}, {"name": "model_648/tf.nn.convolution_1376/convolution/filter", "shape": [3, 3, 1, 1], "dtype": "float32"}, {"name": "model_648/tf.nn.convolution_1377/convolution/filter", "shape": [3, 3, 1, 1], "dtype": "float32"}, {"name": "model_648/tf.nn.convolution_1378/convolution/filter", "shape": [3, 3, 1, 1], "dtype": "float32"}, {"name": "model_648/tf.nn.convolution_1379/convolution/filter", "shape": [3, 3, 1, 1], "dtype": "float32"}, {"name": "model_648/tf.nn.convolution_1380/convolution/filter", "shape": [3, 3, 1, 1], "dtype": "float32"}, {"name": "model_648/tf.nn.convolution_1381/convolution/filter", "shape": [3, 3, 1, 1], "dtype": "float32"}, {"name": "model_648/tf.nn.convolution_1382/convolution/filter", "shape": [3, 3, 1, 1], "dtype": "float32"}, {"name": "model_648/tf.nn.convolution_1383/convolution/filter", "shape": [3, 3, 1, 1], "dtype": "float32"}, {"name": "model_648/tf.nn.convolution_1384/convolution/filter", "shape": [3, 3, 1, 1], "dtype": "float32"}, {"name": "model_648/tf.nn.convolution_1385/convolution/filter", "shape": [3, 3, 1, 1], "dtype": "float32"}, {"name": "model_648/tf.nn.convolution_1386/convolution/filter", "shape": [3, 3, 1, 1], "dtype": "float32"}, {"name": "model_648/tf.nn.convolution_1387/convolution/filter", "shape": [3, 3, 1, 1], "dtype": "float32"}, {"name": "model_648/tf.nn.convolution_1388/convolution/filter", "shape": [3, 3, 1, 1], "dtype": "float32"}, {"name": "model_648/tf.nn.convolution_1389/convolution/filter", "shape": [3, 3, 1, 1], "dtype": "float32"}, {"name": "model_648/tf.nn.convolution_1390/convolution/filter", "shape": [3, 3, 1, 1], "dtype": "float32"}, {"name": "model_648/tf.nn.convolution_1391/convolution/filter", "shape": [3, 3, 1, 1], "dtype": "float32"}, {"name": "model_648/tf.nn.convolution_1392/convolution/filter", "shape": [3, 3, 1, 1], "dtype": "float32"}, {"name": "model_648/tf.nn.convolution_1393/convolution/filter", "shape": [3, 3, 1, 1], "dtype": "float32"}, {"name": "model_648/tf.nn.convolution_1394/convolution/filter", "shape": [3, 3, 1, 1], "dtype": "float32"}, {"name": "model_648/tf.nn.convolution_1395/convolution/filter", "shape": [3, 3, 1, 1], "dtype": "float32"}, {"name": "model_648/tf.nn.convolution_1396/convolution/filter", "shape": [3, 3, 1, 1], "dtype": "float32"}, {"name": "model_648/tf.nn.convolution_1397/convolution/filter", "shape": [3, 3, 1, 1], "dtype": "float32"}, {"name": "model_648/tf.nn.convolution_1398/convolution/filter", "shape": [3, 3, 1, 1], "dtype": "float32"}, {"name": "model_648/tf.nn.convolution_1399/convolution/filter", "shape": [3, 3, 1, 1], "dtype": "float32"}, {"name": "model_648/tf.nn.convolution_1400/convolution/filter", "shape": [3, 3, 1, 1], "dtype": "float32"}, {"name": "model_648/tf.nn.convolution_1401/convolution/filter", "shape": [3, 3, 1, 1], "dtype": "float32"}, {"name": "model_648/tf.nn.convolution_1402/convolution/filter", "shape": [3, 3, 1, 1], "dtype": "float32"}, {"name": "model_648/tf.nn.convolution_1403/convolution/filter", "shape": [3, 3, 1, 1], "dtype": "float32"}, {"name": "model_648/tf.nn.convolution_1404/convolution/filter", "shape": [3, 3, 1, 1], "dtype": "float32"}, {"name": "model_648/tf.nn.convolution_1405/convolution/filter", "shape": [3, 3, 1, 1], "dtype": "float32"}, {"name": "model_648/tf.nn.convolution_1406/convolution/filter", "shape": [3, 3, 1, 1], "dtype": "float32"}, {"name": "model_648/tf.nn.convolution_1407/convolution/filter", "shape": [3, 3, 1, 1], "dtype": "float32"}, {"name": "model_648/tf.nn.convolution_1408/convolution/filter", "shape": [3, 3, 1, 1], "dtype": "float32"}, {"name": "model_648/tf.nn.convolution_1409/convolution/filter", "shape": [3, 3, 1, 1], "dtype": "float32"}, {"name": "model_648/tf.nn.convolution_1410/convolution/filter", "shape": [3, 3, 1, 1], "dtype": "float32"}, {"name": "model_648/tf.nn.convolution_1411/convolution/filter", "shape": [3, 3, 1, 1], "dtype": "float32"}, {"name": "model_648/tf.nn.convolution_1412/convolution/filter", "shape": [3, 3, 1, 1], "dtype": "float32"}, {"name": "model_648/tf.nn.convolution_1413/convolution/filter", "shape": [3, 3, 1, 1], "dtype": "float32"}, {"name": "model_648/tf.nn.convolution_1414/convolution/filter", "shape": [3, 3, 1, 1], "dtype": "float32"}, {"name": "model_648/tf.nn.convolution_1415/convolution/filter", "shape": [3, 3, 1, 1], "dtype": "float32"}, {"name": "model_648/tf.nn.convolution_1416/convolution/filter", "shape": [3, 3, 1, 1], "dtype": "float32"}, {"name": "model_648/tf.nn.convolution_1417/convolution/filter", "shape": [3, 3, 1, 1], "dtype": "float32"}, {"name": "model_648/tf.nn.convolution_1418/convolution/filter", "shape": [3, 3, 1, 1], "dtype": "float32"}, {"name": "model_648/tf.nn.convolution_1419/convolution/filter", "shape": [3, 3, 1, 1], "dtype": "float32"}, {"name": "model_648/tf.nn.convolution_1420/convolution/filter", "shape": [3, 3, 1, 1], "dtype": "float32"}, {"name": "model_648/tf.nn.convolution_1421/convolution/filter", "shape": [3, 3, 1, 1], "dtype": "float32"}, {"name": "model_648/tf.nn.convolution_1422/convolution/filter", "shape": [3, 3, 1, 1], "dtype": "float32"}, {"name": "model_648/tf.nn.convolution_1423/convolution/filter", "shape": [3, 3, 1, 1], "dtype": "float32"}, {"name": "model_648/tf.nn.convolution_1424/convolution/filter", "shape": [3, 3, 1, 1], "dtype": "float32"}, {"name": "model_648/tf.nn.convolution_1425/convolution/filter", "shape": [3, 3, 1, 1], "dtype": "float32"}, {"name": "model_648/tf.nn.convolution_1426/convolution/filter", "shape": [3, 3, 1, 1], "dtype": "float32"}, {"name": "model_648/tf.split_7/split/split_dim", "shape": [], "dtype": "int32"}, {"name": "model_648/tf.strided_slice_105/ones_like/tensor", "shape": [4], "dtype": "int32"}, {"name": "model_648/tf.strided_slice_105/StridedSlice/end", "shape": [4], "dtype": "int32"}, {"name": "model_648/tf.strided_slice_105/ones_like", "shape": [4], "dtype": "int32"}, {"name": "model_648/tf.nn.convolution_1276/convolution/filter", "shape": [1, 1, 64, 32], "dtype": "float32"}, {"name": "model_648/tf.math.add_576/Add/y", "shape": [32], "dtype": "float32"}, {"name": "model_648/tf.nn.convolution_1279/convolution/filter", "shape": [3, 3, 32, 32], "dtype": "float32"}, {"name": "model_648/tf.math.add_579/Add/y", "shape": [32], "dtype": "float32"}, {"name": "model_648/tf.nn.convolution_1281/convolution/filter", "shape": [3, 3, 32, 32], "dtype": "float32"}, {"name": "model_648/tf.math.add_581/Add/y", "shape": [32], "dtype": "float32"}, {"name": "model_648/tf.nn.convolution_1282/convolution/filter", "shape": [3, 3, 32, 32], "dtype": "float32"}, {"name": "model_648/tf.math.add_584/Add/y", "shape": [32], "dtype": "float32"}, {"name": "model_648/tf.nn.convolution_1283/convolution/filter", "shape": [3, 3, 32, 32], "dtype": "float32"}, {"name": "model_648/tf.math.add_585/Add/y", "shape": [32], "dtype": "float32"}, {"name": "model_648/tf.strided_slice_103/ones_like/tensor", "shape": [4], "dtype": "int32"}, {"name": "model_648/tf.strided_slice_103/StridedSlice/end", "shape": [4], "dtype": "int32"}, {"name": "model_648/tf.strided_slice_103/ones_like", "shape": [4], "dtype": "int32"}, {"name": "model_648/tf.nn.convolution_1259/convolution/filter", "shape": [1, 1, 32, 16], "dtype": "float32"}, {"name": "model_648/tf.math.add_553/Add/y", "shape": [16], "dtype": "float32"}, {"name": "model_648/tf.nn.convolution_1261/convolution/filter", "shape": [3, 3, 16, 16], "dtype": "float32"}, {"name": "model_648/tf.math.add_555/Add/y", "shape": [16], "dtype": "float32"}, {"name": "model_648/tf.nn.convolution_1262/convolution/filter", "shape": [3, 3, 16, 16], "dtype": "float32"}, {"name": "model_648/tf.math.add_556/Add/y", "shape": [16], "dtype": "float32"}, {"name": "model_648/tf.nn.convolution_1263/convolution/filter", "shape": [3, 3, 16, 16], "dtype": "float32"}, {"name": "model_648/tf.math.add_559/Add/y", "shape": [16], "dtype": "float32"}, {"name": "model_648/tf.nn.convolution_1264/convolution/filter", "shape": [3, 3, 16, 16], "dtype": "float32"}, {"name": "model_648/tf.math.add_560/Add/y", "shape": [16], "dtype": "float32"}, {"name": "model_648/tf.image.resize_9/resize/size", "shape": [2], "dtype": "int32"}, {"name": "model_648/tf.concat_133/concat/axis", "shape": [], "dtype": "int32"}, {"name": "model_648/tf.nn.convolution_1258/convolution/filter", "shape": [1, 1, 256, 64], "dtype": "float32"}, {"name": "model_648/tf.math.add_552/Add/y", "shape": [64], "dtype": "float32"}, {"name": "model_648/tf.strided_slice_104/ones_like/tensor", "shape": [4], "dtype": "int32"}, {"name": "model_648/tf.strided_slice_104/StridedSlice/end", "shape": [4], "dtype": "int32"}, {"name": "model_648/tf.strided_slice_104/ones_like", "shape": [4], "dtype": "int32"}, {"name": "model_648/tf.nn.convolution_1260/convolution/filter", "shape": [1, 1, 32, 16], "dtype": "float32"}, {"name": "model_648/tf.math.add_554/Add/y", "shape": [16], "dtype": "float32"}, {"name": "model_648/tf.concat_134/concat/axis", "shape": [], "dtype": "int32"}, {"name": "model_648/tf.nn.convolution_1265/convolution/filter", "shape": [1, 1, 32, 32], "dtype": "float32"}, {"name": "model_648/tf.math.add_563/Add/y", "shape": [32], "dtype": "float32"}, {"name": "model_648/tf.concat_135/concat/axis", "shape": [], "dtype": "int32"}, {"name": "model_648/tf.nn.convolution_1266/convolution/filter", "shape": [1, 1, 96, 64], "dtype": "float32"}, {"name": "model_648/tf.math.add_564/Add/y", "shape": [64], "dtype": "float32"}, {"name": "model_648/tf.compat.v1.pad_26/Pad/paddings", "shape": [4, 2], "dtype": "int32"}, {"name": "model_648/tf.nn.convolution_1267/convolution/filter", "shape": [3, 3, 64, 64], "dtype": "float32"}, {"name": "model_648/tf.math.add_565/Add/y", "shape": [64], "dtype": "float32"}, {"name": "model_648/tf.strided_slice_101/ones_like/tensor", "shape": [4], "dtype": "int32"}, {"name": "model_648/tf.strided_slice_101/StridedSlice/end", "shape": [4], "dtype": "int32"}, {"name": "model_648/tf.strided_slice_101/ones_like", "shape": [4], "dtype": "int32"}, {"name": "model_648/tf.nn.convolution_1250/convolution/filter", "shape": [1, 1, 64, 32], "dtype": "float32"}, {"name": "model_648/tf.math.add_540/Add/y", "shape": [32], "dtype": "float32"}, {"name": "model_648/tf.nn.convolution_1252/convolution/filter", "shape": [3, 3, 32, 32], "dtype": "float32"}, {"name": "model_648/tf.math.add_542/Add/y", "shape": [32], "dtype": "float32"}, {"name": "model_648/tf.nn.convolution_1253/convolution/filter", "shape": [3, 3, 32, 32], "dtype": "float32"}, {"name": "model_648/tf.math.add_543/Add/y", "shape": [32], "dtype": "float32"}, {"name": "model_648/tf.nn.convolution_1254/convolution/filter", "shape": [3, 3, 32, 32], "dtype": "float32"}, {"name": "model_648/tf.math.add_546/Add/y", "shape": [32], "dtype": "float32"}, {"name": "model_648/tf.nn.convolution_1255/convolution/filter", "shape": [3, 3, 32, 32], "dtype": "float32"}, {"name": "model_648/tf.math.add_547/Add/y", "shape": [32], "dtype": "float32"}, {"name": "model_648/tf.image.resize_8/resize/size", "shape": [2], "dtype": "int32"}, {"name": "model_648/tf.concat_130/concat/axis", "shape": [], "dtype": "int32"}, {"name": "model_648/tf.nn.convolution_1249/convolution/filter", "shape": [1, 1, 384, 128], "dtype": "float32"}, {"name": "model_648/tf.math.add_539/Add/y", "shape": [128], "dtype": "float32"}, {"name": "model_648/tf.strided_slice_102/ones_like/tensor", "shape": [4], "dtype": "int32"}, {"name": "model_648/tf.strided_slice_102/StridedSlice/end", "shape": [4], "dtype": "int32"}, {"name": "model_648/tf.strided_slice_102/ones_like", "shape": [4], "dtype": "int32"}, {"name": "model_648/tf.nn.convolution_1251/convolution/filter", "shape": [1, 1, 64, 32], "dtype": "float32"}, {"name": "model_648/tf.math.add_541/Add/y", "shape": [32], "dtype": "float32"}, {"name": "model_648/tf.concat_131/concat/axis", "shape": [], "dtype": "int32"}, {"name": "model_648/tf.nn.convolution_1256/convolution/filter", "shape": [1, 1, 64, 64], "dtype": "float32"}, {"name": "model_648/tf.math.add_550/Add/y", "shape": [64], "dtype": "float32"}, {"name": "model_648/tf.concat_132/concat/axis", "shape": [], "dtype": "int32"}, {"name": "model_648/tf.nn.convolution_1257/convolution/filter", "shape": [1, 1, 192, 128], "dtype": "float32"}, {"name": "model_648/tf.math.add_551/Add/y", "shape": [128], "dtype": "float32"}, {"name": "model_648/tf.concat_136/concat/axis", "shape": [], "dtype": "int32"}, {"name": "model_648/tf.nn.convolution_1273/convolution/filter", "shape": [1, 1, 192, 128], "dtype": "float32"}, {"name": "model_648/tf.math.add_572/Add/y", "shape": [128], "dtype": "float32"}, {"name": "model_648/tf.strided_slice_106/ones_like/tensor", "shape": [4], "dtype": "int32"}, {"name": "model_648/tf.strided_slice_106/StridedSlice/end", "shape": [4], "dtype": "int32"}, {"name": "model_648/tf.strided_slice_106/ones_like", "shape": [4], "dtype": "int32"}, {"name": "model_648/tf.nn.convolution_1277/convolution/filter", "shape": [1, 1, 64, 32], "dtype": "float32"}, {"name": "model_648/tf.math.add_577/Add/y", "shape": [32], "dtype": "float32"}, {"name": "model_648/tf.concat_137/concat/axis", "shape": [], "dtype": "int32"}, {"name": "model_648/tf.nn.convolution_1284/convolution/filter", "shape": [1, 1, 64, 64], "dtype": "float32"}, {"name": "model_648/tf.math.add_588/Add/y", "shape": [64], "dtype": "float32"}, {"name": "model_648/tf.concat_138/concat/axis", "shape": [], "dtype": "int32"}, {"name": "model_648/tf.nn.convolution_1285/convolution/filter", "shape": [1, 1, 192, 128], "dtype": "float32"}, {"name": "model_648/tf.math.add_589/Add/y", "shape": [128], "dtype": "float32"}, {"name": "model_648/tf.compat.v1.pad_27/Pad/paddings", "shape": [4, 2], "dtype": "int32"}, {"name": "model_648/tf.nn.convolution_1286/convolution/filter", "shape": [3, 3, 128, 128], "dtype": "float32"}, {"name": "model_648/tf.math.add_590/Add/y", "shape": [128], "dtype": "float32"}, {"name": "model_648/tf.strided_slice_96/StridedSlice/begin", "shape": [4], "dtype": "int32"}, {"name": "model_648/tf.strided_slice_96/StridedSlice/end", "shape": [4], "dtype": "int32"}, {"name": "model_648/tf.strided_slice_96/ones_like", "shape": [4], "dtype": "int32"}, {"name": "model_648/tf.math.add_535/Add/y", "shape": [128], "dtype": "float32"}, {"name": "model_648/tf.math.add_528/Add/y", "shape": [128], "dtype": "float32"}, {"name": "model_648/tf.strided_slice_98/StridedSlice/begin", "shape": [4], "dtype": "int32"}, {"name": "model_648/tf.strided_slice_98/StridedSlice/end", "shape": [4], "dtype": "int32"}, {"name": "model_648/tf.strided_slice_98/ones_like", "shape": [4], "dtype": "int32"}, {"name": "model_648/tf.strided_slice_99/StridedSlice/begin", "shape": [4], "dtype": "int32"}, {"name": "model_648/tf.strided_slice_99/StridedSlice/end", "shape": [4], "dtype": "int32"}, {"name": "model_648/tf.strided_slice_99/ones_like", "shape": [4], "dtype": "int32"}, {"name": "model_648/tf.math.multiply_1433/Mul/y", "shape": [], "dtype": "float32"}, {"name": "model_648/tf.reshape_294/Reshape/shape", "shape": [4], "dtype": "int32"}, {"name": "model_648/tf.compat.v1.transpose_1005/transpose/perm", "shape": [4], "dtype": "int32"}, {"name": "model_648/tf.nn.convolution_1117/convolution/filter", "shape": [3, 3, 1, 1], "dtype": "float32"}, {"name": "model_648/tf.nn.convolution_1118/convolution/filter", "shape": [3, 3, 1, 1], "dtype": "float32"}, {"name": "model_648/tf.nn.convolution_1119/convolution/filter", "shape": [3, 3, 1, 1], "dtype": "float32"}, {"name": "model_648/tf.nn.convolution_1120/convolution/filter", "shape": [3, 3, 1, 1], "dtype": "float32"}, {"name": "model_648/tf.nn.convolution_1121/convolution/filter", "shape": [3, 3, 1, 1], "dtype": "float32"}, {"name": "model_648/tf.nn.convolution_1122/convolution/filter", "shape": [3, 3, 1, 1], "dtype": "float32"}, {"name": "model_648/tf.nn.convolution_1123/convolution/filter", "shape": [3, 3, 1, 1], "dtype": "float32"}, {"name": "model_648/tf.nn.convolution_1124/convolution/filter", "shape": [3, 3, 1, 1], "dtype": "float32"}, {"name": "model_648/tf.nn.convolution_1125/convolution/filter", "shape": [3, 3, 1, 1], "dtype": "float32"}, {"name": "model_648/tf.nn.convolution_1126/convolution/filter", "shape": [3, 3, 1, 1], "dtype": "float32"}, {"name": "model_648/tf.nn.convolution_1127/convolution/filter", "shape": [3, 3, 1, 1], "dtype": "float32"}, {"name": "model_648/tf.nn.convolution_1128/convolution/filter", "shape": [3, 3, 1, 1], "dtype": "float32"}, {"name": "model_648/tf.nn.convolution_1129/convolution/filter", "shape": [3, 3, 1, 1], "dtype": "float32"}, {"name": "model_648/tf.nn.convolution_1130/convolution/filter", "shape": [3, 3, 1, 1], "dtype": "float32"}, {"name": "model_648/tf.nn.convolution_1131/convolution/filter", "shape": [3, 3, 1, 1], "dtype": "float32"}, {"name": "model_648/tf.nn.convolution_1132/convolution/filter", "shape": [3, 3, 1, 1], "dtype": "float32"}, {"name": "model_648/tf.nn.convolution_1133/convolution/filter", "shape": [3, 3, 1, 1], "dtype": "float32"}, {"name": "model_648/tf.nn.convolution_1134/convolution/filter", "shape": [3, 3, 1, 1], "dtype": "float32"}, {"name": "model_648/tf.nn.convolution_1135/convolution/filter", "shape": [3, 3, 1, 1], "dtype": "float32"}, {"name": "model_648/tf.nn.convolution_1136/convolution/filter", "shape": [3, 3, 1, 1], "dtype": "float32"}, {"name": "model_648/tf.nn.convolution_1137/convolution/filter", "shape": [3, 3, 1, 1], "dtype": "float32"}, {"name": "model_648/tf.nn.convolution_1138/convolution/filter", "shape": [3, 3, 1, 1], "dtype": "float32"}, {"name": "model_648/tf.nn.convolution_1139/convolution/filter", "shape": [3, 3, 1, 1], "dtype": "float32"}, {"name": "model_648/tf.nn.convolution_1140/convolution/filter", "shape": [3, 3, 1, 1], "dtype": "float32"}, {"name": "model_648/tf.nn.convolution_1141/convolution/filter", "shape": [3, 3, 1, 1], "dtype": "float32"}, {"name": "model_648/tf.nn.convolution_1142/convolution/filter", "shape": [3, 3, 1, 1], "dtype": "float32"}, {"name": "model_648/tf.nn.convolution_1143/convolution/filter", "shape": [3, 3, 1, 1], "dtype": "float32"}, {"name": "model_648/tf.nn.convolution_1144/convolution/filter", "shape": [3, 3, 1, 1], "dtype": "float32"}, {"name": "model_648/tf.nn.convolution_1145/convolution/filter", "shape": [3, 3, 1, 1], "dtype": "float32"}, {"name": "model_648/tf.nn.convolution_1146/convolution/filter", "shape": [3, 3, 1, 1], "dtype": "float32"}, {"name": "model_648/tf.nn.convolution_1147/convolution/filter", "shape": [3, 3, 1, 1], "dtype": "float32"}, {"name": "model_648/tf.nn.convolution_1148/convolution/filter", "shape": [3, 3, 1, 1], "dtype": "float32"}, {"name": "model_648/tf.nn.convolution_1149/convolution/filter", "shape": [3, 3, 1, 1], "dtype": "float32"}, {"name": "model_648/tf.nn.convolution_1150/convolution/filter", "shape": [3, 3, 1, 1], "dtype": "float32"}, {"name": "model_648/tf.nn.convolution_1151/convolution/filter", "shape": [3, 3, 1, 1], "dtype": "float32"}, {"name": "model_648/tf.nn.convolution_1152/convolution/filter", "shape": [3, 3, 1, 1], "dtype": "float32"}, {"name": "model_648/tf.nn.convolution_1153/convolution/filter", "shape": [3, 3, 1, 1], "dtype": "float32"}, {"name": "model_648/tf.nn.convolution_1154/convolution/filter", "shape": [3, 3, 1, 1], "dtype": "float32"}, {"name": "model_648/tf.nn.convolution_1155/convolution/filter", "shape": [3, 3, 1, 1], "dtype": "float32"}, {"name": "model_648/tf.nn.convolution_1156/convolution/filter", "shape": [3, 3, 1, 1], "dtype": "float32"}, {"name": "model_648/tf.nn.convolution_1157/convolution/filter", "shape": [3, 3, 1, 1], "dtype": "float32"}, {"name": "model_648/tf.nn.convolution_1158/convolution/filter", "shape": [3, 3, 1, 1], "dtype": "float32"}, {"name": "model_648/tf.nn.convolution_1159/convolution/filter", "shape": [3, 3, 1, 1], "dtype": "float32"}, {"name": "model_648/tf.nn.convolution_1160/convolution/filter", "shape": [3, 3, 1, 1], "dtype": "float32"}, {"name": "model_648/tf.nn.convolution_1161/convolution/filter", "shape": [3, 3, 1, 1], "dtype": "float32"}, {"name": "model_648/tf.nn.convolution_1162/convolution/filter", "shape": [3, 3, 1, 1], "dtype": "float32"}, {"name": "model_648/tf.nn.convolution_1163/convolution/filter", "shape": [3, 3, 1, 1], "dtype": "float32"}, {"name": "model_648/tf.nn.convolution_1164/convolution/filter", "shape": [3, 3, 1, 1], "dtype": "float32"}, {"name": "model_648/tf.nn.convolution_1165/convolution/filter", "shape": [3, 3, 1, 1], "dtype": "float32"}, {"name": "model_648/tf.nn.convolution_1166/convolution/filter", "shape": [3, 3, 1, 1], "dtype": "float32"}, {"name": "model_648/tf.nn.convolution_1167/convolution/filter", "shape": [3, 3, 1, 1], "dtype": "float32"}, {"name": "model_648/tf.nn.convolution_1168/convolution/filter", "shape": [3, 3, 1, 1], "dtype": "float32"}, {"name": "model_648/tf.nn.convolution_1169/convolution/filter", "shape": [3, 3, 1, 1], "dtype": "float32"}, {"name": "model_648/tf.nn.convolution_1170/convolution/filter", "shape": [3, 3, 1, 1], "dtype": "float32"}, {"name": "model_648/tf.nn.convolution_1171/convolution/filter", "shape": [3, 3, 1, 1], "dtype": "float32"}, {"name": "model_648/tf.nn.convolution_1172/convolution/filter", "shape": [3, 3, 1, 1], "dtype": "float32"}, {"name": "model_648/tf.nn.convolution_1173/convolution/filter", "shape": [3, 3, 1, 1], "dtype": "float32"}, {"name": "model_648/tf.nn.convolution_1174/convolution/filter", "shape": [3, 3, 1, 1], "dtype": "float32"}, {"name": "model_648/tf.nn.convolution_1175/convolution/filter", "shape": [3, 3, 1, 1], "dtype": "float32"}, {"name": "model_648/tf.nn.convolution_1176/convolution/filter", "shape": [3, 3, 1, 1], "dtype": "float32"}, {"name": "model_648/tf.nn.convolution_1177/convolution/filter", "shape": [3, 3, 1, 1], "dtype": "float32"}, {"name": "model_648/tf.nn.convolution_1178/convolution/filter", "shape": [3, 3, 1, 1], "dtype": "float32"}, {"name": "model_648/tf.nn.convolution_1179/convolution/filter", "shape": [3, 3, 1, 1], "dtype": "float32"}, {"name": "model_648/tf.nn.convolution_1180/convolution/filter", "shape": [3, 3, 1, 1], "dtype": "float32"}, {"name": "model_648/tf.nn.convolution_1181/convolution/filter", "shape": [3, 3, 1, 1], "dtype": "float32"}, {"name": "model_648/tf.nn.convolution_1182/convolution/filter", "shape": [3, 3, 1, 1], "dtype": "float32"}, {"name": "model_648/tf.nn.convolution_1183/convolution/filter", "shape": [3, 3, 1, 1], "dtype": "float32"}, {"name": "model_648/tf.nn.convolution_1184/convolution/filter", "shape": [3, 3, 1, 1], "dtype": "float32"}, {"name": "model_648/tf.nn.convolution_1185/convolution/filter", "shape": [3, 3, 1, 1], "dtype": "float32"}, {"name": "model_648/tf.nn.convolution_1186/convolution/filter", "shape": [3, 3, 1, 1], "dtype": "float32"}, {"name": "model_648/tf.nn.convolution_1187/convolution/filter", "shape": [3, 3, 1, 1], "dtype": "float32"}, {"name": "model_648/tf.nn.convolution_1188/convolution/filter", "shape": [3, 3, 1, 1], "dtype": "float32"}, {"name": "model_648/tf.nn.convolution_1189/convolution/filter", "shape": [3, 3, 1, 1], "dtype": "float32"}, {"name": "model_648/tf.nn.convolution_1190/convolution/filter", "shape": [3, 3, 1, 1], "dtype": "float32"}, {"name": "model_648/tf.nn.convolution_1191/convolution/filter", "shape": [3, 3, 1, 1], "dtype": "float32"}, {"name": "model_648/tf.nn.convolution_1192/convolution/filter", "shape": [3, 3, 1, 1], "dtype": "float32"}, {"name": "model_648/tf.nn.convolution_1193/convolution/filter", "shape": [3, 3, 1, 1], "dtype": "float32"}, {"name": "model_648/tf.nn.convolution_1194/convolution/filter", "shape": [3, 3, 1, 1], "dtype": "float32"}, {"name": "model_648/tf.nn.convolution_1195/convolution/filter", "shape": [3, 3, 1, 1], "dtype": "float32"}, {"name": "model_648/tf.nn.convolution_1196/convolution/filter", "shape": [3, 3, 1, 1], "dtype": "float32"}, {"name": "model_648/tf.nn.convolution_1197/convolution/filter", "shape": [3, 3, 1, 1], "dtype": "float32"}, {"name": "model_648/tf.nn.convolution_1198/convolution/filter", "shape": [3, 3, 1, 1], "dtype": "float32"}, {"name": "model_648/tf.nn.convolution_1199/convolution/filter", "shape": [3, 3, 1, 1], "dtype": "float32"}, {"name": "model_648/tf.nn.convolution_1200/convolution/filter", "shape": [3, 3, 1, 1], "dtype": "float32"}, {"name": "model_648/tf.nn.convolution_1201/convolution/filter", "shape": [3, 3, 1, 1], "dtype": "float32"}, {"name": "model_648/tf.nn.convolution_1202/convolution/filter", "shape": [3, 3, 1, 1], "dtype": "float32"}, {"name": "model_648/tf.nn.convolution_1203/convolution/filter", "shape": [3, 3, 1, 1], "dtype": "float32"}, {"name": "model_648/tf.nn.convolution_1204/convolution/filter", "shape": [3, 3, 1, 1], "dtype": "float32"}, {"name": "model_648/tf.nn.convolution_1205/convolution/filter", "shape": [3, 3, 1, 1], "dtype": "float32"}, {"name": "model_648/tf.nn.convolution_1206/convolution/filter", "shape": [3, 3, 1, 1], "dtype": "float32"}, {"name": "model_648/tf.nn.convolution_1207/convolution/filter", "shape": [3, 3, 1, 1], "dtype": "float32"}, {"name": "model_648/tf.nn.convolution_1208/convolution/filter", "shape": [3, 3, 1, 1], "dtype": "float32"}, {"name": "model_648/tf.nn.convolution_1209/convolution/filter", "shape": [3, 3, 1, 1], "dtype": "float32"}, {"name": "model_648/tf.nn.convolution_1210/convolution/filter", "shape": [3, 3, 1, 1], "dtype": "float32"}, {"name": "model_648/tf.nn.convolution_1211/convolution/filter", "shape": [3, 3, 1, 1], "dtype": "float32"}, {"name": "model_648/tf.nn.convolution_1212/convolution/filter", "shape": [3, 3, 1, 1], "dtype": "float32"}, {"name": "model_648/tf.nn.convolution_1213/convolution/filter", "shape": [3, 3, 1, 1], "dtype": "float32"}, {"name": "model_648/tf.nn.convolution_1214/convolution/filter", "shape": [3, 3, 1, 1], "dtype": "float32"}, {"name": "model_648/tf.nn.convolution_1215/convolution/filter", "shape": [3, 3, 1, 1], "dtype": "float32"}, {"name": "model_648/tf.nn.convolution_1216/convolution/filter", "shape": [3, 3, 1, 1], "dtype": "float32"}, {"name": "model_648/tf.nn.convolution_1217/convolution/filter", "shape": [3, 3, 1, 1], "dtype": "float32"}, {"name": "model_648/tf.nn.convolution_1218/convolution/filter", "shape": [3, 3, 1, 1], "dtype": "float32"}, {"name": "model_648/tf.nn.convolution_1219/convolution/filter", "shape": [3, 3, 1, 1], "dtype": "float32"}, {"name": "model_648/tf.nn.convolution_1220/convolution/filter", "shape": [3, 3, 1, 1], "dtype": "float32"}, {"name": "model_648/tf.nn.convolution_1221/convolution/filter", "shape": [3, 3, 1, 1], "dtype": "float32"}, {"name": "model_648/tf.nn.convolution_1222/convolution/filter", "shape": [3, 3, 1, 1], "dtype": "float32"}, {"name": "model_648/tf.nn.convolution_1223/convolution/filter", "shape": [3, 3, 1, 1], "dtype": "float32"}, {"name": "model_648/tf.nn.convolution_1224/convolution/filter", "shape": [3, 3, 1, 1], "dtype": "float32"}, {"name": "model_648/tf.nn.convolution_1225/convolution/filter", "shape": [3, 3, 1, 1], "dtype": "float32"}, {"name": "model_648/tf.nn.convolution_1226/convolution/filter", "shape": [3, 3, 1, 1], "dtype": "float32"}, {"name": "model_648/tf.nn.convolution_1227/convolution/filter", "shape": [3, 3, 1, 1], "dtype": "float32"}, {"name": "model_648/tf.nn.convolution_1228/convolution/filter", "shape": [3, 3, 1, 1], "dtype": "float32"}, {"name": "model_648/tf.nn.convolution_1229/convolution/filter", "shape": [3, 3, 1, 1], "dtype": "float32"}, {"name": "model_648/tf.nn.convolution_1230/convolution/filter", "shape": [3, 3, 1, 1], "dtype": "float32"}, {"name": "model_648/tf.nn.convolution_1231/convolution/filter", "shape": [3, 3, 1, 1], "dtype": "float32"}, {"name": "model_648/tf.nn.convolution_1232/convolution/filter", "shape": [3, 3, 1, 1], "dtype": "float32"}, {"name": "model_648/tf.nn.convolution_1233/convolution/filter", "shape": [3, 3, 1, 1], "dtype": "float32"}, {"name": "model_648/tf.nn.convolution_1234/convolution/filter", "shape": [3, 3, 1, 1], "dtype": "float32"}, {"name": "model_648/tf.nn.convolution_1235/convolution/filter", "shape": [3, 3, 1, 1], "dtype": "float32"}, {"name": "model_648/tf.nn.convolution_1236/convolution/filter", "shape": [3, 3, 1, 1], "dtype": "float32"}, {"name": "model_648/tf.nn.convolution_1237/convolution/filter", "shape": [3, 3, 1, 1], "dtype": "float32"}, {"name": "model_648/tf.nn.convolution_1238/convolution/filter", "shape": [3, 3, 1, 1], "dtype": "float32"}, {"name": "model_648/tf.nn.convolution_1239/convolution/filter", "shape": [3, 3, 1, 1], "dtype": "float32"}, {"name": "model_648/tf.nn.convolution_1240/convolution/filter", "shape": [3, 3, 1, 1], "dtype": "float32"}, {"name": "model_648/tf.nn.convolution_1241/convolution/filter", "shape": [3, 3, 1, 1], "dtype": "float32"}, {"name": "model_648/tf.nn.convolution_1242/convolution/filter", "shape": [3, 3, 1, 1], "dtype": "float32"}, {"name": "model_648/tf.nn.convolution_1243/convolution/filter", "shape": [3, 3, 1, 1], "dtype": "float32"}, {"name": "model_648/tf.split_6/split/split_dim", "shape": [], "dtype": "int32"}, {"name": "model_648/tf.nn.convolution_1113/convolution/filter", "shape": [1, 1, 256, 128], "dtype": "float32"}, {"name": "model_648/tf.math.add_522/Add/y", "shape": [128], "dtype": "float32"}, {"name": "model_648/tf.concat_127/concat/axis", "shape": [], "dtype": "int32"}, {"name": "model_648/tf.nn.convolution_1114/convolution/filter", "shape": [1, 1, 512, 256], "dtype": "float32"}, {"name": "model_648/tf.math.add_523/Add/y", "shape": [256], "dtype": "float32"}, {"name": "model_648/tf.strided_slice_94/ones_like/tensor", "shape": [4], "dtype": "int32"}, {"name": "model_648/tf.strided_slice_94/StridedSlice/end", "shape": [4], "dtype": "int32"}, {"name": "model_648/tf.strided_slice_94/ones_like", "shape": [4], "dtype": "int32"}, {"name": "model_648/tf.nn.convolution_1105/convolution/filter", "shape": [1, 1, 128, 64], "dtype": "float32"}, {"name": "model_648/tf.math.add_510/Add/y", "shape": [64], "dtype": "float32"}, {"name": "model_648/tf.nn.convolution_1107/convolution/filter", "shape": [3, 3, 64, 64], "dtype": "float32"}, {"name": "model_648/tf.math.add_512/Add/y", "shape": [64], "dtype": "float32"}, {"name": "model_648/tf.nn.convolution_1108/convolution/filter", "shape": [3, 3, 64, 64], "dtype": "float32"}, {"name": "model_648/tf.math.add_513/Add/y", "shape": [64], "dtype": "float32"}, {"name": "model_648/tf.nn.convolution_1109/convolution/filter", "shape": [3, 3, 64, 64], "dtype": "float32"}, {"name": "model_648/tf.math.add_516/Add/y", "shape": [64], "dtype": "float32"}, {"name": "model_648/tf.nn.convolution_1110/convolution/filter", "shape": [3, 3, 64, 64], "dtype": "float32"}, {"name": "model_648/tf.math.add_517/Add/y", "shape": [64], "dtype": "float32"}, {"name": "model_648/tf.strided_slice_92/ones_like/tensor", "shape": [4], "dtype": "int32"}, {"name": "model_648/tf.strided_slice_92/StridedSlice/end", "shape": [4], "dtype": "int32"}, {"name": "model_648/tf.strided_slice_92/ones_like", "shape": [4], "dtype": "int32"}, {"name": "model_648/tf.nn.convolution_1095/convolution/filter", "shape": [1, 1, 64, 32], "dtype": "float32"}, {"name": "model_648/tf.math.add_496/Add/y", "shape": [32], "dtype": "float32"}, {"name": "model_648/tf.nn.convolution_1097/convolution/filter", "shape": [3, 3, 32, 32], "dtype": "float32"}, {"name": "model_648/tf.math.add_498/Add/y", "shape": [32], "dtype": "float32"}, {"name": "model_648/tf.nn.convolution_1098/convolution/filter", "shape": [3, 3, 32, 32], "dtype": "float32"}, {"name": "model_648/tf.math.add_499/Add/y", "shape": [32], "dtype": "float32"}, {"name": "model_648/tf.nn.convolution_1099/convolution/filter", "shape": [3, 3, 32, 32], "dtype": "float32"}, {"name": "model_648/tf.math.add_502/Add/y", "shape": [32], "dtype": "float32"}, {"name": "model_648/tf.nn.convolution_1100/convolution/filter", "shape": [3, 3, 32, 32], "dtype": "float32"}, {"name": "model_648/tf.math.add_503/Add/y", "shape": [32], "dtype": "float32"}, {"name": "model_648/tf.strided_slice_90/ones_like/tensor", "shape": [4], "dtype": "int32"}, {"name": "model_648/tf.strided_slice_90/StridedSlice/end", "shape": [4], "dtype": "int32"}, {"name": "model_648/tf.strided_slice_90/ones_like", "shape": [4], "dtype": "int32"}, {"name": "model_648/tf.strided_slice_88/ones_like/tensor", "shape": [4], "dtype": "int32"}, {"name": "model_648/tf.strided_slice_88/StridedSlice/end", "shape": [4], "dtype": "int32"}, {"name": "model_648/tf.strided_slice_88/ones_like", "shape": [4], "dtype": "int32"}, {"name": "model_648/tf.compat.v1.pad_21/Pad/paddings", "shape": [4, 2], "dtype": "int32"}, {"name": "model_648/tf.nn.convolution_1082/convolution/filter", "shape": [3, 3, 3, 16], "dtype": "float32"}, {"name": "model_648/tf.math.add_479/Add/y", "shape": [16], "dtype": "float32"}, {"name": "model_648/tf.compat.v1.pad_22/Pad/paddings", "shape": [4, 2], "dtype": "int32"}, {"name": "model_648/tf.nn.convolution_1083/convolution/filter", "shape": [3, 3, 16, 32], "dtype": "float32"}, {"name": "model_648/tf.math.add_480/Add/y", "shape": [32], "dtype": "float32"}, {"name": "model_648/tf.nn.convolution_1084/convolution/filter", "shape": [1, 1, 32, 32], "dtype": "float32"}, {"name": "model_648/tf.math.add_481/Add/y", "shape": [32], "dtype": "float32"}, {"name": "model_648/tf.strided_slice_89/ones_like/tensor", "shape": [4], "dtype": "int32"}, {"name": "model_648/tf.strided_slice_89/StridedSlice/end", "shape": [4], "dtype": "int32"}, {"name": "model_648/tf.strided_slice_89/ones_like", "shape": [4], "dtype": "int32"}, {"name": "model_648/tf.nn.convolution_1085/convolution/filter", "shape": [3, 3, 16, 8], "dtype": "float32"}, {"name": "model_648/tf.math.add_482/Add/y", "shape": [8], "dtype": "float32"}, {"name": "model_648/tf.nn.convolution_1086/convolution/filter", "shape": [3, 3, 8, 16], "dtype": "float32"}, {"name": "model_648/tf.math.add_483/Add/y", "shape": [16], "dtype": "float32"}, {"name": "model_648/tf.concat_121/concat/axis", "shape": [], "dtype": "int32"}, {"name": "model_648/tf.nn.convolution_1087/convolution/filter", "shape": [1, 1, 48, 64], "dtype": "float32"}, {"name": "model_648/tf.math.add_486/Add/y", "shape": [64], "dtype": "float32"}, {"name": "model_648/tf.compat.v1.pad_23/Pad/paddings", "shape": [4, 2], "dtype": "int32"}, {"name": "model_648/tf.nn.convolution_1088/convolution/filter", "shape": [3, 3, 64, 64], "dtype": "float32"}, {"name": "model_648/tf.math.add_487/Add/y", "shape": [64], "dtype": "float32"}, {"name": "model_648/tf.nn.convolution_1089/convolution/filter", "shape": [1, 1, 64, 64], "dtype": "float32"}, {"name": "model_648/tf.math.add_488/Add/y", "shape": [64], "dtype": "float32"}, {"name": "model_648/tf.strided_slice_91/ones_like/tensor", "shape": [4], "dtype": "int32"}, {"name": "model_648/tf.strided_slice_91/StridedSlice/end", "shape": [4], "dtype": "int32"}, {"name": "model_648/tf.strided_slice_91/ones_like", "shape": [4], "dtype": "int32"}, {"name": "model_648/tf.nn.convolution_1090/convolution/filter", "shape": [3, 3, 32, 16], "dtype": "float32"}, {"name": "model_648/tf.math.add_489/Add/y", "shape": [16], "dtype": "float32"}, {"name": "model_648/tf.nn.convolution_1091/convolution/filter", "shape": [3, 3, 16, 32], "dtype": "float32"}, {"name": "model_648/tf.math.add_490/Add/y", "shape": [32], "dtype": "float32"}, {"name": "model_648/tf.concat_122/concat/axis", "shape": [], "dtype": "int32"}, {"name": "model_648/tf.nn.convolution_1092/convolution/filter", "shape": [1, 1, 96, 128], "dtype": "float32"}, {"name": "model_648/tf.math.add_493/Add/y", "shape": [128], "dtype": "float32"}, {"name": "model_648/tf.compat.v1.pad_24/Pad/paddings", "shape": [4, 2], "dtype": "int32"}, {"name": "model_648/tf.nn.convolution_1093/convolution/filter", "shape": [3, 3, 128, 128], "dtype": "float32"}, {"name": "model_648/tf.math.add_494/Add/y", "shape": [128], "dtype": "float32"}, {"name": "model_648/tf.nn.convolution_1094/convolution/filter", "shape": [1, 1, 128, 128], "dtype": "float32"}, {"name": "model_648/tf.math.add_495/Add/y", "shape": [128], "dtype": "float32"}, {"name": "model_648/tf.strided_slice_93/ones_like/tensor", "shape": [4], "dtype": "int32"}, {"name": "model_648/tf.strided_slice_93/StridedSlice/end", "shape": [4], "dtype": "int32"}, {"name": "model_648/tf.strided_slice_93/ones_like", "shape": [4], "dtype": "int32"}, {"name": "model_648/tf.nn.convolution_1096/convolution/filter", "shape": [1, 1, 64, 32], "dtype": "float32"}, {"name": "model_648/tf.math.add_497/Add/y", "shape": [32], "dtype": "float32"}, {"name": "model_648/tf.concat_123/concat/axis", "shape": [], "dtype": "int32"}, {"name": "model_648/tf.nn.convolution_1101/convolution/filter", "shape": [1, 1, 64, 64], "dtype": "float32"}, {"name": "model_648/tf.math.add_506/Add/y", "shape": [64], "dtype": "float32"}, {"name": "model_648/tf.concat_124/concat/axis", "shape": [], "dtype": "int32"}, {"name": "model_648/tf.nn.convolution_1102/convolution/filter", "shape": [1, 1, 192, 128], "dtype": "float32"}, {"name": "model_648/tf.math.add_507/Add/y", "shape": [128], "dtype": "float32"}, {"name": "model_648/tf.compat.v1.pad_25/Pad/paddings", "shape": [4, 2], "dtype": "int32"}, {"name": "model_648/tf.nn.convolution_1103/convolution/filter", "shape": [3, 3, 128, 256], "dtype": "float32"}, {"name": "model_648/tf.math.add_508/Add/y", "shape": [256], "dtype": "float32"}, {"name": "model_648/tf.nn.convolution_1104/convolution/filter", "shape": [1, 1, 256, 256], "dtype": "float32"}, {"name": "model_648/tf.math.add_509/Add/y", "shape": [256], "dtype": "float32"}, {"name": "model_648/tf.strided_slice_95/ones_like/tensor", "shape": [4], "dtype": "int32"}, {"name": "model_648/tf.strided_slice_95/StridedSlice/end", "shape": [4], "dtype": "int32"}, {"name": "model_648/tf.strided_slice_95/ones_like", "shape": [4], "dtype": "int32"}, {"name": "model_648/tf.nn.convolution_1106/convolution/filter", "shape": [1, 1, 128, 64], "dtype": "float32"}, {"name": "model_648/tf.math.add_511/Add/y", "shape": [64], "dtype": "float32"}, {"name": "model_648/tf.concat_125/concat/axis", "shape": [], "dtype": "int32"}, {"name": "model_648/tf.nn.convolution_1111/convolution/filter", "shape": [1, 1, 128, 128], "dtype": "float32"}, {"name": "model_648/tf.math.add_520/Add/y", "shape": [128], "dtype": "float32"}, {"name": "model_648/tf.concat_126/concat/axis", "shape": [], "dtype": "int32"}, {"name": "model_648/tf.nn.convolution_1112/convolution/filter", "shape": [1, 1, 384, 256], "dtype": "float32"}, {"name": "model_648/tf.math.add_521/Add/y", "shape": [256], "dtype": "float32"}, {"name": "model_648/tf.nn.convolution_1115/convolution/filter", "shape": [1, 1, 256, 256], "dtype": "float32"}, {"name": "model_648/tf.math.add_526/Add/y", "shape": [256], "dtype": "float32"}, {"name": "model_648/tf.strided_slice_97/StridedSlice/begin", "shape": [4], "dtype": "int32"}, {"name": "model_648/tf.strided_slice_97/StridedSlice/end", "shape": [4], "dtype": "int32"}, {"name": "model_648/tf.strided_slice_97/ones_like", "shape": [4], "dtype": "int32"}, {"name": "model_648/tf.nn.convolution_1116/convolution/filter", "shape": [1, 1, 128, 256], "dtype": "float32"}, {"name": "model_648/tf.math.add_527/Add/y", "shape": [256], "dtype": "float32"}, {"name": "model_648/tf.compat.v1.transpose_990/transpose/perm", "shape": [4], "dtype": "int32"}, {"name": "model_648/tf.reshape_288/Reshape/shape", "shape": [4], "dtype": "int32"}, {"name": "model_648/tf.strided_slice_100/StridedSlice/begin", "shape": [4], "dtype": "int32"}, {"name": "model_648/tf.strided_slice_100/StridedSlice/end", "shape": [4], "dtype": "int32"}, {"name": "model_648/tf.strided_slice_100/ones_like", "shape": [4], "dtype": "int32"}, {"name": "model_648/tf.reshape_291/Reshape/shape", "shape": [4], "dtype": "int32"}, {"name": "model_648/tf.compat.v1.transpose_998/transpose/perm", "shape": [4], "dtype": "int32"}, {"name": "model_648/tf.nn.convolution_1244/convolution/filter", "shape": [3, 3, 1, 1], "dtype": "float32"}, {"name": "model_648/tf.concat_128/concat/axis", "shape": [], "dtype": "int32"}, {"name": "model_648/tf.nn.convolution_1245/convolution/filter", "shape": [1, 1, 128, 128], "dtype": "float32"}, {"name": "model_648/tf.math.add_531/Add/y", "shape": [128], "dtype": "float32"}, {"name": "model_648/tf.nn.convolution_1246/convolution/filter", "shape": [1, 1, 128, 256], "dtype": "float32"}, {"name": "model_648/tf.math.add_534/Add/y", "shape": [256], "dtype": "float32"}, {"name": "model_648/tf.nn.convolution_1247/convolution/filter", "shape": [1, 1, 256, 128], "dtype": "float32"}, {"name": "model_648/tf.concat_129/concat/axis", "shape": [], "dtype": "int32"}, {"name": "model_648/tf.nn.convolution_1248/convolution/filter", "shape": [1, 1, 256, 256], "dtype": "float32"}, {"name": "model_648/tf.math.add_538/Add/y", "shape": [256], "dtype": "float32"}, {"name": "model_648/tf.concat_139/concat/axis", "shape": [], "dtype": "int32"}, {"name": "model_648/tf.nn.convolution_1292/convolution/filter", "shape": [1, 1, 384, 256], "dtype": "float32"}, {"name": "model_648/tf.math.add_597/Add/y", "shape": [256], "dtype": "float32"}, {"name": "model_648/tf.strided_slice_108/ones_like/tensor", "shape": [4], "dtype": "int32"}, {"name": "model_648/tf.strided_slice_108/StridedSlice/end", "shape": [4], "dtype": "int32"}, {"name": "model_648/tf.strided_slice_108/ones_like", "shape": [4], "dtype": "int32"}, {"name": "model_648/tf.nn.convolution_1295/convolution/filter", "shape": [3, 3, 128, 64], "dtype": "float32"}, {"name": "model_648/tf.math.add_601/Add/y", "shape": [64], "dtype": "float32"}, {"name": "model_648/tf.nn.convolution_1297/convolution/filter", "shape": [3, 3, 64, 128], "dtype": "float32"}, {"name": "model_648/tf.math.add_603/Add/y", "shape": [128], "dtype": "float32"}, {"name": "model_648/tf.nn.convolution_1299/convolution/filter", "shape": [1, 1, 128, 256], "dtype": "float32"}, {"name": "model_648/tf.math.add_607/Add/y", "shape": [256], "dtype": "float32"}, {"name": "model_648/tf.compat.v1.transpose_1098/transpose/perm", "shape": [4], "dtype": "int32"}, {"name": "model_648/tf.reshape_315/Reshape/shape", "shape": [4], "dtype": "int32"}, {"name": "model_648/tf.strided_slice_111/StridedSlice/begin", "shape": [4], "dtype": "int32"}, {"name": "model_648/tf.strided_slice_111/StridedSlice/end", "shape": [4], "dtype": "int32"}, {"name": "model_648/tf.strided_slice_111/ones_like", "shape": [4], "dtype": "int32"}, {"name": "model_648/tf.reshape_318/Reshape/shape", "shape": [4], "dtype": "int32"}, {"name": "model_648/tf.compat.v1.transpose_1106/transpose/perm", "shape": [4], "dtype": "int32"}, {"name": "model_648/tf.nn.convolution_1427/convolution/filter", "shape": [3, 3, 1, 1], "dtype": "float32"}, {"name": "model_648/tf.concat_140/concat/axis", "shape": [], "dtype": "int32"}, {"name": "model_648/tf.nn.convolution_1428/convolution/filter", "shape": [1, 1, 128, 128], "dtype": "float32"}, {"name": "model_648/tf.nn.convolution_1429/convolution/filter", "shape": [1, 1, 128, 256], "dtype": "float32"}, {"name": "model_648/tf.math.add_614/Add/y", "shape": [256], "dtype": "float32"}, {"name": "model_648/tf.nn.convolution_1430/convolution/filter", "shape": [1, 1, 256, 128], "dtype": "float32"}, {"name": "model_648/tf.concat_141/concat/axis", "shape": [], "dtype": "int32"}, {"name": "model_648/tf.nn.convolution_1431/convolution/filter", "shape": [1, 1, 384, 256], "dtype": "float32"}, {"name": "model_648/tf.math.add_618/Add/y", "shape": [256], "dtype": "float32"}, {"name": "model_648/tf.nn.convolution_1433/convolution/filter", "shape": [3, 3, 256, 16], "dtype": "float32"}, {"name": "model_648/tf.math.add_621/Add/y", "shape": [16], "dtype": "float32"}, {"name": "model_648/tf.nn.convolution_1436/convolution/filter", "shape": [3, 3, 16, 16], "dtype": "float32"}, {"name": "model_648/tf.math.add_624/Add/y", "shape": [16], "dtype": "float32"}, {"name": "model_648/tf.nn.convolution_1438/convolution/filter", "shape": [1, 1, 16, 1], "dtype": "float32"}, {"name": "model_648/tf.math.add_627/Add/y", "shape": [1], "dtype": "float32"}, {"name": "model_648/tf.compat.v1.transpose_1132/transpose/perm", "shape": [4], "dtype": "int32"}, {"name": "model_648/tf.reshape_327/Reshape/shape", "shape": [3], "dtype": "int32"}, {"name": "model_648/tf.concat_143/concat/axis", "shape": [], "dtype": "int32"}, {"name": "model_648/tf.concat_153/concat/axis", "shape": [], "dtype": "int32"}, {"name": "model_648/tf.compat.v1.transpose_1142/transpose/perm", "shape": [3], "dtype": "int32"}, {"name": "model_648/tf.strided_slice_117/StridedSlice/begin", "shape": [3], "dtype": "int32"}, {"name": "model_648/tf.strided_slice_117/StridedSlice/end", "shape": [3], "dtype": "int32"}, {"name": "model_648/tf.strided_slice_117/ones_like", "shape": [3], "dtype": "int32"}, {"name": "model_648/tf.math.reduce_max_7/Max/reduction_indices", "shape": [1], "dtype": "int32"}, {"name": "model_648/tf.math.top_k_6/TopKV2/k", "shape": [], "dtype": "int32"}, {"name": "model_648/tf.reshape_331/Reshape/shape", "shape": [3], "dtype": "int32"}, {"name": "model_648/tf.tile_262/Tile/multiples", "shape": [3], "dtype": "int32"}, {"name": "model_648/tf.math.add_633/Add/y", "shape": [], "dtype": "int32"}, {"name": "model_648/tf.expand_dims_96/ExpandDims/dim", "shape": [], "dtype": "int32"}, {"name": "ConstantFolding/model_648/tf.concat_155/concat_partial_split_1", "shape": [300, 1, 15, 2], "dtype": "int32"}, {"name": "model_648/tf.concat_155/concat/axis", "shape": [], "dtype": "int32"}, {"name": "model_648/tf.tensor_scatter_nd_update_32/TensorScatterUpdate", "shape": [3], "dtype": "int32"}, {"name": "model_648/tf.reshape_339/Reshape/shape", "shape": [2], "dtype": "int32"}, {"name": "model_648/tf.math.top_k_7/TopKV2/k", "shape": [], "dtype": "int32"}, {"name": "ConstantFolding/model_648/tf.math.divide_3/truediv_recip", "shape": [], "dtype": "float32"}, {"name": "model_648/tf.math.less_3/Less/y", "shape": [], "dtype": "int32"}, {"name": "model_648/tf.__operators__.getitem_201/strided_slice", "shape": [], "dtype": "int32"}, {"name": "model_648/tf.compat.v1.gather_3/GatherV2/axis", "shape": [], "dtype": "int32"}, {"name": "model_648/tf.math.add_635/Add/y", "shape": [], "dtype": "int32"}, {"name": "model_648/tf.expand_dims_138/ExpandDims/dim", "shape": [], "dtype": "int32"}, {"name": "ConstantFolding/model_648/tf.concat_169/concat_partial_split_1", "shape": [300, 1, 1, 2], "dtype": "int32"}, {"name": "model_648/tf.concat_169/concat/axis", "shape": [], "dtype": "int32"}, {"name": "model_648/tf.tensor_scatter_nd_update_46/TensorScatterUpdate", "shape": [3], "dtype": "int32"}, {"name": "model_648/output0/concat/axis", "shape": [], "dtype": "int32"}]}]}